final_model.pt (torch, 51568 bytes, 4 tensors)

conv1.weight f4 [32, 1, 5, 5]
00000000: 7c39 90be af53 6bbd 2224 873e b5c6 0c3e
00000010: 5cd4 48bd c785 99be 3e81 723e 9015 c53e
00000020: b2a7 b2bd 7cc0 6dbe de94 bdbd ce7c b63e
00000030: a477 293e 621f 81be e4dc 54be b740 c23d
00000040: fe23 3b3e 17e1 afbd 0b8b 3cbe 8456 bdbd
00000050: 297c f63d 55a2 44bc 26f5 e7bd 3430 19bd
00000060: 866f 693c c32f 3ebe 248c 12be ca06 6abe
00000070: cd91 b5be aa48 74be 2660 26be a020 58be
00000080: e297 86be 9767 03be ff79 083e a6a7 6bbe
00000090: f90b 48be d574 92bd 4c60 133e e69b 943e
000000a0: ec0a a5be 4c5d 29be 1db0 083e b570 823e
000000b0: 7b32 303e d276 a2be 0b1f 32be 6a52 283e
000000c0: 4224 4d3e ad04 293e b29e 25be f256 e1bd
000000d0: 8a49 c23d ca2d 8c3e 7704 813e c341 4fbe
000000e0: 473c e63d ff90 873e da0c 5a3e b2d2 36bd
000000f0: 2635 333e db44 ce3e 90d0 a23e 8677 52bd
00000100: 4922 6bbe 321e f03e 794f 613e 9146 e0bd
00000110: 55f7 24be f0be ccbd 4c31 2d3e 0313 93be
00000120: 6fce 94be fc43 edbd 6594 82bd c026 c53d
00000130: 4273 923d d74c c5bc 045d 8fbd 2f40 eabd
00000140: fc88 5c3e 8550 8e3e d824 973e 70bb a33e
00000150: 298f 9b3e d846 3e3d 6798 4a3e b960 963e
00000160: 5fac 8e3e 7ab2 9a3e 0dd5 7abe 8ecc 2bbe
00000170: c02f 33be 6455 f2bd d3d8 aa3d e186 aebe
00000180: 6256 b0be 07a1 d0be 7e9f d4be 8b63 87be
00000190: f0fb 573e 1b9e 563e 9abc 623e fd86 883e
000001a0: 013d 9f3e b88b 893e f714 a73e 0f59 8a3e
000001b0: cf54 863e fd52 ae3e 2f74 1dbd 5c04 c33d
000001c0: 385e 473e 663f 6c3d 0972 e23c 7ff0 94be
000001d0: e4b0 5cbe 22f2 67be ea84 71be 0247 59be
000001e0: 13c4 98be c18f bfbe f442 dcbe aec3 acbe
000001f0: 03b6 61be f27c 86bd a19f 0e3e 0208 823e
00000200: 6bfd ad3d 7fb5 3dbe 1c2a 2fbe f22c 073e
00000210: 9391 913e cecc 873c 76e6 b7be 4ad9 61be
00000220: 5a93 1a3e e312 a03e 558c af3c fd0e 9bbe
00000230: 6367 4ebe 1e81 b33d fa24 813e 547c 2a3d
00000240: e199 60be 7976 19be a45f 903d b21a 543e
00000250: 7fd0 0f3e b6ac cfbd 4de8 2ebe c1c8 3ebe
00000260: b8c8 64be 7153 0ebe 4be4 0d3e 0bc8 32be
00000270: 3622 3bbe 20e4 13be 3c3c ae3d 48b3 8b3e
00000280: 263b 27be 9bbc 25be 26b5 26bd 387f 613e
00000290: b2d6 413e 37ff 5dbe def7 3fbe cb6b 3d3d
000002a0: 6fd3 703e 049b 0a3e 8c12 50be b0c4 27be
000002b0: 08b4 bb3d f371 7b3e 89f9 853d a2a7 ad3e
000002c0: c19b dc3e e226 b73e 2a85 803e 573d e23c
000002d0: dc1f ca3d d242 423e 9ef1 d0bc afc7 1cbe
000002e0: a225 d1be a85f 82be 9a26 41be 08a9 8dbe
000002f0: dbd5 a7be d1f6 b7be 0028 d6be 8fe6 8ebe
00000300: 2398 a2be 6032 69be a112 35be 3de0 b8be
00000310: 4fda 7fbe 3b28 5bbe c8bc 63bd d09c 0c3d
00000320: 7805 ae3b 8dc5 dfbb 28a4 bdbc 2dd2 213c
00000330: 1843 1e3e 9584 c4bd 2bbe bdbd b0de b7bd
00000340: 08f9 87bb d180 3b3e 5126 f2bd 4721 10be
00000350: 102f 23be 8d58 6c3d a37a 733e 899d 1bbe
00000360: 7d7d 45be 76f1 94bd a48f 5e3e 6656 673e
00000370: 7a9d 21be 469d 1dbe f6a2 8e3d 3029 823e
00000380: b90b 843d ae0c 933e 817f 503e 9cf4 a3bc
00000390: 97ec 4ebe 0d17 bebe 56dd 3fbe 9ca8 ccbe
000003a0: 0632 eebe 8220 b3be 6220 24be 3e2c ebbe
000003b0: d0c8 0bbf 722b 87be 48d9 50bb b670 a03e
000003c0: d1ad 86bd b1c2 043e d76d d23e fe37 e43e
000003d0: a2a3 743e b1a4 083f aa2c 223f 1164 cf3e
000003e0: f1e2 b83d 1e12 12bd 64ab 2ebb b78b 543c
000003f0: 033e 953b a4a4 32bd ec00 f9bd c3b7 e23d
-0.28168857 -0.057452854 0.26394755 0.13747676 -0.049030647 -0.29984877 0.23682114 0.38493013
-0.087233916 -0.23217958 -0.0925691 0.35642093 0.16549546 -0.25219256 -0.20787388 0.094849996
0.18275449 -0.08587854 -0.18412416 -0.09245017 0.120354004 -0.012001594 -0.11326055 -0.037399486
0.014247781 -0.18572907 -0.14311272 -0.22854152 -0.354628 -0.23855844 -0.16247615 -0.21106195
-0.26287752 -0.12832485 0.13327788 -0.23013172 -0.19535817 -0.0715119 0.14392203 0.2902519
-0.32234895 -0.16539496 0.13348432 0.25476614 0.17206757 -0.31731278 -0.17394654 0.16437688
0.20033363 0.1650569 -0.16173819 -0.110029116 0.09486683 0.27378684 0.2519872 -0.2023993
0.11241966 0.2647781 0.21293965 -0.04463453 0.17500743 0.40286908 0.31799746 -0.051383518
-0.22962297 0.46898037 0.22002973 -0.109509595 -0.16109975 -0.09997356 0.16913337 -0.28725442
-0.29063746 -0.115852326 -0.0637596 0.096265316 0.0715089 -0.024084492 -0.07000163 -0.11438023
0.2153663 0.27795807 0.29520297 0.3197894 0.3038266 0.04645428 0.197847 0.2937067
0.27865884 0.30214292 -0.24495335 -0.1677725 -0.17498684 -0.11832693 0.08342137 -0.3408728
-0.34440905 -0.40747854 -0.41527933 -0.26443133 0.210922 0.2095875 0.22142258 0.26665488
0.3110123 0.2686441 0.32633182 0.2702107 0.2623658 0.3404769 -0.03844088 0.09522316
0.19469535 0.05767765 0.027642267 -0.29089734 -0.21551853 -0.2265096 -0.23585859 -0.21218494
-0.29837093 -0.37414363 -0.4301983 -0.33743042 -0.22042088 -0.065668 0.13928081 0.25396734
0.08495601 -0.18526267 -0.17105907 0.13200739 0.28431377 0.01657715 -0.35918015 -0.22055545
0.15095273 0.3126441 0.02142922 -0.30284873 -0.20156626 0.087648615 0.25223523 0.041622475
-0.219337 -0.149866 0.07049492 0.20713308 0.14044379 -0.10140364 -0.17080803 -0.18631269
-0.22342193 -0.13899018 0.13856618 -0.17459123 -0.18274769 -0.14442492 0.085075825 0.27285218
-0.16331157 -0.16185229 -0.0407001 0.22021186 0.18929556 -0.21679388 -0.18746898 0.046245378
0.23518156 0.13535696 -0.20319575 -0.16383624 0.091651976 0.24555187 0.06541736 0.33916956
0.4308758 0.35771853 0.25101596 0.02761714 0.09869358 0.18970802 -0.025505837 -0.15310548
-0.40849024 -0.25463605 -0.18862382 -0.27668023 -0.32780346 -0.35930493 -0.41827393 -0.27910277
-0.31756696 -0.22773123 -0.17682888 -0.3610858 -0.24985622 -0.21402065 -0.055599958 0.034329236
0.0053107105 -0.00682897 -0.023149565 0.00987677 0.15455282 -0.095956005 -0.09264787 -0.08978021
-0.00414956 0.18310858 -0.118237145 -0.14075194 -0.15935922 0.057701636 0.23777251 -0.15196814
-0.19286151 -0.072726175 0.21734482 0.22591552 -0.15782729 -0.15392026 0.06964676 0.2542205
0.064475484 0.2872061 0.20361139 -0.0200141 -0.2020744 -0.3712696 -0.18736777 -0.3997239
-0.4652254 -0.3498574 -0.16027978 -0.45932192 -0.5460329 -0.26400334 -0.003186779 0.31335992
-0.065761216 0.12964894 0.41099426 0.4457397 0.23890546 0.533763 0.633494 0.40506032
0.09027661 -0.03566181 -0.002665245 0.012972764 0.0045545115 -0.043614045 -0.12158379 0.11070206

conv1.bias f4 [32]
00000000: 86d0 1cbe 0b12 c03d 0e25 87be 250d 98bb
00000010: 3fe8 88bb 7f1c 18be da95 67bd 8de0 c13e
00000020: b446 c5bd d1f1 813a 94dd debd 44f3 9bbe
00000030: ef00 d93d b0ea 64bb 0c71 dabd 9604 3abb
00000040: 0b50 a6be ae70 ddbd 2201 6ebe cab2 f33d
00000050: bdb8 6cbe 4f6b 42be 83b7 71bb dc03 0ebe
00000060: 0daa 5fbe 12f0 4cbe 2ac4 30bd 667b 60be
00000070: c6af 9bbe 3eca 553a e696 7bba 8087 80bd
-0.1531392 0.093784414 -0.26395458 -0.004640239 -0.0041780765 -0.1485462 -0.056539394 0.3786663
-0.09632626 0.0009913986 -0.108821064 -0.30459034 0.10595881 -0.0034929924 -0.10666093 -0.002838408
-0.32482943 -0.108125076 -0.2324262 0.11899336 -0.23117347 -0.18986247 -0.0036883063 -0.1386866
-0.21842213 -0.20013455 -0.043155827 -0.21922073 -0.30407542 0.00081554416 -0.0009597376 -0.062758446

fc1.weight f4 [10, 1152]
00000000: 673d c332 64ca 33b9 504f 39bc e38d a0ba
00000010: 1334 ccbc eaaa fb3a 85a5 2539 0591 8fbc
00000020: ee48 0abc 8302 62bc f525 7ebd 50ac 5abd
00000030: 5bca 34b6 a009 d63c 0b96 89bb 4ac8 54bc
00000040: 2235 9dbd 5426 813c f9e8 60b7 4ae4 ad3d
00000050: d75d a73d dc04 b03d 3672 6b3d f4fb 633b
00000060: 581e 1aba dcdc 763d f5cf 883d 1af0 3e3b
00000070: 4625 a13d a71c a73d 4186 6f3a a7fb 0c3d
00000080: ae9a 04bd a797 a9bc a365 a6bc 50d2 bdbb
00000090: ae6e 21bc 6c77 bbbc 6871 133c 1e3b 373c
000000a0: 9f51 243d b468 a93b f014 04bc 17be 973c
000000b0: 46f1 2ebd a393 653d ca6d 26bc d85a 06bc
000000c0: 13e7 0dbb 05a7 143d 224a 963c 710f c83c
000000d0: 8e4a 8cbd ac33 dc3b 3095 013d d7e9 483d
000000e0: 785c 1b3d 2d80 bdbc 6aae cdbc 8e16 ea3c
000000f0: d3fd d33c 9107 a6bd 1ffa a6bc e5a3 683d
00000100: db4d 1b3d f0cc ad3c be43 eebb d1bf 1abd
00000110: 51d0 0abe df35 d6bc b6f1 c9bc 4f86 7e39
00000120: c4df fcb4 5166 07bc 6c6a b2bc cd4e beba
00000130: 396c 18bd 3a33 86bb f3e3 9f36 eacd 10bc
00000140: 35d3 f33c 8b1b 85bd 075d c6bd 5032 43bd
00000150: 6d88 02bc 315e 2d3d d201 34bc 4a42 bf3c
00000160: 4e92 22be bddb 1dbd 7696 95ba 279f 983d
00000170: 1437 923d 1cdb be3b 8816 26bd 496b a63b
00000180: e2aa 82bb 3400 bc3c 0b7d 613c bd99 b9bc
00000190: be15 d13d 58ff ac3d ca6f c1bb d923 bfbc
000001a0: de7b bdbc d9d2 173d 91cd 343b 3ade a23b
000001b0: f2ec 89bb 8d61 42ba d9d6 aebb 0aeb 443b
000001c0: 7e06 5eba 469b 42ba 6d2c 10bb 42a2 05bd
000001d0: f866 9ebd da11 0a3d 788f 383d 52e0 d5b8
000001e0: e15c 423a 3fdc ccbc 4b58 81bd e9eb 673c
000001f0: bde8 ccbc c6b0 cebc 5a91 663b d295 d4bd
00000200: d6f5 0dbe 1a9c 70bd 23a9 b0bd 6241 393d
00000210: 0223 76bb 0340 f7bc a960 7fbd b046 e3bc
00000220: 047b eebb dd27 0ebc 2402 403c 8bf8 8fbc
00000230: 373b 8b3d 425b d73d dd14 83bc 56d0 96bc
00000240: 14a3 46bb 6835 12ba 360f 4d3b 76ce dc3b
00000250: d7cc 8a3a 41eb f3b8 042e 8aba a505 1bbd
00000260: dcb6 b8bd bf3b 8d3c aee9 2e3b 2058 04bd
00000270: ac31 efbb 2d88 a8bc c6fe 01bc ded4 683d
00000280: f5ed 1e3b dd10 9abd ba00 d8ba 4469 f5bd
00000290: 91ec 0abe 1fab 16bd aa1d 00be 52e3 973c
000002a0: efb4 1fbc ae7c 96bd ee8b 2abd 73f5 89bc
000002b0: fde9 39bb 7a2d 203d 4bab ebbb b136 2fbd
000002c0: 29b3 833d 013d 043e 02cf 9f3c 87cd 693b
000002d0: b368 efb8 e17a 59bc 42a9 e6bc 96c0 793b
000002e0: f80d 7039 3550 2c3c b35a 0039 7719 b2bc
000002f0: 21ad e8bc 5067 96bd 90da 4fbc 56a3 253d
00000300: fdf7 b337 e2bb 863c 2b05 c2bc d4e7 18bd
00000310: 9f38 443d f49a 903d 6da0 fcba 502a 193d
00000320: a85a c23d f09a 23bc 96a1 713d da31 bd3d
00000330: 67e6 2eb8 e850 a53d ba8c f53d 148d a2bd
00000340: 4810 30bc e90a 653d 6eea 563a 6c0a b13d
00000350: 3bc9 563d c3a9 02be 32df f0bd 3376 51bd
00000360: 2d42 4cbc 8322 b8bc 1723 08bc f648 4abb
00000370: 66c0 a73c 9492 1d3b f972 93bc 3e21 7dbb
00000380: 9a1b 52bd 96ae 913c 177f 28bc 86f6 90bc
00000390: 81bd 9fbc 3b34 ab3c 9d93 953c 53f1 f53b
000003a0: 5e40 e2bc f857 003d 3ed0 bd3c d188 b93d
000003b0: 2e6c 973d a48f 83bc c28e 7d3d 6948 943d
000003c0: e449 543d d229 8f3c 0096 ea3c 7a93 0c3d
000003d0: 90e8 8a3c c0e2 393d 341a 3b3c bdd3 86bb
000003e0: f7e6 a7bd c676 bcbd e378 aabd e6de 9bbc
000003f0: ab2a 223c f6b9 173c 330d a83c eb76 a13c
2.272891e-08 -0.00017146167 -0.0113104135 -0.0012249317 -0.024927175 0.0019200717 0.00015797287 -0.017525205
-0.008440239 -0.013794544 -0.062047917 -0.053386986 -2.6939877e-06 0.026127636 -0.0041987947 -0.012987206
-0.0767615 0.015765347 -1.3405684e-05 0.08490808 0.081721954 0.08594677 0.057481967 0.0034787627
-0.00058791554 0.06026922 0.0668029 0.002913481 0.078684375 0.08159762 0.0009137132 0.034419682
-0.032374077 -0.020702196 -0.020312136 -0.0057928935 -0.009853048 -0.022884093 0.008999206 0.011183528
0.040116902 0.0051699523 -0.0080616325 0.01852326 -0.042710565 0.056049 -0.010158012 -0.00820037
-0.0021652624 0.036292095 0.018345896 0.024421426 -0.06850158 0.006720027 0.031636417 0.049051132
0.037929982 -0.023132408 -0.025107581 0.028575208 0.025877869 -0.08106912 -0.020382939 0.056796927
0.037916046 0.021215886 -0.007271259 -0.037780587 -0.13556029 -0.026148735 -0.02465139 0.00024273361
-4.710147e-07 -0.00826414 -0.021779262 -0.0014519334 -0.037212584 -0.004095462 4.765106e-06 -0.008838156
0.029763797 -0.06499394 -0.09685712 -0.047655404 -0.007967097 0.042326156 -0.010986762 0.023347039
-0.15876123 -0.038539637 -0.0011412639 0.07452231 0.071394116 0.0058244597 -0.04054883 0.0050787074
-0.003987656 0.022949316 0.013762723 -0.022656316 0.10209225 0.084471405 -0.005903219 -0.023332523
-0.023130354 0.037066314 0.0027588347 0.004970339 -0.0042091543 -0.0007415049 -0.0053356704 0.003004732
-0.00084695953 -0.000742365 -0.0021999136 -0.032625444 -0.077344835 0.03370843 0.045058697 -0.000101984144
0.0007414353 -0.025007365 -0.06315669 0.014155366 -0.025013322 -0.025230777 0.003518185 -0.103801385
-0.1386331 -0.05874262 -0.0862601 0.04522837 -0.0037557487 -0.03018189 -0.06234804 -0.027743667
-0.007277848 -0.008676496 0.01171926 -0.01757457 0.06798404 0.10515453 -0.01600116 -0.01840989
-0.0030309604 -0.0005577416 0.0031289584 0.0067384792 0.0010589611 -0.000116309624 -0.0010542278 -0.03784718
-0.09019253 0.017240403 0.0026689577 -0.032310605 -0.0072996225 -0.020572746 -0.007934278 0.05684363
0.002425072 -0.07522748 -0.0016479709 -0.119829684 -0.13566805 -0.036784288 -0.12511316 0.018541012
-0.009747728 -0.073479995 -0.041637354 -0.016840672 -0.0028368228 0.03910587 -0.0071920506 -0.042776767
0.064306565 0.12913896 0.019507889 0.0035675482 -0.0001141591 -0.0132739255 -0.02815688 0.0038109175
0.00022893387 0.01051717 0.0001224082 -0.021740658 -0.028402867 -0.07343924 -0.012686387 0.040438972
2.1453941e-05 0.016447011 -0.023684105 -0.037330464 0.04790556 0.07060805 -0.0019273885 0.037393868
0.094899476 -0.00998567 0.05899199 0.09238024 -4.169941e-05 0.08072072 0.11989732 -0.07937065
-0.010746069 0.055918608 0.0008198385 0.08644566 0.052438002 -0.12760071 -0.11761321 -0.051138114
-0.012466949 -0.022477394 -0.008309147 -0.0030866242 0.020477485 0.0024043666 -0.01799916 -0.003862455
-0.051295854 0.017783444 -0.010284207 -0.017695677 -0.019499542 0.020898929 0.018258864 0.0075055747
-0.027618583 0.031333894 0.023170587 0.09059299 0.073936805 -0.016059704 0.061903723 0.07240374
0.05182828 0.017475996 0.028635979 0.034320332 0.016956598 0.04538226 0.0114198215 -0.0041145966
-0.0819835 -0.09202342 -0.083238386 -0.019027185 0.009897868 0.009260645 0.020514106 0.019710025

fc1.bias f4 [10]
00000000: 9957 d33c dc26 0a3e 3d3d ab3c afe6 a7bd
00000010: 3022 80bd 7298 ab3d f449 20bd 9136 213d
00000020: d6f8 c6bd 1d4c c5bc
0.025798606 0.13491386 0.020903224 -0.08198296 -0.06256521 0.08378686 -0.039133027 0.03935868
-0.097154304 -0.024084145
