checkpoints/epoch=10.checkpoint.pth.tar (torch, 53968 bytes, 4 tensors)

conv1.weight f4 [32, 1, 5, 5]
00000000: b2b9 84be ecae 30bd 39a3 5d3e b10b 033e
00000010: a8ff fcbc 899e 86be fa72 563e 5bd5 aa3e
00000020: cd29 2bbd 238f 54be a0b4 a1bd ba39 a33e
00000030: c116 253e 6dbc 26be c5f2 4cbe 3aee af3d
00000040: 0160 133e 756e 88bd 5aa8 1bbe 7a78 c0bd
00000050: 761b b03d 3f0e 413b 724b 85bd 3305 58bb
00000060: 6ee0 0c3d 2b09 42be 3f5e 1cbe 5157 7fbe
00000070: feee a4be a148 1abe e967 29be b1e1 4fbe
00000080: ee4e 6fbe 172d 59bd aaac 013e 2993 5dbe
00000090: 85f8 2fbe 4166 40bd 7903 263e a3d7 7d3e
000000a0: 7434 95be 629b 0bbe b658 1f3e 9f08 783e
000000b0: c67a e83d bc77 91be 0518 29be e17b 2d3e
000000c0: a34f 233e 4b8a 2b3e 66e1 03be 90f3 a7bd
000000d0: ebe4 a83d 0fa6 4f3e 58fa 463e 7425 32be
000000e0: ce80 a93d 48c8 573e bbcd 583e 7db5 94bb
000000f0: 2fad 323e 8cfa b63e f422 9e3e 6859 15bd
00000100: 2d41 4abe d228 d13e d562 323e dee5 92bd
00000110: 0177 1abe 1467 a8bd 1ea1 1e3e 3f34 80be
00000120: c3c9 82be ff23 e9bd db95 77bd 3ae0 933d
00000130: 2c11 d23d 7be8 863b 21f4 403a bd6a 2ebd
00000140: 5b64 323e 25d9 863e 8d5e 963e 3c9a 9a3e
00000150: 5eff a23e 92be c73d 5707 5c3e dfd7 9d3e
00000160: 08b4 7e3e da27 a73e e24f 26be c164 2bbe
00000170: ecb8 30be c782 f1bd 10d5 173e 04b1 bbbe
00000180: e74c c2be 729d e8be fa78 e2be 33b0 85be
00000190: 3a7c 803e 081d 7b3e 53a1 8f3e e98c 9f3e
000001a0: 2201 9f3e 74c0 843e bdcd b13e 4ae9 6c3e
000001b0: a968 4a3e 037d a53e 46c1 10bd a799 7b3d
000001c0: eec6 513e bc9c 993d a0f5 be3d c0ed aabe
000001d0: d897 5fbe 42ad 6bbe 0406 63be f6e2 59be
000001e0: 13bf b4be dbe8 bebe 361f e6be fe36 acbe
000001f0: de8c 6bbe 4879 a3bd 00c8 d73d 5231 823e
00000200: 4007 ee3d 1e15 02be be52 35be 042c 1c3e
00000210: 9236 843e 6cb7 443d 0377 a9be 0a05 0dbe
00000220: 1e22 483e 282d 8b3e 5db9 c73c 2fed 90be
00000230: 6b48 0ebe bbae 753d 81e5 4f3e 9dcb 0f3d
00000240: dd73 38be 05e0 aabd 39e3 903d cc0b 3f3e
00000250: 3588 233e 2f2c b4bd 55e2 31be 01d3 4abe
00000260: 88f9 5cbe 92c4 05be 14b9 193e 0496 3cbe
00000270: 062a 43be 5008 25be 2b9b e93d 8817 973e
00000280: a1b7 27be 30f3 2fbe f516 d7bc 11da 833e
00000290: 1866 3a3e 394f 60be 2df8 3abe 9ed4 ed3c
000002a0: 5ab1 873e 8093 163e e00b 68be fb16 cabd
000002b0: 7039 013e 8275 923e 8074 873d 6e43 b93e
000002c0: 4cdb de3e 44db c43e d7d4 743e d655 623d
000002d0: 19de 0e3e 9861 733e eac5 773a 86da 01be
000002e0: 8f87 cabe 24e6 5bbe 9d16 19be c186 8cbe
000002f0: fa9e abbe dfdf dfbe 24f4 efbe b539 a2be
00000300: 79e4 b9be 142c 8abe 6e3f 4dbe 8f3e e1be
00000310: a8bb 95be 4359 77be f0c9 e2bc 214c c93d
00000320: 98f9 5bbc e650 adbc 8bf0 35bd e5a0 94bc
00000330: a129 2a3e c572 d5bd 2f70 e9bd 0144 e4bd
00000340: 56c0 133c ef3f 323e e062 fbbd 59c8 31be
00000350: 4b89 4cbe 7c71 a33d 6210 873e f64b 2fbe
00000360: bd1f 6abe dd35 0ebd 790c 803e 2035 8a3e
00000370: 12be 36be 95c6 1bbe 8810 063e 1ebb 9d3e
00000380: d100 853d ef57 9f3e c5fe 2a3e 3acb 0cbd
00000390: df7a 72be 6e7b ccbe 2385 73be b749 e6be
000003a0: 1e2b e9be e4b6 b9be 24fe debd a587 e6be
000003b0: 1e35 10bf c449 84be c931 6c3c 5723 a63e
000003c0: 77eb 71bc 8eb8 353e 5eac d53e 7003 ec3e
000003d0: 9040 4b3e 3ee5 053f 6290 223f 7916 d13e
000003e0: e27e df3d df8e c6bc 621e 603c 27f6 20bb
000003f0: 5b5a ae3c 4dfe 52bd 07cb 0cbe 187b cf3d
-0.25922924 -0.04313557 0.21644296 0.12797429 -0.030883625 -0.26292828 0.20942298 0.33365902
-0.04178791 -0.20757727 -0.078957796 0.3187998 0.16121961 -0.16282816 -0.20014484 0.0859036
0.14392091 -0.06661693 -0.1520094 -0.09397979 0.08598988 0.0029457954 -0.06508531 -0.0032962083
0.03439372 -0.1894881 -0.15270327 -0.24935652 -0.32213587 -0.15066768 -0.16543545 -0.20300938
-0.23369953 -0.053021517 0.12663522 -0.21638168 -0.17184646 -0.046972517 0.16212262 0.2478929
-0.2914158 -0.13633493 0.15561184 0.24222039 0.11351542 -0.28411663 -0.16513069 0.16941787
0.15948348 0.16751973 -0.12878951 -0.08200753 0.08246788 0.2027819 0.19431436 -0.173971
0.08276521 0.21072495 0.2117223 -0.0045382367 0.17448877 0.35738027 0.30886042 -0.036462218
-0.19751425 0.40851456 0.17420514 -0.0717275 -0.15084459 -0.082227856 0.15491149 -0.2503986
-0.25544557 -0.11383819 -0.060445648 0.07220502 0.102571815 0.0041170693 0.0007360597 -0.042582262
0.17421095 0.26337543 0.29369012 0.30195796 0.31835455 0.09753145 0.21487175 0.3082876
0.24873364 0.32647592 -0.1624141 -0.16737653 -0.17258042 -0.11792522 0.1482737 -0.3665849
-0.37949297 -0.4543262 -0.44232923 -0.26110992 0.25094777 0.24522793 0.28052768 0.31162193
0.31055552 0.2592808 0.34727278 0.23135868 0.19766487 0.3232194 -0.03534057 0.06142583
0.20486042 0.07500598 0.09324193 -0.33384514 -0.21835268 -0.23015311 -0.22170264 -0.21277985
-0.35302028 -0.3728703 -0.44945687 -0.33635706 -0.23002955 -0.07982117 0.10536194 0.25428253
0.116224766 -0.12703368 -0.17707345 0.15251166 0.25822884 0.048026487 -0.3309861 -0.13771453
0.19544265 0.2718289 0.02438038 -0.28305957 -0.13894813 0.05998109 0.20302393 0.03510629
-0.18012948 -0.083435096 0.07074589 0.18656844 0.15969928 -0.0879749 -0.17371495 -0.19807054
-0.21579564 -0.13063267 0.15012008 -0.18416601 -0.19059 -0.16116452 0.11406549 0.2951014
-0.16378643 -0.17182612 -0.026256064 0.2575231 0.18203008 -0.21905221 -0.18258734 0.029032048
0.26502496 0.14704704 -0.2266078 -0.098676644 0.12619567 0.28605276 0.066140175 0.36184257
0.43526685 0.38448536 0.23909317 0.05525764 0.13951911 0.23767698 0.0009451794 -0.12681016
-0.39556548 -0.2147451 -0.14950033 -0.2744656 -0.33519727 -0.43725488 -0.46865952 -0.31684652
-0.36307123 -0.26986754 -0.20043728 -0.4399304 -0.29244733 -0.24155144 -0.027684182 0.098289736
-0.013426207 -0.02115674 -0.044418853 -0.018143127 0.16617443 -0.10422281 -0.113983504 -0.11145783
0.009018024 0.17407201 -0.12274718 -0.17361583 -0.19974248 0.0798063 0.26379687 -0.1711882
-0.2286367 -0.034719337 0.25009516 0.26993656 -0.17845944 -0.15212472 0.13092244 0.30806822
0.06494296 0.31121776 0.1669875 -0.0343735 -0.23679684 -0.3993792 -0.23781256 -0.44978115
-0.45540708 -0.36272347 -0.10888317 -0.45025364 -0.5633105 -0.2583753 0.014416167 0.32448837
-0.014765612 0.17746183 0.41733068 0.46096373 0.19848847 0.5230292 0.6350156 0.40837458
0.10912873 -0.024238048 0.013679119 -0.002456078 0.02128332 -0.05151205 -0.13749324 0.101309

conv1.bias f4 [32]
00000000: 5d15 f2bd 715f cb3d f403 3ebe f092 43bb
00000010: f170 b439 1053 1dbe 7f1b 48bd a8f7 a53e
00000020: 5a69 53bd 2c7d 36ba 6679 b2bd 9c5e 6fbe
00000030: 837f f13d 647a cfba 57fe 3fbc a5b8 19bb
00000040: a2ba 99be 68df 9dbd 50c0 56be bbd7 063e
00000050: 648a 59be accd 0fbe d80b ce3d b958 c1bd
00000060: 2c81 52be a786 2fbe 3d2e 563c ac53 39be
00000070: 6c71 88be 335c 42bb 4410 823c 3761 04bd
-0.11820481 0.099303134 -0.18556195 -0.002984222 0.00034416423 -0.15363717 -0.048854347 0.3241551
-0.051614143 -0.0006961401 -0.08714561 -0.23375934 0.11791899 -0.0015829322 -0.011718354 -0.0023456004
-0.30025202 -0.07708627 -0.20971799 0.13168232 -0.21244198 -0.14043301 0.10060853 -0.09440751
-0.20557088 -0.1714121 0.0130725475 -0.18098325 -0.26649034 -0.0029657006 0.015876897 -0.032319274

fc1.weight f4 [10, 1152]
00000000: 970e dc99 f41f 05b9 5ec1 e3bb e799 ddbb
00000010: f42e 0ebd 1b0e 55bc 5bc9 b639 90df 8bbb
00000020: d201 ddba c617 0abd fe96 5ebd 5061 0ebd
00000030: e928 23bb bc4b bc3c d1d8 c1bc 6030 67bc
00000040: 4112 7dbd e48d 453c 07a7 95b9 188d 7a3d
00000050: 22fb 953d ef23 633d 0d28 1b3d d4c1 6b3c
00000060: fc9d 283c aaf5 663d 92c2 853d c1f2 2cbb
00000070: 4bdc 583d ba6f 723d 5abd 2f3b c3e2 023d
00000080: 115b 8bbc 86de bfbc 279c f8bc d4c5 e1bb
00000090: aa29 9abb f307 9bbc e080 8b3c 4e5c b3bb
000000a0: 29ba fa3c fd3a f13a 7f1b 07bb 3327 4c3c
000000b0: 71e3 20bd 3d4c 2b3d ffb4 58bb ade0 e1ba
000000c0: 31a2 0fbc 0b3a 013d 23b7 5d3c 1b39 be3c
000000d0: 3f45 79bd 1a4e 443c 22e5 b43c 2773 443d
000000e0: a9eb 423d fbc3 0fbd 55ee 04bc 54c8 083d
000000f0: 6912 013d 6b1d 72bd 5a42 f4bb 3dd3 1d3d
00000100: e314 023d 2618 ec3c dc34 18bc 2fb1 61bc
00000110: eee5 ecbd 49f7 02bd b5a1 eebc 897f 1d3a
00000120: cc95 3c17 982f 2bba 4e1e 9bbc ab76 7ebb
00000130: 6af9 38bd c3b5 8abc ff86 81b9 2694 57bb
00000140: bec8 fd3c 5a98 aebd 36b4 bfbd 0fd1 17bd
00000150: 382d 7bbb c1e3 0a3d 9162 81bc fc99 943c
00000160: f5b5 03be 0076 8dbc f829 86bb 1aef 883d
00000170: b215 ac3d 7b34 08bb 9d81 3abd b2ea 213c
00000180: c301 07bb df3d 9d3c 8a66 503c 7293 f8bc
00000190: b854 a23d 900c 743d e4af f53a a3ef a5bc
000001a0: f648 50bc 76ac e33c c25d 3dbb 21f7 0bbb
000001b0: a1c5 a0b9 6b2e a6ba 12c2 9dba 67d0 2cba
000001c0: 2ca3 41bb b234 aeba 6220 cc39 b597 23bd
000001d0: e617 81bd 9a56 f53c 0023 113d e524 dfbb
000001e0: 255a 08ba 8687 0ebd 6572 adbd c914 153d
000001f0: a843 873a 24ab 0ebd 3b5d 243c ff81 d5bd
00000200: 2f44 0dbe c8da 95bd 0e48 b3bd c4c2 383d
00000210: ca07 1c3c dd88 cebc 93a7 35bd 421f b1bc
00000220: 843b a23b e871 65bb de73 c03c 9677 90bc
00000230: a3c7 983d 76f0 be3d 2b61 93bc 4576 b0bc
00000240: 21d5 54b9 0869 9eb9 8411 1b3c 3324 193c
00000250: 307e 9bba a9d9 d6b9 7b97 23bc cbe7 2fbd
00000260: 4f4c d1bd d47b ac3c 60b5 833b 4317 09bd
00000270: 91ec 84ba 857a 3dbd 66a3 cabc 5dd7 503d
00000280: d2c7 b13c 8e75 9ebd 2df5 c1bb 2ca1 06be
00000290: 6680 fabd 30f3 93bd a3ae 17be 2e99 b23c
000002a0: 5dea 5bbc 96bf 9cbd 40f6 1fbd b569 4cbc
000002b0: cff1 a4bb 36f5 e13c e334 fe3a 87cf 1abd
000002c0: e176 703d d1ef e73d 799d 803c cb94 883b
000002d0: 5692 032e ecf3 f2bb c535 96bc 59ea 59bb
000002e0: 97a4 4dbc b557 f2bb 0e16 c939 0026 4ebc
000002f0: a834 61bc 008d 4fbd 436c 25bc 1638 e43c
00000300: 2efc a5b9 f01f 983c 9482 1cbd b828 e8bc
00000310: 3d73 103d b067 823d 541d c53b f42b 2b3d
00000320: 69b6 cf3d 10d4 90bc 5de9 fb3c 9a56 973d
00000330: b9e4 f33b f86b 843d cc78 d83d a055 83bd
00000340: 62a4 663b 1ad2 493d 0ee5 403b c852 973d
00000350: 7bac 083d bad2 b8bd 8d58 f6bd cd77 3bbd
00000360: 3125 85bb 52e9 a6bc ce27 bcba f1cc c7bc
00000370: 5a4e 113c 8402 74bb 6862 2bbc 8e4b cbba
00000380: cb29 2ebd a164 4d3b 9b70 58bc 8e83 29bc
00000390: 7e0c eebc 5601 8a3c 7e8e 0f3d 11e6 cdbb
000003a0: e8a8 04bd 2157 1a3d 880e 9c3c 31aa bf3d
000003b0: bf93 8c3d 1498 98bc a3c6 953d 3461 b03d
000003c0: ea44 853d 2c86 ae3c e270 3f3d 2ab6 d93c
000003d0: 8127 213b 090e 443d bf51 453c 3be1 8abc
000003e0: e0d7 aabd 2d01 e8bd 23be cebd a795 63bc
000003f0: 647b fc3b f95b 923b 9813 ac3c 79c1 d23c
-2.275336e-23 -0.00012695772 -0.0069505414 -0.0067627314 -0.034712747 -0.013003851 0.00034863767 -0.004268594
-0.0016861504 -0.03371408 -0.054343216 -0.034760773 -0.002489621 0.022985332 -0.023662956 -0.014110655
-0.061784986 0.012057755 -0.0002854394 0.061169714 0.073232904 0.05545419 0.037879992 0.014389474
0.010291573 0.056386627 0.06531252 -0.002638981 0.052944463 0.059188582 0.0026815743 0.031954538
-0.017011197 -0.023421537 -0.030347897 -0.006890038 -0.004704674 -0.018924689 0.017029226 -0.00547365
0.030606346 0.0018404421 -0.0020615754 0.012460518 -0.039279405 0.041820753 -0.0033066866 -0.0017233096
-0.008766697 0.031549495 0.013532433 0.02322059 -0.060857054 0.0119815115 0.022081915 0.04796138
0.047588024 -0.03509901 -0.008113463 0.033394173 0.031511698 -0.059110086 -0.007454199 0.03853153
0.0317582 0.028820109 -0.009289946 -0.013775154 -0.11567293 -0.03197411 -0.029129842 0.0006008079
6.0935146e-25 -0.00065302243 -0.018935349 -0.0038828056 -0.045159735 -0.016932374 -0.00024705377 -0.00328947
0.03097951 -0.085251525 -0.093605444 -0.03706461 -0.0038326513 0.03390861 -0.01579407 0.018139832
-0.1286238 -0.01726818 -0.0040943585 0.0668623 0.084025756 -0.0020783234 -0.045533765 0.009882616
-0.0020600415 0.019194541 0.01271976 -0.030343745 0.07926315 0.059582293 0.0018744436 -0.02025587
-0.012712708 0.027792197 -0.0028894995 -0.0021357017 -0.00030664823 -0.0012678629 -0.0012035987 -0.00065923337
-0.002954672 -0.0013290851 0.0003893404 -0.0399396 -0.063033864 0.029948521 0.03543377 -0.006809818
-0.0005201421 -0.034797214 -0.08469085 0.036396775 0.0010319846 -0.03483118 0.0100319935 -0.104251854
-0.13795541 -0.0731712 -0.08753978 0.045107618 0.009523341 -0.025211746 -0.044349264 -0.02162135
0.0049509425 -0.003501052 0.02349275 -0.017635148 0.07459953 0.09323208 -0.01799067 -0.02154077
-0.00020297292 -0.00030214363 0.009464625 0.0093470095 -0.0011863168 -0.0004097943 -0.009984846 -0.042945664
-0.10219633 0.02105514 0.0040194243 -0.03346945 -0.0010141303 -0.04625942 -0.024736118 0.050986636
0.021701727 -0.077372655 -0.00591912 -0.1314742 -0.12231521 -0.07224119 -0.14812712 0.021801557
-0.013422576 -0.076537296 -0.0390532 -0.012476374 -0.0050337086 0.027582746 0.0019394424 -0.03779557
0.05870712 0.11325038 0.015700089 0.004168128 2.9915924e-11 -0.0074143317 -0.018336186 -0.0033251254
-0.012551448 -0.0073957094 0.0003835414 -0.012582302 -0.013745464 -0.050671577 -0.010096612 0.027858775
-0.0003165914 0.018569916 -0.038210467 -0.028339729 0.03526615 0.06367433 0.006015459 0.041789964
0.10142214 -0.017679244 0.030750925 0.07389565 0.0074430373 0.06465906 0.10569915 -0.06412816
0.0035193195 0.049272634 0.0029433402 0.07388836 0.033367615 -0.09024568 -0.120286085 -0.045768548
-0.0040632715 -0.020374928 -0.0014355124 -0.024389716 0.008868778 -0.0037232945 -0.010460474 -0.0015510188
-0.042520326 0.0031340497 -0.013210441 -0.0103463065 -0.029058691 0.01684634 0.035048 -0.0062835296
-0.032387644 0.03768075 0.019049898 0.09358633 0.06864118 -0.018627204 0.073132776 0.0861229
0.06507285 0.021304213 0.046738513 0.02657612 0.0024590197 0.047864947 0.012043416 -0.016953101
-0.08341956 -0.11328349 -0.100948595 -0.01389066 0.007705139 0.0044665304 0.021005437 0.02572702

fc1.bias f4 [10]
00000000: 2423 b33c 55bf cf3d 4633 5e3c 34ac 86bd
00000010: d316 56bd f423 a03d d8e4 18bd 7be4 e63c
00000020: 046d afbd 6db5 78bc
0.021867342 0.101439156 0.013562029 -0.06575814 -0.05226786 0.078193575 -0.037327617 0.02818512
-0.08565715 -0.015179974
