checkpoints/epoch=6.checkpoint.pth.tar (torch, 53128 bytes, 4 tensors)

conv1.weight f4 [32, 1, 5, 5]
-0.23473398 -0.013712002 0.19106378 0.105807826 -0.037918538 -0.23779325 0.18419218 0.28437772
-0.024162274 -0.20531896 -0.08049074 0.28104863 0.14161985 -0.09014236 -0.22813807 0.08375472
0.116276026 -0.05244689 -0.12516558 -0.1301627 0.047668576 0.004735648 -0.019093385 0.029262997
0.0116167655 -0.19921157 -0.19727261 -0.28437304 -0.26316392 -0.08481468 -0.15375885 -0.18774989
-0.2136709 -0.011624214 0.09655868 -0.20599467 -0.17196615 -0.031951025 0.15021768 0.20097825
-0.26902717 -0.12748331 0.16440006 0.2157439 0.06751211 -0.27569216 -0.17099229 0.17027357
0.118669964 0.16185054 -0.114953026 -0.050315153 0.09326461 0.15511231 0.13396552 -0.129734
0.059151378 0.16277957 0.21304268 0.023736976 0.18001735 0.31180447 0.29075885 -0.039454725
-0.19425265 0.35248238 0.123039804 -0.037825733 -0.13576666 -0.06770305 0.14005014 -0.2266165
-0.20225121 -0.103058085 -0.07871456 0.05381567 0.12516229 0.0138229905 0.052126788 0.012520618
0.13643405 0.24914655 0.29038736 0.2874738 0.33765692 0.10749392 0.21034518 0.3226638
0.21943492 0.34022155 -0.12832694 -0.17908812 -0.17019984 -0.12765029 0.18403184 -0.38275465
-0.39296708 -0.4834248 -0.4667586 -0.26880556 0.27771822 0.2588723 0.32643476 0.34725887
0.30918092 0.24413809 0.36354762 0.21765171 0.16708681 0.31478897 -0.033800393 0.03188332
0.21807985 0.086163044 0.141568 -0.3719164 -0.2195698 -0.24257791 -0.22215198 -0.21532902
-0.40310603 -0.37441072 -0.47867864 -0.32349706 -0.23566967 -0.08332956 0.09648485 0.25439778
0.11855085 -0.09536107 -0.18855903 0.15952794 0.22425015 0.05469802 -0.3144654 -0.0784276
0.2249019 0.24107322 0.013083929 -0.2919062 -0.09373535 0.044392027 0.17680044 0.011758312
-0.15779357 -0.039989445 0.07456993 0.18708074 0.18383227 -0.086270116 -0.15313722 -0.23094082
-0.22913776 -0.124034375 0.14795446 -0.17603396 -0.21783994 -0.19635274 0.13735397 0.29139748
-0.18444234 -0.20532446 -0.016188666 0.27017623 0.14694528 -0.25416026 -0.1768202 -0.0013791375
0.2698933 0.15207809 -0.2671106 -0.03316868 0.13877816 0.29959574 0.06867706 0.36672142
0.43457517 0.3973069 0.22580564 0.0762103 0.15520836 0.26719058 0.019217506 -0.10818859
-0.35583827 -0.18409103 -0.1099739 -0.27486193 -0.32657552 -0.48346 -0.46655443 -0.32967472
-0.40176287 -0.31146526 -0.23039974 -0.4848744 -0.3440731 -0.2715628 -0.03809588 0.10602652
-0.031460445 -0.04713781 -0.10121442 -0.040198013 0.18570296 -0.09905804 -0.1411696 -0.115944475
0.046519294 0.14508398 -0.12489645 -0.19783306 -0.21056843 0.100946285 0.2569945 -0.22031409
-0.24927783 0.0062334533 0.23163982 0.27769393 -0.21329856 -0.14612466 0.15420699 0.30337486
0.054110415 0.31528097 0.1275287 -0.038904544 -0.24153355 -0.3931497 -0.25520754 -0.45708144
-0.41296604 -0.36509007 -0.068388164 -0.41640905 -0.5395329 -0.25617105 0.016784899 0.32454583
0.0070310016 0.196956 0.40481532 0.46251974 0.16860142 0.49214888 0.61667657 0.40495452
0.13278386 -0.0044020284 0.033799067 -0.011578829 0.05273715 -0.0584262 -0.14207818 0.0773174
00000000: 1b5e 70be 4ea8 60bc 39a6 433e c6b1 d83d
00000010: 7850 1bbd 1380 73be e09c 3c3e f599 913e
00000020: f6ef c5bc 223f 52be 54d8 a4bd 9be5 8f3e
00000030: cb04 113e 8f9c b8bd 079d 69be 9887 ab3d
00000040: 2022 ee3d 8dd2 56bd 682b 00be 5f49 05be
00000050: 2040 433d 7f2d 9b3b bb69 9cbc f4b8 ef3c
00000060: 3f54 3e3c 1efe 4bbe d501 4abe 5899 91be
00000070: 6cbd 86be 52b3 adbd f672 1dbe 8241 40be
00000080: 8bcc 5abe 7d73 3ebc 8fc0 c53d 44f0 52be
00000090: e517 30be 14df 02bd aad2 193e 3ecd 4d3e
000000a0: eebd 89be fc8a 02be 7d58 283e f8eb 5c3e
000000b0: ca43 8a3d 8627 8dbe 9a18 2fbe 325c 2e3e
000000c0: 3d09 f33d 26bc 253e 7e6c ebbd 4317 4ebd
000000d0: 8401 bf3d c3d5 1e3e 422e 093e fdd8 04be
000000e0: b748 723d b0af 263e dc27 5a3e 0c74 c23c
000000f0: 7856 383e d6a4 9f3e 58de 943e 479b 21bd
00000100: 2bea 46be 9278 b43e 4bfc fb3d 28ef 1abd
00000110: 6a06 0bbe e6a7 8abd 4e69 0f3e 280e 68be
00000120: f11a 4fbe 1e10 d3bd 1935 a1bd d26d 5c3d
00000130: 8b2a 003e d379 623c e682 553d 4723 4d3c
00000140: 5eb5 0b3e 4620 7f3e a7ad 943e c42f 933e
00000150: 5ee1 ac3e c625 dc3d ba64 573e 3134 a53e
00000160: 8cb3 603e 8531 ae3e 2368 03be e062 37be
00000170: de48 2ebe c2b6 02be d872 3c3e 6bf8 c3be
00000180: fb32 c9be 7583 f7be fcfa eebe e2a0 89be
00000190: 1531 8e3e e98a 843e 7522 a73e eacb b13e
000001a0: f64c 9e3e 56ff 793e ea22 ba3e 17e0 5e3e
000001b0: ce18 2b3e 052c a13e 4872 0abd 1698 023d
000001c0: 5350 5f3e 4076 b03d 34f7 103e d46b bebe
000001d0: e8d6 60be 5866 78be cf7b 63be 367f 5cbe
000001e0: ea63 cebe c3b2 bfbe 5e15 f5be 68a1 a5be
000001f0: 6453 71be b0a8 aabd d999 c53d 6d40 823e
00000200: caca f23d aa4c c3bd 9e15 41be 4b5b 233e
00000210: d5a1 653e 080b 603d 9c01 a1be a69e a0bd
00000220: af4c 663e e6db 763e fa5d 563c bb74 95be
00000230: 52f8 bfbd 6ad4 353d 2d0b 353e efa5 403c
00000240: a394 21be f9cb 23bd 1fb8 983d 1892 3f3e
00000250: 873e 3c3e 63ae b0bd 01d0 1cbe c07b 6cbe
00000260: 17a3 6abe bc05 febd 6081 173e 3f42 34be
00000270: 6f11 5fbe b110 49be 85a6 0c3e 0d32 953e
00000280: 74de 3cbe 9340 52be 189e 84bc 8a54 8a3e
00000290: d378 163e 4b21 82be 5b10 35be 2dc4 b4ba
000002a0: 742f 8a3e 5cba 1b3e b8c2 88be e2db 07bd
000002b0: dd1b 0e3e 9d64 993e 8fa6 8c3d e9c2 bb3e
000002c0: a380 de3e cf6b cb3e 9839 673e 2514 9c3d
000002d0: f1ee 1e3e 34cd 883e 086e 9d3c fb91 ddbd
000002e0: 6f30 b6be 5c82 3cbe ff39 e1bd b4ba 8cbe
000002f0: e834 a7be 1288 f7be 39e0 eebe 20cb a8be
00000300: ddb3 cdbe 6078 9fbe e9ed 6bbe 7541 f8be
00000310: 592a b0be 480a 8bbe 6d0a 1cbd 6f24 d93d
00000320: abdc 00bd 9413 41bd 8149 cfbd aca6 24bd
00000330: eb28 3e3e f1de cabd c38e 10be 4c74 edbd
00000340: 048b 3e3d e590 143e b6c9 ffbd c094 4abe
00000350: 409f 57be edbc ce3d c894 833e 049a 61be
00000360: b042 7fbe ff41 cc3b fd32 6d3e e62d 8e3e
00000370: f06a 5abe b4a1 15be 70e8 1d3e f353 9b3e
00000380: e2a2 5d3d 826c a13e e296 023e 5f5a 1fbd
00000390: 9254 77be eb4a c9be 90aa 82be 9406 eabe
000003a0: 4970 d3be 16ed babe 180f 8cbd 9133 d5be
000003b0: d41e 0abf da28 83be 7c80 893c df2a a63e
000003c0: 5164 e63b d5ae 493e f443 cf3e 63cf ec3e
000003d0: daa5 2c3e f0fa fb3e 84de 1d3f 3356 cf3e
000003e0: 7ef8 073e e43e 90bb e470 0a3d 21b5 3dbc
000003f0: e902 583d 5050 6fbd f17c 11be 9658 9e3d

conv1.bias f4 [32]
-0.09003076 0.10207953 -0.12426832 0.0075211003 -0.00054987037 -0.13164571 -0.043896563 0.29481468
-0.032138836 -0.00067209697 -0.0720326 -0.18456817 0.11944277 -0.00083772565 0.051254407 -0.00014713814
-0.27211815 -0.04292518 -0.17904197 0.13567734 -0.19171031 -0.10935004 0.15161799 -0.058091216
-0.1857518 -0.14349855 0.06705112 -0.14654955 -0.2337163 -0.00076903915 0.056322295 -0.014105807
00000000: 0c62 b8bd 130f d13d 6480 febd 9073 f63b
00000010: 2d25 10ba 22ce 06be e2cc 33bd f3f1 963e
00000020: 03a4 03bd aa2f 30ba d485 93bd 70ff 3cbe
00000030: 699e f43d d19a 5bba 24f0 513d 1849 1ab9
00000040: 1253 8bbe 50d2 2fbd c756 37be 00ef 0a3e
00000050: b54f 44be eaf2 dfbd bf41 1b3e 0ef1 6dbd
00000060: b835 3ebe 49f1 12be 1952 893d 1611 16be
00000070: 5353 6fbe 5899 49ba 35b2 663d 0b1c 67bc

fc1.weight f4 [10, 1152]
-8.020002e-14 -0.009625535 0.0011938985 -0.009646564 -0.019204589 -0.004312126 -5.8353846e-05 -0.004921856
0.00016090175 -0.029080475 -0.017090056 -0.021287126 -5.455735e-05 0.023145562 -0.014295588 -0.01616283
-0.032112237 0.022909565 0.00011089866 0.043825943 0.080126606 0.012428754 0.013878819 0.0197543
0.005037225 0.058025494 0.07855315 -0.020329313 0.030702053 0.046071477 -0.0004851565 0.035207894
0.0035908052 -0.028864129 -0.02631258 -0.015287118 -0.0021331776 -0.015111187 0.0075622876 -0.0059647253
0.030371666 0.009380758 -0.0014410155 0.019027937 -0.038393416 0.038316943 -0.0031658188 -0.0065558166
-0.010072294 0.028963722 0.011150108 0.0173789 -0.04886022 0.005127625 0.0040454892 0.044529747
0.05753353 -0.03423588 0.001442667 0.037686266 0.02533925 -0.037062425 0.0009394838 0.031074503
0.03550538 0.020914448 -0.0037026685 -0.018445013 -0.10778589 -0.030874377 -0.03727344 -0.00032118522
-3.4902236e-21 -0.00931323 -0.012432334 -0.008906437 -0.03937189 -0.012705044 -5.1731513e-05 -0.0051041264
0.022758411 -0.07738885 -0.0818419 -0.027392045 -0.00044988256 0.024313461 -0.011063047 0.017308304
-0.09652504 0.00029934087 -0.001436287 0.05732032 0.0936319 -0.007635941 -0.065157965 0.012746701
-0.002449998 0.018582357 0.018242974 -0.04222082 0.05935024 0.052504834 -0.008035407 -0.02882799
-0.0002526791 0.027988782 -0.0017626913 -0.0071654585 -0.0011636378 -0.000620261 -0.011994262 0.00075605756
0.0041609993 -0.00033017117 0.007078073 -0.038451962 -0.069950625 0.014946302 0.01600287 -0.00951321
0.00040587242 -0.040589668 -0.094137035 0.04181619 0.006476647 -0.045969486 0.01922414 -0.094864264
-0.13293941 -0.075142585 -0.07340764 0.037246827 0.0032693483 -0.011521633 -0.03241548 -0.03576226
0.009109469 -0.002934411 0.029467946 -0.019853374 0.07313594 0.08886115 -0.008845555 -0.016623285
0.00013578552 6.496164e-05 0.000960494 0.006506018 0.0010023481 -0.0010267141 -0.0017939244 -0.03998773
-0.117229804 0.0023805168 -0.007334605 -0.027781408 -0.00014382656 -0.050832618 -0.04257285 0.040521506
0.01997851 -0.07910328 -0.007211683 -0.13046841 -0.107849486 -0.09799951 -0.15617839 0.017658666
-0.032380372 -0.07102937 -0.044487365 -0.031231398 -0.013083536 0.02141853 -0.00044380597 -0.029823633
0.05744258 0.105233714 0.023182305 0.0061195674 3.5203837e-05 -0.008196229 -0.01648149 -0.003587693
-0.012499944 0.00587163 -2.2887285e-05 -0.007922459 -0.007369883 -0.022632105 -0.0032119497 0.022372875
0.002380661 0.024153128 -0.01820599 -0.02000349 0.029144498 0.056840636 0.003204833 0.037335638
0.11243112 -0.04526371 0.00857642 0.061924607 0.006266291 0.04391234 0.10210724 -0.061391193
0.015762072 0.03933227 -0.0004092971 0.06830182 0.02648722 -0.055340923 -0.09626474 -0.046403278
-0.004959232 -0.01706224 -0.009823964 -0.025144992 0.002674174 0.0060521173 -0.010894982 0.003930099
-0.0399941 0.0044369553 -0.016616551 -0.024488365 -0.038921855 0.01243963 0.043175757 -0.0149404425
-0.023729004 0.030558648 0.008059272 0.089585 0.06394217 -0.008487229 0.072300576 0.09294189
0.061735526 0.032211304 0.06454264 0.02699922 -0.004489695 0.048204552 0.01880926 -0.03719393
-0.067685924 -0.110373266 -0.10301732 -0.019840255 0.0065542245 0.00026972426 0.016727252 0.028354984
00000000: 2a98 b4a9 6cb4 1dbc 967c 9c3a 9f0c 1ebc
00000010: f152 9dbc bc4c 8dbb f7c0 74b8 8547 a1bb
00000020: bcb7 2839 2d3a eebc 7200 8cbc 5762 aebc
00000030: 82d4 64b8 c39b bd3c 0b38 6abc e967 84bc
00000040: 1f88 03bd d7ac bb3c 4492 e838 d582 333d
00000050: 6b19 a43d f9a1 4b3c fc63 633c c5d3 a13c
00000060: 4e0f a53b 24ac 6d3d 79e0 a03d a989 a6bc
00000070: df82 fb3c 72b5 3c3d 9a5c feb9 2736 103d
00000080: b753 6b3b 7774 ecbc 7b8d d7bc d276 7abc
00000090: c8cc 0bbb e994 77bc 11cd f73b be73 c3bb
000000a0: 00ce f83c c0b1 193c 75e0 bcba 7ae0 9b3c
000000b0: 6a42 1dbd 3af2 1c3d a079 4fbb 2dd2 d6bb
000000c0: 4306 25bc 5445 ed3c f1ae 363c 325e 8e3c
000000d0: a721 48bd a305 a83b 0690 843b d364 363d
000000e0: 47a8 6b3d ec3a 0cbd df17 bd3a ea5c 1a3d
000000f0: 4294 cf3c c5ce 17bd b147 763a f58f fe3c
00000100: 176e 113d c754 ab3c 78a8 72bb ff19 97bc
00000110: d9be dcbd 43ec fcbc 09ac 18bd c064 a8b9
00000120: 5fdb 839d 8596 18bc fdb0 4bbc 4eec 11bc
00000130: 6b44 21bd d128 50bc 4afa 58b8 8440 a7bb
00000140: d96f ba3c 0c7e 9ebd ba9c a7bd 4865 e0bc
00000150: 37de ebb9 062d c73c c841 35bc 25ca 8d3c
00000160: ecae c5bd daf0 9c39 cb41 bcba b6c8 6a3d
00000170: 15c2 bf3d ea36 fabb 8a71 85bd 8ad7 503c
00000180: 2590 20bb 073a 983c 4a72 953c bdef 2cbd
00000190: 3d19 733d 4f0f 573d f1a6 03bc ad28 ecbc
000001a0: 047a 84b9 bb48 e53c 1b0a e7ba 39cc eabb
000001b0: 3585 98ba 0399 22ba 9583 44bc 2a32 463a
000001c0: fe58 883b d31a adb9 2eef e73b ce7f 1dbd
000001d0: 4642 8fbd 56e1 743c 7318 833c 4bdd 1bbc
000001e0: 46cb d439 5a41 26bd ebca c0bd 7447 2b3d
000001f0: 0e3a d43b 804a 3cbd f27b 9d3c 3248 c2bd
00000200: 4521 08be 5be4 99bd bf56 96bd 2190 183d
00000210: 9042 563b 3bc5 3cbc 18c6 04bd 737b 12bd
00000220: e23f 153c 3f4f 40bb c366 f13c 8ba3 a2bc
00000230: 4cc8 953d d6fc b53d f2ec 10bc 8e2d 88bc
00000240: a661 0e39 043c 8838 a9c9 7b3a 6f30 d53b
00000250: 3961 833a cf92 86ba 1d22 ebba 2dca 23bd
00000260: 2e16 f0bd 7202 1c3b 2057 f0bb d695 e3bc
00000270: 26d0 16b9 dd35 50bd de60 2ebd e1f9 253d
00000280: f9a9 a33c e700 a2bd fb4f ecbb 8399 05be
00000290: 31e0 dcbd f8b3 c8bd 3aed 1fbe e8a8 903c
000002a0: 48a1 04bd d977 91bd 6238 36bd fdd8 ffbc
000002b0: 545c 56bc ea75 af3c a1ae e8b9 b150 f4bc
000002c0: e948 6b3d c684 d73d d1e8 bd3c a786 c83b
000002d0: d5a7 1338 7a49 06bc 3104 87bc 801f 6bbb
000002e0: 91cc 4cbc cd66 c03b 12fe bfb7 34cd 01bc
000002f0: 0f7f f1bb f766 b9bc 937f 52bb 5247 b73c
00000300: dd04 1c3b c8dc c53c ba24 95bc 5cde a3bc
00000310: 71c0 ee3c bad1 683d 2d08 523b 41ed 183d
00000320: 4942 e63d 7166 39bd 1d84 0c3c a8a4 7d3d
00000330: 7555 cd3b 6ddd 333d 9a1d d13d 5575 7bbd
00000340: 761f 813c e01a 213d ed96 d6b9 d3e1 8b3d
00000350: bafb d83c 2aad 62bd 7326 c5bd 5d11 3ebd
00000360: 0e81 a2bb 1cc6 8bbc b1f4 20bc dffc cdbc
00000370: 3241 2f3b d750 c63b de80 32bc 0fc8 803b
00000380: dad0 23bd e163 913b 6f1f 88bc d39b c8bc
00000390: 866c 1fbd 97cf 4b3c 10d9 303d c2c8 74bc
000003a0: 5463 c2bc 2156 fa3c 090b 043c 5778 b73d
000003b0: 1df4 823d 050e 0bbc 5312 943d 5158 be3d
000003c0: 64de 7c3d 00f0 033d ee2e 843d 782d dd3c
000003d0: 4b1e 93bb 2372 453d e115 9a3c aa58 18bd
000003e0: eb9e 8abd 610b e2bd bffa d2bd 0888 a2bc
000003f0: d2c4 d63b c769 8d39 9707 893c b648 e83c

fc1.bias f4 [10]
0.02079387 0.065866224 0.0114993965 -0.052886218 -0.039467815 0.07282368 -0.041090455 0.015735766
-0.07157895 -0.011351742
00000000: e857 aa3c dfe4 863d f767 3c3c 389f 58bd
00000010: 01a9 21bd 9524 953d 774e 28bd 4be8 803c
00000020: fc97 92bd a8fc 39bc
