checkpoints/epoch=2.checkpoint.pth.tar (torch, 52424 bytes, 4 tensors)

conv1.weight f4 [32, 1, 5, 5]
0	0xbe316485	-0.17323501
1	0x3da17b35	0.07884828
2	0x3e446124	0.19177681
3	0x3d9f3d55	0.0777537
4	0xbcc3b8d6	-0.023891848
5	0xbe207726	-0.15670452
6	0x3e44ebf0	0.19230628
7	0x3e6063f0	0.21913123
8	0xbd01c467	-0.031681444
9	0xbe425eb7	-0.18981443
10	0xbd80c036	-0.06286661
11	0x3e820100	0.25391388
12	0x3dd1805b	0.1022956
13	0x3cccd12e	0.025002088
14	0xbe8cd13f	-0.27503392
15	0x3e03943b	0.12849514
16	0x3dd900f1	0.10595883
17	0xbc8c65de	-0.017138418
18	0xbd7fb269	-0.062426005
19	0xbe3ccef9	-0.18438329
20	0x3d4034c5	0.046925325
21	0x3cd8fd29	0.026487904
22	0x3da9b602	0.08286668
23	0x3e234d05	0.1594735
24	0x3d75549d	0.059895147
25	0xbe5e9bf2	-0.21739176
26	0xbe7e53b6	-0.2483662
27	0xbe3fad79	-0.18718518
28	0xbdab9ce8	-0.08379537
29	0x3a700648	0.00091562094
30	0xbdf9ff19	-0.12206859
31	0xbdcc9077	-0.09988492
32	0xbdd1e942	-0.102495685
33	0x3d763644	0.060110345
34	0x3d04525c	0.032305107
35	0xbe4cc890	-0.19998384
36	0xbe16f7c6	-0.14742956
37	0x3c3451bc	0.011005815
38	0x3dd80742	0.10548259
39	0x3df04979	0.11732764
40	0xbe5c6adc	-0.21525139
41	0xbdceb239	-0.10092587
42	0x3e2dadc7	0.16960822
43	0x3e23719b	0.15961306
44	0xbc86fe8e	-0.016478803
45	0xbe8282ce	-0.2549042
46	0xbe302f86	-0.17205629
47	0x3e28df62	0.16491464
48	0x3d08dd9a	0.03341446
49	0x3e12cfe3	0.14337115
50	0xbd9ff659	-0.07810659
51	0x3b7bb543	0.00384076
52	0x3df82a46	0.12117438
53	0x3db7b503	0.08970072
54	0x3c9b5f29	0.018966274
55	0xbc23c326	-0.0099952575
56	0x3ce3f1d9	0.027825283
57	0x3d78c016	0.060730062
58	0x3e5eb474	0.21748525
59	0x3dd47af9	0.10375018
60	0x3e709bb7	0.234969
61	0x3e706e52	0.23479584
62	0x3e808ecd	0.25108948
63	0xbd6e1fe3	-0.05813588
64	0xbe064d86	-0.1311551
65	0x3e95e28e	0.2927441
66	0x3d0b776d	0.03404944
67	0xbb95639a	-0.0045589926
68	0xbddbe2f4	-0.10736647
69	0x3bbd7f54	0.005783001
70	0x3e17309a	0.14764634
71	0xbe3e7bd4	-0.18601924
72	0xbdbfabde	-0.09358953
73	0xbd3196bd	-0.043356646
74	0xbde5c167	-0.11218529
75	0x3d6cee38	0.05784437
76	0x3e380836	0.17971882
77	0x3d127429	0.03575531
78	0x3e11898a	0.14212623
79	0x3e034b6b	0.12821738
80	0x3dc6c2c4	0.09705117
81	0x3e682d88	0.22673619
82	0x3e889067	0.2667267
83	0x3e7eb521	0.24873783
84	0x3eb75312	0.35805565
85	0x3dcb14f1	0.09916104
86	0x3e31576f	0.1731851
87	0x3e994e6c	0.29942644
88	0x3e0099bf	0.1255865
89	0x3e9da0ad	0.30786648
90	0xbdd0e55a	-0.10199995
91	0xbe49f71a	-0.19723168
92	0xbe364f11	-0.17803599
93	0xbe1a7c91	-0.15086581
94	0x3e589780	0.21151543
95	0xbecd2d47	-0.40073606
96	0xbec2b7fb	-0.3803099
97	0xbeff7ad2	-0.49898392
98	0xbeeae80a	-0.45880157
99	0xbe8c5200	-0.2740631
100	0x3ea117e1	0.3146353
101	0x3e87fb24	0.26558793
102	0x3ebf8713	0.3740774
103	0x3ec96c34	0.39340365
104	0x3e9dcff4	0.30822718
105	0x3e624077	0.22094904
106	0x3eb8431d	0.35988703
107	0x3e373110	0.1788981
108	0x3df166d0	0.11787188
109	0x3e8dc239	0.27687243
110	0xbd09ed29	-0.03367344
111	0xbd3ed88d	-0.046593238
112	0x3e482759	0.1954626
113	0x3d6bbe04	0.05755426
114	0x3e2359f1	0.15952279
115	0xbed85acd	-0.42256775
116	0xbe492b56	-0.19645438
117	0xbe8d781e	-0.27630705
118	0xbe7a7f5d	-0.24462648
119	0xbe61e2e0	-0.22059202
120	0xbeee079e	-0.46490186
121	0xbe9d2619	-0.3069313
122	0xbeef61dc	-0.46754348
123	0xbe8ba6f3	-0.2727581
124	0xbe65652e	-0.22401878
125	0xbd2a975b	-0.04164825
126	0x3df12444	0.11774495
127	0x3e8e4de9	0.27793816
128	0x3dd8f849	0.10594232
129	0xbd58acd6	-0.052899204
130	0xbe3a9f30	-0.18224788
131	0x3e40eb5a	0.1883978
132	0x3e346237	0.17615591
133	0x3d3ead38	0.046551913
134	0xbe93599a	-0.28779298
135	0x3d539241	0.05165315
136	0x3e908989	0.2822993
137	0x3e4d2a73	0.20035724
138	0xbbf6c5ee	-0.0075309193
139	0xbe97f7bb	-0.2968119
140	0xbbc990be	-0.006151288
141	0x3c9fc425	0.019502709
142	0x3e1eab07	0.15494929
143	0xbca8bcd6	-0.020597856
144	0xbdd44b75	-0.10365955
145	0x3d35e407	0.044406917
146	0x3dbfb667	0.09360962
147	0x3e51d3ad	0.20490904
148	0x3e67d07d	0.22638126
149	0xbdda7401	-0.10666657
150	0xbd86a2fb	-0.06574055
151	0xbe865b26	-0.26241416
152	0xbe22ee10	-0.15911126
153	0xbd0e0d18	-0.034680456
154	0x3e2649f4	0.16239148
155	0xbe02de7b	-0.12780182
156	0xbe8d9d5b	-0.27659115
157	0xbe46dce0	-0.19420195
158	0x3e65a360	0.22425604
159	0x3e9bdc74	0.3044163
160	0xbe810813	-0.25201473
161	0xbe852fda	-0.2601307
162	0x3d3b0a9d	0.04566442
163	0x3e967e37	0.2939317
164	0x3db7e8e3	0.089799665
165	0xbe91915c	-0.28431213
166	0xbe018a13	-0.12650327
167	0xbcf004aa	-0.029299099
168	0x3e8c811c	0.27442253
169	0x3e2ad5ef	0.16683172
170	0xbe904812	-0.28179985
171	0x3da003b2	0.07813205
172	0x3e118bb0	0.14213443
173	0x3e9dde12	0.3083349
174	0x3daec809	0.085342474
175	0x3eb91b38	0.3615358
176	0x3ed93782	0.42425162
177	0x3eca4cbc	0.3951167
178	0x3e49b629	0.19698395
179	0x3df57dfc	0.1198692
180	0x3e2143b4	0.15748483
181	0x3e954e85	0.29161468
182	0x3d217dd9	0.03942666
183	0xbd9c7e9c	-0.07641336
184	0xbe73e5f6	-0.23818192
185	0xbe1bea7c	-0.15226167
186	0xbd988411	-0.07447065
187	0xbe7eede3	-0.24895434
188	0xbe70eb2c	-0.23527211
189	0xbef1ead8	-0.47249484
190	0xbed81ca1	-0.42209342
191	0xbeaa7008	-0.33288598
192	0xbed62d63	-0.41831502
193	0xbebc2ddb	-0.36753735
194	0xbe73ede1	-0.23821212
195	0xbeeed8af	-0.4664969
196	0xbece513e	-0.40296358
197	0xbe6f6265	-0.23377378
198	0xbd87231d	-0.06598494
199	0x3db94983	0.090472244
200	0xbd3436df	-0.04399764
201	0xbd20634d	-0.0391572
202	0xbe0a11a2	-0.13483289
203	0xbc5a00ca	-0.013305852
204	0x3e6395d8	0.2222513
205	0xbd9ed864	-0.07756117
206	0xbe45d733	-0.19320373
207	0xbd16316b	-0.036668222
208	0x3e1dad35	0.15398104
209	0x3dd2912a	0.10281594
210	0xbe1a66a9	-0.15078224
211	0xbe87eb72	-0.26546818
212	0xbe37bbbd	-0.1794271
213	0x3e127536	0.14302525
214	0x3e73ef36	0.2382172
215	0xbe8bcd09	-0.27304867
216	0xbe5ed4de	-0.2176089
217	0x3d99aa23	0.07503154
218	0x3e431b7a	0.1905345
219	0x3e979cae	0.29611725
220	0xbe3d85de	-0.18508098
221	0xbdfd75e5	-0.12376002
222	0x3e29669c	0.16543049
223	0x3e8ea537	0.27860424
224	0x3d861fc1	0.06549025
225	0x3e829fa6	0.25512427
226	0x3c25dcf8	0.010123484
227	0xbda96ca9	-0.082726784
228	0xbe8038cc	-0.25043333
229	0xbec0a4af	-0.37625644
230	0xbe811736	-0.2521302
231	0xbed3c31f	-0.41359803
232	0xbe9eff71	-0.3105426
233	0xbeb374fd	-0.35050192
234	0xbc910b24	-0.017705508
235	0xbea37e27	-0.31932184
236	0xbed99073	-0.42493019
237	0xbe6caa37	-0.23111807
238	0x3a509a6a	0.000795758
239	0x3e994f50	0.29943323
240	0x3cf8bd68	0.030363753
241	0x3e566ca3	0.20939879
242	0x3eb164a8	0.34647107
243	0x3edce1f9	0.43141153
244	0x3df29354	0.11844507
245	0x3ed63288	0.41835427
246	0x3f0bb859	0.5457817
247	0x3eb7de34	0.35911715
248	0x3e1f3583	0.15547757
249	0x3d5b53ad	0.053546596
250	0x3d8f7751	0.0700518
251	0xbc9431f0	-0.018090218
252	0x3e00d00b	0.12579362
253	0xbd64e0b5	-0.05587836
254	0xbe262977	-0.16226755
255	0x3cec4794	0.028842725

conv1.bias f4 [32]
0	0xbc216e36	-0.0098529365
1	0x3df675a3	0.12034156
2	0xbcac298e	-0.021015909
3	0x3d9e95d2	0.0774342
4	0x3a2193f8	0.00061637117
5	0xbd91da15	-0.07121674
6	0xbc775741	-0.015096487
7	0x3e8b7591	0.27238134
8	0xbb9f5172	-0.004862004
9	0x3a53e618	0.0008083298
10	0xbd224127	-0.039612915
11	0xbdf0f2bf	-0.1176505
12	0x3e10b98a	0.14133278
13	0xb997ff8a	-0.00028991356
14	0x3e03ee0c	0.12883776
15	0xb7b7cc78	-2.1910513e-05
16	0xbe6a6ce9	-0.22893108
17	0xbc38e709	-0.011285552
18	0xbdf4c954	-0.11952463
19	0x3e1394a0	0.14412165
20	0xbdb6e1ff	-0.08929824
21	0xbd74aa0f	-0.059732493
22	0x3e473f80	0.19457817
23	0xbc47c4d0	-0.01219292
24	0xbe0200f7	-0.1269568
25	0xbdbb9545	-0.0915933
26	0x3dfec405	0.124397315
27	0xbdcd8a68	-0.100361645
28	0xbe2cd52c	-0.16878194
29	0xbae73525	-0.001763974
30	0x3dd25bbb	0.102714024
31	0xba7d8d06	-0.0009672198

fc1.weight f4 [10, 1152]
0	0xbb80ee99	-0.003934693
1	0xbc7361a9	-0.014854827
2	0xbb039ffa	-0.0020084367
3	0x3c17d982	0.0092681665
4	0xbaae949f	-0.0013319439
5	0xbb5bdb06	-0.0033547296
6	0xbadfd23b	-0.0017076203
7	0xbd07703f	-0.03306603
8	0x3b08ed6e	0.0020893472
9	0xbba238d4	-0.004950622
10	0x3d14b6db	0.036307197
11	0xbc2712a6	-0.010197317
12	0x3adf2099	0.0017023265
13	0x3ca8d71b	0.020610383
14	0x3ac887b5	0.0015299233
15	0xbcc5a7f3	-0.024127936
16	0x3c1e61ae	0.009666843
17	0x3cf8b9f6	0.03036211
18	0xbc079406	-0.008275038
19	0x3c4622b3	0.012093234
20	0x3d87f1a3	0.066378854
21	0xbd6619c6	-0.056176923
22	0xbc9895c8	-0.018626109
23	0x3a3f61f2	0.0007300667
24	0xbb452c14	-0.0030086087
25	0x3d057ceb	0.032589834
26	0x3da0e07e	0.078553185
27	0xbd43882f	-0.047737297
28	0xba58c43c	-0.00082689873
29	0x3c1963f6	0.009362211
30	0x3b8ceaae	0.004300437
31	0x3be04003	0.0068435683
32	0x3d3ee2ce	0.046603017
33	0xbc9684c2	-0.01837385
34	0xbc70ded6	-0.014701566
35	0xbcd32e42	-0.025778893
36	0xbb84ce5b	-0.00405292
37	0xbc2e8d00	-0.010653734
38	0x3c61bde2	0.013778182
39	0xbc31f22e	-0.010860963
40	0x3c4afa76	0.012388816
41	0x3bf69c91	0.0075259884
42	0xbbdb748c	-0.006697243
43	0x3c495df5	0.0122904675
44	0xbd2eff0c	-0.0427237
45	0x3c8b9568	0.017039016
46	0x3cac89f7	0.02106188
47	0xbc343838	-0.010999732
48	0xbc3492b7	-0.011021308
49	0x3cc789fe	0.024357792
50	0x3c2ae829	0.010431328
51	0xbc5813cd	-0.013188315
52	0xbce15f35	-0.027511219
53	0x3cbee120	0.023300707
54	0xbc036f43	-0.008022132
55	0x3cdbd26a	0.026833732
56	0x3c8408de	0.01611751
57	0xbd0d333a	-0.03447268
58	0x3c62d144	0.013843838
59	0x3d5c6b7e	0.05381345
60	0x3b725a7e	0.0036980207
61	0xbcc90bd5	-0.024541775
62	0x3af90e56	0.0019001465
63	0x3c2ab3c6	0.010418838
64	0x3ce53280	0.027978182
65	0x3c8f6746	0.0175053
66	0xbc2cb594	-0.0105413385
67	0xbc723485	-0.014783029
68	0xbd663b6d	-0.056209017
69	0xbd7b3f48	-0.061339647
70	0xbd38d177	-0.045121636
71	0xbb80ebd2	-0.003934362
72	0xb79bea14	-1.8586441e-05
73	0xbb59972d	-0.003320168
74	0xbc947e1b	-0.018126538
75	0xbc67cfc7	-0.014148659
76	0xbd421533	-0.0473835
77	0xbcbda48e	-0.023149755
78	0xbb5d7e72	-0.003379729
79	0xbcc703a8	-0.024293736
80	0x3b3653fb	0.0027821052
81	0xbd723a5a	-0.05913768
82	0xbd3bc56b	-0.04584257
83	0x3b9e3983	0.0048286333
84	0xbc0015a8	-0.007817663
85	0xbc1ffd17	-0.009764931
86	0xbbd27216	-0.0064222915
87	0x3c5d0e98	0.013492249
88	0xbd3961f3	-0.045259427
89	0x3cb0af6e	0.021568026
90	0xbc49cc3a	-0.012316758
91	0x3cc8369f	0.024440108
92	0x3db304cf	0.087411515
93	0xbd00e9d9	-0.031473015
94	0xbdd0883d	-0.101822354
95	0x3bd96e1e	0.0066354414
96	0xbc2534f7	-0.010083429
97	0x3c01f366	0.007931566
98	0x3cc4b97d	0.024014229
99	0xbd91a3e2	-0.07111336
100	0x3cb430de	0.021995958
101	0x3d14c52e	0.036320858
102	0x3c088c20	0.00833419
103	0xbd04a7e3	-0.03238667
104	0x3cd359da	0.02579968
105	0x3ce81bc6	0.028333556
106	0xbbe50d5e	-0.006990119
107	0xbc8e3947	-0.017361296
108	0xba077414	-0.00051671383
109	0x3ad3ace4	0.0016149548
110	0xbbb4c163	-0.0055162176
111	0x3c186f06	0.009303814
112	0x3c977845	0.018489966
113	0x3b704785	0.0036663723
114	0xbbc856bd	-0.0061138556
115	0xbd0a4fbb	-0.033767443
116	0xbd7ae827	-0.061256554
117	0x3c2ab67e	0.010419486
118	0xbccbc928	-0.024876192
119	0xbca215a2	-0.019785706
120	0x38996f1c	7.316304e-05
121	0xbd5b8ea5	-0.053602833
122	0xbda3a86b	-0.079911076
123	0x3d1a090c	0.037606284
124	0x3c14e11b	0.009086872
125	0xbd83d550	-0.064371705
126	0x3cecee11	0.028922113
127	0xbdb29b9e	-0.08721088
128	0xbdeea7ac	-0.116530746
129	0xbda406e5	-0.080091275
130	0xbd5fa3b3	-0.054599475
131	0x3cb34a58	0.021886036
132	0x3b44eafa	0.0030047284
133	0x3c403dbb	0.011733468
134	0xbd033f5f	-0.032042857
135	0xbd72f409	-0.05931476
136	0x3c9522c1	0.018205049
137	0xbb7cfecc	-0.003860402
138	0x3ccaadc5	0.024741063
139	0xbc870050	-0.016479641
140	0x3d731572	0.059346624
141	0x3d888363	0.06665685
142	0xbbe88956	-0.00709645
143	0xbc487a31	-0.012236164
144	0xbaa7b567	-0.0012795151
145	0x3b682440	0.0035421997
146	0x3c1189e7	0.008882976
147	0x3cb25510	0.021769077
148	0x3c1a1c7d	0.009406206
149	0xbaaf7d91	-0.0013388862
150	0xbc0ef02f	-0.008724256
151	0xbd6e2d32	-0.05814857
152	0xbdbb4d31	-0.091455825
153	0xbca4af30	-0.020103067
154	0xbd2c3d77	-0.042050805
155	0xbd12948a	-0.03578619
156	0xbc410b98	-0.011782549
157	0xbd69e526	-0.0571033
158	0xbd932f7e	-0.07186793
159	0x3c995e04	0.018721588
160	0x3cbcaf0e	0.023032691
161	0xbd98cab3	-0.07460537
162	0xbcc84c8b	-0.024450561
163	0xbe04a6d5	-0.12954266
164	0xbdaec053	-0.08532777
165	0xbde62a32	-0.11238517
166	0xbe1b2273	-0.1514986
167	0x3c88f13a	0.016716588
168	0xbd3395e0	-0.043844104
169	0xbd5d4eb6	-0.054030143
170	0xbd8b0385	-0.06787781
171	0xbd961b44	-0.07329419
172	0xbca1a878	-0.019733652
173	0x3c810f25	0.015754292
174	0xbac88f1b	-0.0015301438
175	0xbc325021	-0.010883362
176	0x3d46ccd8	0.048535198
177	0x3dadf782	0.08494474
178	0x3ce8cd78	0.028418288
179	0x3b415f18	0.0029506143
180	0xb590488d	-1.0749951e-06
181	0xbca85f62	-0.020553295
182	0xbca31089	-0.019905346
183	0xba5cf57b	-0.00084289134
184	0x3c8584f0	0.016298741
185	0x3c33f607	0.01098395
186	0xb7b57a1f	-2.1633748e-05
187	0xbcbd7d59	-0.02313106
188	0xbbac91b3	-0.005266392
189	0x3c6331fe	0.0138669
190	0x3c1fbb6f	0.0097492775
191	0x3c81c9a5	0.015843222
192	0xb9e762a3	-0.00044133244
193	0x3c7b6e5e	0.015346138
194	0x3ba1d9f6	0.004939313
195	0xbc89e524	-0.016832896
196	0x3cde62cb	0.027146718
197	0x3d048cc3	0.032360803
198	0xbc1df635	-0.00964122
199	0x3c8b4d50	0.017004639
200	0x3dbdb3c7	0.092628054
201	0xbdae987b	-0.08525177
202	0xbcac6203	-0.02104283
203	0x3d0b3e59	0.033995006
204	0x3b6b5364	0.003590786
205	0x3c04ac7d	0.008097765
206	0x3dab3f7e	0.083617195
207	0xbd9e526a	-0.07730563
208	0x3c1da011	0.009620682
209	0x3be4ccdc	0.006982429
210	0x3b6035f5	0.0034211848
211	0x3d0bcf01	0.03413296
212	0x3ce4e701	0.027942182
213	0xbc2550b4	-0.010090042
214	0xbd8ad2b7	-0.06778472
215	0xbd21a90a	-0.03946785
216	0xbc2d6396	-0.010582825
217	0xbc93dcaa	-0.018049557
218	0x395bf797	0.00020977702
219	0xbce4b6ae	-0.02791914
220	0xbc32d16b	-0.010914187
221	0x3bffec75	0.0078101703
222	0xbcc7c22c	-0.02438458
223	0xbc0eaa6c	-0.008707624
224	0xbcd8a955	-0.026447931
225	0x3998d656	0.00029151392
226	0xbb91d71a	-0.004450691
227	0xbd2388ae	-0.03992527
228	0xbd48e2ce	-0.049044423
229	0x3a8258d8	0.000994469
230	0x3d379cce	0.044827275
231	0xbd1eae34	-0.03874035
232	0xbbd510f8	-0.006502267
233	0x3d09d26e	0.033647947
234	0x3c30052f	0.010743423
235	0x3d935852	0.0719458
236	0x3cfab84e	0.030605461
237	0xbcef9eb6	-0.029250484
238	0x3d8dae64	0.06918028
239	0x3dc6e691	0.09711946
240	0x3d46517f	0.048417564
241	0x3d1b4742	0.037909754
242	0x3d5fbb81	0.054622177
243	0x3c5c0f33	0.013431358
244	0xbc2f2dcc	-0.010692071
245	0x3d8872ce	0.06662522
246	0x3bf9ff8b	0.00762934
247	0xbd30f7dc	-0.043205127
248	0xbcbc9802	-0.023021702
249	0xbdd672d2	-0.10471119
250	0xbdc5faec	-0.09667
251	0xbcf2f903	-0.029659754
252	0xba6e4f6d	-0.0009090815
253	0xbc6d8a13	-0.0144982515
254	0xbb64de0f	-0.0034922396
255	0x3c5a530f	0.013325467

fc1.bias f4 [10]
0	0x3c7e78f5	0.015531768
1	0x3cd6261f	0.026141224
2	0x3b88a394	0.0041698907
3	0xbd2179de	-0.039422862
4	0xbcb12af6	-0.02162693
5	0x3d70525c	0.058672294
6	0xbd1b8b4a	-0.037974633
7	0x3b68d43d	0.0035526894
8	0xbd4d3da3	-0.05010761
9	0xbc388596	-0.011262318
