checkpoints/epoch=1.checkpoint.pth.tar (torch, 75230 bytes, 6 tensors)

conv1.weight f4 [8, 1, 3, 3]
00000000: e5f3 e8bd 269a 6ebe 15ff 57be ed87 113e
00000010: be73 a53e 5c18 7f3e d45e 353f cbdc 233f
00000020: fd00 cbbd 4009 20bf db65 f2be fcc2 d93c
00000030: 23b1 20be d612 d03d e047 d0bd b1f1 123f
00000040: b49d 103f c3dd c83e f173 02bf 90f9 913d
00000050: efa2 fa3e e0e8 01bf 7a97 69bd 6fe5 093f
00000060: 7919 8bbe 660a 6d3d 78a0 b83e a23a 243e
00000070: c15b 873d fb14 a13d ec27 ea3e ad04 033f
00000080: 8441 7a3e 2a6e bfbe b372 42be 6267 233e
00000090: 2433 ff3e 273e 043f 9d54 9b3e 8522 bf3e
000000a0: 9ab0 883d 0d80 59be 42ee 433e b143 cabe
000000b0: 885d 1bbe eec3 e83d 0a51 143f 40a9 5e3e
000000c0: bef1 193e c97d b23e e5c6 f23e 6829 283d
000000d0: 5c67 c73e 58e0 e73d 831a 27be 56a5 9d3d
000000e0: 86aa 80bd d6a5 87be 2b22 8ebe 7e4b 6ebe
000000f0: 482a 96be b3cb a6be 66a5 113e 68e4 2fbe
00000100: 4537 103e 6d7e c13e bb73 b53e bd9b 993d
00000110: 8861 da3e 21a0 c23e ba98 7e3e 65ce 9d3e
-0.11374644 -0.2330099 -0.210934 0.14212008 0.32314867 0.24911636 0.7084782 0.6400878
-0.09912298 -0.62514114 -0.47343335 0.026582234 -0.15692572 0.10159843 -0.10169959 0.5740004
0.56490636 0.3923169 -0.5095816 0.071276784 0.48952433 -0.50745964 -0.057029225 0.5386571
-0.27167872 0.057871245 0.36059928 0.16037992 0.066092975 0.0786533 0.45733583 0.5117901
0.24439055 -0.37388736 -0.18989067 0.15957406 0.49843705 0.51657337 0.30337992 0.37331024
0.06674309 -0.21240254 0.19133857 -0.3950477 -0.15172398 0.113654956 0.57936156 0.21744251
0.15033624 0.3486159 0.4741737 0.041055113 0.38946044 0.11322087 -0.16318707 0.07697551
-0.06282525 -0.2649371 -0.27760443 -0.23270985 -0.29329133 -0.32577285 0.14223251 -0.17176974
0.14083584 0.37791768 0.35439858 0.07500408 0.42652535 0.38012794 0.24862948 0.3082153

conv1.bias f4 [8]
00000000: bccd 2e3d 3d51 b23c e48f c8bd dec8 28bc
00000010: 5f42 de3c b396 3ebe a600 2dbe 0a4b 32be
0.042676672 0.021767253 -0.0979307 -0.010301797 0.027131258 -0.18612175 -0.16894779 -0.17411438

conv2.weight f4 [32, 8, 3, 3]
00000000: f5fa 52be 380a 993d 9566 27be fc8b 013e
00000010: 7a3b 523d 7c10 fd3d 7e03 423d fb69 38bd
00000020: 7581 d03d f49d c3bd 775e aabd 4c67 01be
00000030: 698b 623e 63b1 583e 7feb 3e3e 35ce 6b3c
00000040: 0a9e e93d fa73 3e3e 11eb 8c3d 142e 09be
00000050: 7c58 16be cf85 61bc aeed a8be 6de2 8e3c
00000060: 854a 30be 3629 393d a6b3 263d fb1f 74be
00000070: e293 36be 5e4f b0bd 8938 b6bd 4c86 13be
00000080: 9ef3 ca3c a036 223e 9a8c 933d 29fe 343e
00000090: aee8 9fbe 403a b8bb 9a3f 0cbe 4afd 74bd
000000a0: 73e2 2ebd 7a96 41be 9da3 8c3c aa2c b9bb
000000b0: f8f5 a1bd b3c3 debe 3ed4 0abe 238b 48be
000000c0: 2d64 b6bc 08e6 fbbd 84a5 d0bb d751 24bc
000000d0: da5f 5d3e c628 2a3e d1ac a1bd 8e65 9b3d
000000e0: ccc8 633d e323 513c ddd7 94bb 9b77 933c
000000f0: beda b93d 1e18 af3c 0803 6a3b 6390 c2be
00000100: 4d05 53be a660 0bbd a563 893d c619 923d
00000110: 3bdf 213d 60ea 40ba 1123 353e ccff a13d
00000120: bdc7 353e 283c c53b 5e22 7dbe f5af 1a3e
00000130: e21e 0cbe 541d 9ebd 9b57 c13d b976 23be
00000140: 1ffb 7f3c 56f7 4ebd 387b 91be 0056 6dbe
00000150: 6e95 00bd cb70 e3be a911 3ebd 3f03 09be
00000160: e8bb 34be d584 093e a1dd c33e ef72 3cbe
00000170: 05d2 b53d 7276 c23e 4e3f ebbd 4788 893e
00000180: 7475 823e e4ab 69be 2ddb 703e cd86 acbc
00000190: 30be 00bd ca90 0dbe 29c2 513c b09d e1bd
000001a0: fb0a aabe ebf2 213e 18d2 5cbe 66db d2bd
000001b0: 90e9 793c 6054 283d 2e08 2fbd 6f8a 053e
000001c0: 75e1 2e3e 09b2 abbe 75ba 933e 25d7 aa3c
000001d0: d7c1 26be cbf1 973e 0b7f d1bc b586 a1be
000001e0: 6ea0 c23e 8263 2bbe 117e 1ebe 1727 613e
000001f0: dcac 2abe 49a6 15bd d1bd 90bd f1c4 09bd
00000200: f7ed 8b3d e989 5dbc ac32 71bd 7a23 ee3c
00000210: 45d0 503d e673 d4bd 8e28 b0bd 6242 483e
00000220: 8936 c73b 5b8d b4bd 6599 113e 95b7 4dbe
00000230: fcc0 10bd 94a1 8a3e 1590 d0bd 080c b6bc
00000240: 8017 44bd 7f12 c7bd 91aa cfbd 32a6 75bd
00000250: 7293 253d 1e91 97bd ca98 1f3e 8e22 2d3e
00000260: 2bc9 f23d e570 4b3e 4841 30be af8e 183d
00000270: 3874 813e b285 893e 4744 d93c 74be 873e
00000280: 8a51 993e 4025 203d 5fbe 493e 4775 bfbd
00000290: 5d8b 48bd edeb 8bbe 8967 b43c f7b7 e2bb
000002a0: f5fa 59be ceea b8bd 188f 1abe 967e b53d
000002b0: 9264 683e a868 38bd 72f5 9dbe 1f97 81be
000002c0: 284f f9bd 23cb 1e3e 17a7 573e 0e01 4d3e
000002d0: c62e 9f3d d57d 793e 3b4a 003e e396 66bd
000002e0: e322 3bbd 0561 73bc 413f 81bc ec29 863c
000002f0: 9380 1e3d 9057 803d 559c bb3d 52d3 b2bd
00000300: b379 82be 6263 91be 0d32 19be e7f4 08bd
00000310: ac59 463c c421 40bd 47c7 cd3c 0f0b d1bd
00000320: e555 abbd 65fc 93bd 34fe 18bd fea0 81bc
00000330: 67af f13c 0465 cbbc 300d af3c 3abd 863d
00000340: 58b7 49bd a86a c6bd 7b3a 70be c7e8 89bd
00000350: 0d53 dc3d 3357 153e 3336 f53d 730a dd3d
00000360: df18 20be 5f2c fc3c d626 9abc febf 3a3c
00000370: 0513 f6bc b43d 4dbc 3786 693d ef5d 47bd
00000380: 60fa d3bd f1ba 9dbd f847 25bc 1137 d4bd
00000390: 47b0 4f3d 424e ce3c bc48 c9bd 1a68 4abd
000003a0: 63cc e83c 28a8 efbd 8c8d 833d a058 f73d
000003b0: 569c 3c3e 0ac3 6ebd 74ce 3d3d 32e3 363d
000003c0: 9f32 a73d f1a5 163e 43c8 f53d f420 cabd
000003d0: f1f5 98bd 1e9c 02bb b010 cabd ca8a ed3c
000003e0: 83a9 2a3c 947c 8fbc bf75 a23d 5c5d 03bd
000003f0: f352 2cbe d87e fcbd 0a95 be3d c506 67bd
-0.20603545 0.07472652 -0.16347726 0.12651056 0.051326253 0.1235666 0.04736661 -0.045022946
0.10180942 -0.095516115 -0.08318799 -0.12637061 0.22123493 0.21161418 0.18644522 0.014392425
0.11407097 0.18598929 0.06880773 -0.13396484 -0.14682192 -0.013764813 -0.32993835 0.017441953
-0.17215927 0.045205317 0.04069867 -0.23840325 -0.1782985 -0.08608888 -0.08897502 -0.14406699
0.024774369 0.1584115 0.07204552 0.1767508 -0.31232208 -0.0056221783 -0.13696137 -0.059811868
-0.042696428 -0.18905059 0.01716786 -0.0056510763 -0.07908243 -0.43508682 -0.13557526 -0.19584326
-0.022264564 -0.12299734 -0.0063673873 -0.010029278 0.21618596 0.16617116 -0.0789429 0.075877294
0.055611417 0.012764904 -0.0045423345 0.018001368 0.09074925 0.021373805 0.0035707373 -0.38000783
-0.20607491 -0.034027718 0.06708459 0.07133822 0.03951953 -0.00073591433 0.17689158 0.079101175
0.17751975 0.006019134 -0.24720141 0.15106185 -0.13683656 -0.07720438 0.094405375 -0.15963258
0.015623837 -0.050528847 -0.2841432 -0.23177338 -0.031392507 -0.44421992 -0.04640356 -0.13380145
-0.17649806 0.13429578 0.38255027 -0.18403219 0.08877949 0.37980992 -0.11486684 0.26861784
0.25480235 -0.22819477 0.23521109 -0.021060372 -0.031431377 -0.13824764 0.012802639 -0.11016405
-0.33211502 0.15815322 -0.2156452 -0.10295753 0.01525344 0.04109609 -0.04273241 0.1304109
0.17078193 -0.33534268 0.28853193 0.020854542 -0.16284882 0.2967666 -0.025573274 -0.31548086
0.38013023 -0.16737178 -0.15477778 0.21987568 -0.16667503 -0.036535535 -0.070674546 -0.033635084
0.068324976 -0.01352165 -0.058886215 0.02906965 0.05097987 -0.103736684 -0.08601485 0.19556573
0.006079499 -0.08816024 0.14218672 -0.20089562 -0.035340294 0.270764 -0.101837315 -0.022222534
-0.047873974 -0.09720325 -0.10139955 -0.05997295 0.040423818 -0.07400726 0.15585628 0.16907713
0.11854776 0.19867285 -0.17212403 0.03724545 0.2528398 0.26859814 0.026521815 0.26512492
0.29945022 0.039098024 0.19701527 -0.09348541 -0.048961032 -0.27328435 0.022022026 -0.006918903
-0.21287139 -0.090291604 -0.15093648 0.08862035 0.22694615 -0.045021683 -0.30851322 -0.2531061
-0.12173301 0.15507178 0.21059833 0.20019934 0.07772593 0.24364407 0.12528317 -0.05629624
-0.045687567 -0.014854674 -0.015777232 0.016377412 0.038696837 0.06266701 0.09160677 -0.087317124
-0.25483474 -0.28396136 -0.14960499 -0.033436682 0.01210634 -0.0469072 0.025119437 -0.102071874
-0.083659925 -0.07225875 -0.037351802 -0.015823837 0.029502584 -0.024828441 0.021368593 0.06579061
-0.049247116 -0.09688312 -0.23459809 -0.06733852 0.10758028 0.14584045 0.11973228 0.10793009
-0.15634488 0.030782877 -0.018817347 0.011398314 -0.030038366 -0.012526918 0.057012763 -0.048673566
-0.103504896 -0.07701672 -0.0100879595 -0.103620656 0.05070522 0.0251838 -0.09828326 -0.049415685
0.028417772 -0.11701995 0.06423482 0.12077451 0.18419012 -0.058291472 0.046339467 0.044650264
0.08163952 0.14711739 0.120010875 -0.098695666 -0.074687846 -0.001992948 -0.09866464 0.028996844
0.010416391 -0.017515458 0.079326145 -0.032071456 -0.16828518 -0.12328881 0.09305771 -0.05640294

conv2.bias f4 [32]
00000000: f12d fa3c de4a cfbc 8496 87bd e116 46be
00000010: 3bc0 83bd bf02 ffbd 912b ee3d 64f5 e43d
00000020: f0e3 c9bd 41aa cabc 31c8 0abe 8ea4 6b3c
00000030: dc0e ef3c 24c8 aabc 6d84 a9bd 6789 973c
00000040: c0d7 7ebd 6882 0ebe 8df5 8bbd d07d bbbd
00000050: b061 87bd 821e 80bd b470 e3bd 9d38 ddbd
00000060: cfb9 a7bd 1932 21be 2497 82bd bb5c 16be
00000070: aec1 bfba 8342 23bd 9d5b ebbd ec28 34bd
0.030539485 -0.025304254 -0.066205055 -0.19344665 -0.064331494 -0.12451696 0.116294034 0.11179617
-0.09857929 -0.024739387 -0.1355293 0.014382495 0.02918189 -0.020847388 -0.08277211 0.018498136
-0.062217474 -0.13916934 -0.068339445 -0.09154856 -0.06610429 -0.06255819 -0.11105481 -0.10801814
-0.08189737 -0.15741767 -0.06376484 -0.14683811 -0.0014629865 -0.039858352 -0.11492083 -0.04398434

fc1.weight f4 [10, 1568]
00000000: b29b e7bb 2f3b f9bc 2e9a 9e3c 96d5 0fbd
00000010: 0d56 233c 3499 7e3c 05aa 143d 3a0b ae3c
00000020: 624c e23c 2812 ffbc 2a88 9a3c 246c c73c
00000030: 430e 3cbc 0ca6 29bd aa65 df3c fcf3 353d
00000040: 81b6 c33c 8fbb c83c dbd7 7dbd c320 b2bd
00000050: 95e1 f03c ff68 553d 7356 233d fee6 0b3c
00000060: 323c 6bbe 2e6b 43bd 91f4 debd afa9 9dbd
00000070: 1ead bbbb 867f 88bd ca69 34be 4b8a 023c
00000080: 475c be3d cdae 82bd 3d42 f8bd c269 d8bc
00000090: 0a9c 04be 311d 2dbe c446 2d3c 9801 0b3d
000000a0: abe9 103b f4ba a13b 0698 af3c acb9 5fbd
000000b0: 9a10 a4bd be60 a4bd 15de 4c3d 3600 15bb
000000c0: 7390 27bc bed6 8f3c 2efa 4dbd b60d bbbc
000000d0: 698b 8cbc 1d63 24bd 38be 14bd 8eca d93c
000000e0: cec5 10bc 1693 1ebd 7de4 fbbd feba a4bd
000000f0: 8f8c 98bc e577 babc 2a71 3e3d b982 cf3b
00000100: 4ed2 38bd 7f37 7e3d 3c42 25bc 8115 48bd
00000110: 0a8b a83c 75f7 063d 8a47 afbd a91f 83b9
00000120: 340c 093e 71e8 283e ba69 633c 8199 073d
00000130: 246c a03d 0311 44bc 9b1e 893d 7a7a ea3d
00000140: 1f7a 443e ac6f 463d 7dcb f8bb f8ea 893d
00000150: 7041 e439 7961 b2bd 7478 81bd f40d 0abd
00000160: 7749 3d3a a86a 66bd acd7 913c b2b9 b13c
00000170: 8178 a539 b172 bebb 5e5f cbbd 2b20 b4bd
00000180: 77a5 b5bd 9821 b8bc 54a5 a93a ffa8 cfbb
00000190: 83fa cebc 21e2 8bbb 51f1 22bc d1d5 43bb
000001a0: 3236 9d3d 041b 083d 1f01 5f3d 34f0 b6bc
000001b0: 31b4 743d 4ded 4a3d 4e59 afba c5e4 f6bc
000001c0: ac02 823c bcf3 7e3d 90f4 063d a455 09be
000001d0: 2c3f 5bbe f445 03be 00c6 973c 37df 733c
000001e0: 1694 cebb 15c9 58bd b113 9abd 6126 1dbd
000001f0: 86df cbbd 8f30 14be 4ce2 073b 0617 64bd
00000200: 3ff3 9dbd 3bcf 3a3d 575a dd3a 8905 4dbd
00000210: 7832 fbbd 4d94 403c cb48 06bd 524a 40bd
00000220: 8110 ab3d 52d8 bb3d 0c35 e33c 6056 9f3c
00000230: bcc2 39bd 7087 9b3d e026 88bd a147 ecbc
00000240: 16d4 bfbc b906 bdbc 48f9 a9bc c7e3 52bc
00000250: 988d f2bc 2d6e f5bc 211c a6bc 0dc7 1bbd
00000260: 0de0 b1bc fff2 163d 2e72 57bc 2d4e b9bc
00000270: 946a 0bbd fb3c cf39 a499 113d afa0 d6bc
00000280: e869 873b 036e ff3b 1fa8 2e3c b274 ae3c
00000290: a542 cc3b ee67 f5bb 705b f43c 9319 6a3b
000002a0: 2534 ec3a b378 983c 55a4 c13b dfc0 7fbd
000002b0: 8a5d 00bb 9daa 763c 78fe 8b3c ce2c 283d
000002c0: fe6f 813d d67f 023d f08a 52bc 7a0b 483d
000002d0: 3af5 653d 6d25 03bd 4027 083c d4ed 163d
000002e0: 7c22 0c3b b7a6 103c 0869 203d 1188 92bb
000002f0: 2985 cfbb ac9b b43c a618 c6bc 72d6 fbbc
00000300: 227f f4bd 9136 14be e2e4 4abd 9d47 7ebc
00000310: 8a4b bfbb 91d3 2fbd 4f02 75bc 5089 ad3b
00000320: ce5a bd3c 759a 0ebc 7482 203d b01f 0abd
00000330: c3f1 21bc 6ddd 73bc 9826 193d 95cf d43c
00000340: 31ec 013d 3742 603d aed0 c33b 0df5 0a3d
00000350: ca13 2bbd a7e8 33bb ca48 253d fc37 ab3c
00000360: 11c1 d43b 15f8 84bc 32fa f7bc 65ca 52bb
00000370: 5156 57bd ec49 03be 6055 85bd c16f d73c
00000380: 3117 75bd a83a b2bd cf6b 543c 8ecb 293d
00000390: 78f2 62bd 05e6 c0bd 6880 45bc 0e4f a0bd
000003a0: d346 95bd 96a5 323c 2b07 243d c2e8 76bc
000003b0: 6f90 aebc 114a 1bbc efa8 84ba 8858 a3bc
000003c0: 9b81 c13a 8ac5 3c3c 9a3a 393c 875d 00bc
000003d0: d3a7 48bc 1e8e 5cbc 42f8 99bd f15e 34bd
000003e0: 4e11 12bd d196 ecbc 50e0 90bd 2b43 21bc
000003f0: a34f 0fbd 3660 5bbd 2665 b1bc a457 363c
-0.007068121 -0.030423729 0.019360628 -0.0351158 0.009969247 0.015539456 0.036294956 0.021245588
0.027624313 -0.031136587 0.018863756 0.024343558 -0.01147801 -0.04141812 0.027270157 0.044422135
0.023890736 0.024503497 -0.061973434 -0.08697655 0.02940444 0.052102085 0.039877366 0.00853896
-0.22972181 -0.047709636 -0.10886491 -0.0769838 -0.0057274243 -0.06664948 -0.1761848 0.007967542
0.09294944 -0.06380997 -0.12122009 -0.026417617 -0.12950149 -0.16905667 0.010575954 0.033937067
0.0022111933 0.0049356166 0.021434795 -0.05462043 -0.08010979 -0.080262646 0.05001648 -0.0022735721
-0.0102273105 0.017558452 -0.050287418 -0.022833686 -0.01715632 -0.040133584 -0.03631422 0.026585843
-0.008836223 -0.03871449 -0.1229944 -0.080434784 -0.018621711 -0.022762248 0.04649464 0.006332722
-0.045122437 0.062064644 -0.010086592 -0.048848633 0.020574111 0.032950837 -0.08558567 -0.00025009856
0.13383561 0.1649492 0.013880188 0.033105377 0.07833126 -0.011966947 0.06695291 0.11449142
0.1918721 0.048446342 -0.007592617 0.0673427 0.00043536304 -0.08709998 -0.06321803 -0.033704713
0.0007220725 -0.05625406 0.017803036 0.021694992 0.00031561035 -0.005812012 -0.09930299 -0.08795198
-0.088694505 -0.022476956 0.0012942948 -0.0063372846 -0.025265938 -0.0042689 -0.00994523 -0.0029882083
0.076763526 0.03322889 0.05444443 -0.022331335 0.059742156 0.049542714 -0.0013378055 -0.030138383
0.015870415 0.062244162 0.032948077 -0.13411576 -0.21410817 -0.12819654 0.018527031 0.014884762
-0.0063042743 -0.05292614 -0.07523287 -0.03836668 -0.09954743 -0.14471649 0.0020734249 -0.05568602
-0.07712411 0.045607787 0.0016887885 -0.050054107 -0.122654855 0.011754108 -0.032784265 -0.046945877
0.08352757 0.09172119 0.027735256 0.019450366 -0.04535173 0.07594192 -0.0664804 -0.02884275
-0.02341656 -0.023074495 -0.02074875 -0.012871689 -0.029608533 -0.029959762 -0.020277085 -0.038031626
-0.021713281 0.036852833 -0.013149781 -0.022620285 -0.034037188 0.0003952755 0.035546914 -0.026199667
0.004132498 0.007795097 0.0106602 0.021295879 0.0062335306 -0.007489196 0.029828757 0.003572081
0.0018020911 0.018612241 0.0059094825 -0.062439796 -0.0019587004 0.015055326 0.017089114 0.041058354
0.06320189 0.031860195 -0.012850508 0.04883907 0.05614207 -0.032018114 0.008310139 0.036847904
0.002138286 0.00882881 0.039162666 -0.004471787 -0.0063330126 0.022046886 -0.024181675 -0.030741904
-0.11938311 -0.1447394 -0.049534686 -0.015520004 -0.0058378624 -0.042926375 -0.014954164 0.00529591
0.023114588 -0.008703818 0.03918691 -0.033721626 -0.009884301 -0.014884335 0.03739032 0.02597789
0.03171939 0.054750647 0.0059758043 0.033925105 -0.04176692 -0.0027451904 0.04035262 0.020900719
0.006492742 -0.016231576 -0.03027067 -0.0032164094 -0.052572552 -0.12821168 -0.065104246 0.026298406
-0.05983657 -0.08702594 0.012965157 0.04145389 -0.055407017 -0.09418873 -0.01205454 -0.078275785
-0.07288899 0.010903737 0.0400459 -0.015070142 -0.021309106 -0.009478108 -0.0010121147 -0.019939676
0.0014763357 0.011521706 0.011305476 -0.007834799 -0.012247044 -0.013461618 -0.075180545 -0.044035856
-0.035661034 -0.028880509 -0.07074034 -0.009842674 -0.034988057 -0.05355855 -0.021654677 0.011129294

fc1.bias f4 [10]
00000000: 75ca 43bb d875 de3c cf79 a83c 6d84 d2bc
00000010: d6fa b8bb 52b0 7bbc cae3 bfbc ca6a 56bb
00000020: 5925 943b 3271 f73c
-0.0029875312 0.027155802 0.020565895 -0.025697911 -0.0056451363 -0.015361862 -0.023424048 -0.003271746
0.0045210538 0.030205343
