checkpoints/epoch=8.checkpoint.pth.tar (torch, 75230 bytes, 6 tensors)

conv1.weight f4 [8, 1, 3, 3]
0	0x3ea9023d	0.3300952
1	0x3ee42cbf	0.4456539
2	0x3eef5295	0.46742693
3	0x3df0f950	0.117663026
4	0x3dc14f97	0.09439009
5	0x3ea73c7a	0.32663327
6	0xbf3c59a6	-0.7357429
7	0x3cf6ed14	0.030142345
8	0xbe197ce2	-0.14989045
9	0xbd9f3151	-0.07773078
10	0x3e976e0e	0.29576153
11	0x3c9ee29a	0.019395161
12	0xbe36f6fd	-0.17867656
13	0x3f0a9d79	0.54146534
14	0x3ca7a4b7	0.020464284
15	0x3edfbf78	0.43700767
16	0x3ea8cd9c	0.32969368
17	0x3db03f73	0.08605852
18	0x3eeabda4	0.4584781
19	0x3d3ea176	0.0465407
20	0xbed91cdd	-0.42404833
21	0x3eb9cc93	0.3628889
22	0x3ec464eb	0.38358244
23	0xbe57318b	-0.21014993
24	0xbdf8ecc9	-0.12154538
25	0x3eebc85c	0.460513
26	0x3f038520	0.5137501
27	0xbee23457	-0.44180557
28	0xbe934074	-0.2876011
29	0x3ee8d58e	0.4547543
30	0x3e9c5c36	0.305391
31	0x3f167d5a	0.5878502
32	0x3edfd2db	0.43715557
33	0x3d9d038e	0.07666694
34	0x3e34acf9	0.17644109
35	0x3e73eef7	0.23821627
36	0x3e3edc80	0.18638802
37	0xbee70daa	-0.45127612
38	0xbf62e293	-0.88626975
39	0x3f46cac2	0.77653134
40	0x3b8843de	0.004158481
41	0xbe439487	-0.19099627
42	0x3eca0033	0.39453277
43	0x3f13d008	0.57739305
44	0x3a9c353d	0.0011917722
45	0xbdddd9ff	-0.10832595
46	0x3ce0bec7	0.02743472
47	0x3ecf2ee1	0.40465453
48	0x3f47999b	0.7796876
49	0x3f10b886	0.5653156
50	0xbe356b92	-0.17716816
51	0x3eb3d13b	0.35120568
52	0xbedcad59	-0.43101004
53	0xbf33aa50	-0.7018175
54	0x3ed54533	0.41654357
55	0x3f0504c7	0.51960415
56	0x3f09fe09	0.5390325
57	0x3ef7e7cb	0.48419032
58	0xbd57be26	-0.052671574
59	0xbdf5505a	-0.119782165
60	0xbf31a68b	-0.6939475
61	0xbf60aae4	-0.8776076
62	0xbef9cb88	-0.48788095
63	0xbed8880d	-0.42291299
64	0xbe21fccd	-0.15819092
65	0x3f0c6ef9	0.5485683
66	0xbf08d95a	-0.5345665
67	0xbde7e47f	-0.11322879
68	0x3ea33b9c	0.31881416
69	0xbedc2538	-0.42997146
70	0x3e0a8cf4	0.13530332
71	0x3f22bafa	0.63566554

conv1.bias f4 [8]
0	0xbd04c27d	-0.03241204
1	0xbe3da828	-0.18521178
2	0xbede05e7	-0.43363878
3	0xbe293205	-0.16522987
4	0x3c849144	0.01618255
5	0xbd2e8c7f	-0.042614456
6	0x3e3775cc	0.1791603
7	0x3b7e5a18	0.0038811024

conv2.weight f4 [32, 8, 3, 3]
0	0xbee8407e	-0.45361704
1	0xbe4d9115	-0.20074876
2	0xbeb61d80	-0.35569382
3	0xbe929076	-0.2862584
4	0xbd165169	-0.036698733
5	0x3e66f1ce	0.22553179
6	0x3c94153b	0.01807653
7	0x3e86f811	0.26361135
8	0x3e641678	0.22274196
9	0xbeed52e5	-0.46352306
10	0xbe925ce9	-0.2858651
11	0xbaab2934	-0.0013058544
12	0xbde8b173	-0.11361971
13	0x3e3aa2df	0.18226193
14	0x3e80d29f	0.2516069
15	0x3e1fd9a8	0.15610373
16	0x3ca450f0	0.020058125
17	0xbe52d3e8	-0.20588648
18	0xbed861f5	-0.42262235
19	0xbd0eefbd	-0.0348966
20	0xbd6bd9f9	-0.05758092
21	0xbd19fbed	-0.03759377
22	0xbcbd76bb	-0.023127904
23	0xbde49de2	-0.11162926
24	0xbe5279bb	-0.20554249
25	0x3d14e85c	0.036354408
26	0xbd4cdb2b	-0.050013702
27	0xbe63d492	-0.22249058
28	0xbe70ca70	-0.23514724
29	0x3de8dd69	0.11370356
30	0xbe634050	-0.22192502
31	0x3e154c22	0.14579824
32	0x3e92e1dd	0.28687945
33	0x3e44827f	0.19190405
34	0x3d977bfa	0.073966935
35	0xbbd0565b	-0.0063579506
36	0xbe059137	-0.13043676
37	0xbe149461	-0.14509727
38	0xbcd2b193	-0.02571944
39	0xbe9b332d	-0.30312482
40	0x3b7f4225	0.0038949337
41	0xbe138bfa	-0.14408866
42	0x3d5226c1	0.05130649
43	0xbe3789a7	-0.17923604
44	0xbeadd689	-0.3395274
45	0xbeef4ba1	-0.46737388
46	0xbea98543	-0.33109483
47	0xbea355b8	-0.31901336
48	0xbe902d71	-0.2815967
49	0x3dcaf2ec	0.09909615
50	0x3e9de731	0.30840448
51	0x3ec2d452	0.38052613
52	0x3ee2bef2	0.44286305
53	0x3e1afcd9	0.15135516
54	0xbd9845e8	-0.074352086
55	0x3d9eca83	0.0775347
56	0xbec18ffb	-0.3780516
57	0xbe62ed6e	-0.22160885
58	0xbed21817	-0.41034004
59	0x3e8129e4	0.25227273
60	0x3d0cdd07	0.034390476
61	0x3ec59778	0.38592124
62	0x3ea2e904	0.31818402
63	0xbe9a098e	-0.30085415
64	0xbe372ca0	-0.17888117
65	0xbd7122b2	-0.05887098
66	0x3ebe2066	0.37134093
67	0x3e6ee813	0.23330717
68	0xbea7f1ce	-0.3280167
69	0xbda1c58c	-0.07899007
70	0xbe1e9e18	-0.15489995
71	0xbe567f37	-0.20946966
72	0xbe3a577c	-0.18197435
73	0xbe816bc9	-0.25277546
74	0xbd5a545b	-0.053303104
75	0x3e0c20dc	0.1368441
76	0x3d855f70	0.06512344
77	0xbe8ac77d	-0.27105322
78	0x3e029795	0.12753136
79	0x3e5ecef6	0.21758637
80	0x3defb914	0.11705223
81	0x3d0961ee	0.03354066
82	0xbe7175d5	-0.23580106
83	0xbeaf2a72	-0.3421207
84	0xbe092e4d	-0.13396569
85	0x3d59c53a	0.053166606
86	0xbe3a35f1	-0.1818464
87	0xbdc4ba1a	-0.096058086
88	0x3e10572a	0.1409575
89	0x3db8e3e1	0.090278395
90	0xbe58d798	-0.21175992
91	0xbe842613	-0.25810298
92	0xbea30ac2	-0.31844145
93	0x3e251593	0.16121511
94	0x3e654630	0.22390056
95	0x3d186ac3	0.03721119
96	0xbe6d2ead	-0.23162337
97	0x3e2eac30	0.17057872
98	0x3e19bb7b	0.15012924
99	0xbdaeb214	-0.085300595
100	0xbe821de1	-0.2541342
101	0xbecafaab	-0.3964437
102	0x3dafd031	0.08584631
103	0x3e082132	0.13293913
104	0xbe0943cd	-0.1340477
105	0xbd36426a	-0.04449693
106	0x3e162d3d	0.14665695
107	0xbd97bc75	-0.07408992
108	0x3d21650a	0.039403
109	0xbd878b49	-0.066183634
110	0xbe1c2aeb	-0.15250747
111	0x3eb94d11	0.3619161
112	0x3ec0f9bb	0.3769053
113	0x3edcf599	0.43156126
114	0xbed0ce66	-0.4078247
115	0x3e3418a1	0.1758752
116	0x3ed883d6	0.42288083
117	0xbe8f149d	-0.27945414
118	0xbed2c961	-0.41169265
119	0xbe03f78b	-0.12887399
120	0x3e34534e	0.17609903
121	0xbccb84ec	-0.024843656
122	0xbe84b75f	-0.2592115
123	0x3e236908	0.15958035
124	0x3e0de0d3	0.13855295
125	0xbd6a5654	-0.057211235
126	0x3ddfc893	0.10926928
127	0x3e070d68	0.13188708
128	0x3d3b0647	0.045660283
129	0xbd95d821	-0.07316614
130	0xbd8dc4e9	-0.06922323
131	0xbdcd40b9	-0.100221105
132	0x3eb1520c	0.3463291
133	0x3e53a4ff	0.2066841
134	0xbe54874d	-0.20754738
135	0xbf2f7b8a	-0.6854788
136	0xbe724daf	-0.23662446
137	0xbeb81b7c	-0.3595847
138	0xbed0ed35	-0.40805975
139	0xbcd45405	-0.02591897
140	0xbf0b6cd5	-0.5446294
141	0xbcfd13c6	-0.030893218
142	0xbcc8eeb4	-0.024527885
143	0xbcf44dc8	-0.029822245
144	0xbe35fdf7	-0.17772661
145	0xbdb97eed	-0.09057412
146	0x3d59f359	0.05321059
147	0x3db13f53	0.08654656
148	0xbdc8480a	-0.09779365
149	0x3d480ceb	0.048840445
150	0xbda176bc	-0.07883975
151	0x3e2caa68	0.1686188
152	0xbde2916c	-0.11062893
153	0xbc8beadb	-0.017079761
154	0x3dd33b0f	0.10313999
155	0x3def8d00	0.116968155
156	0xbcc9b41b	-0.024622014
157	0x3e053d01	0.13011552
158	0xbdaf43d0	-0.08557856
159	0xbe039a80	-0.12851906
160	0xbdb5428d	-0.08850584
161	0x3bf87d2c	0.007583281
162	0x3c7daa8e	0.015482558
163	0xbe479aae	-0.194926
164	0xbce53895	-0.027981082
165	0x3e010357	0.1259893
166	0x3d89225e	0.06696008
167	0x3d3d01aa	0.046144165
168	0xbe260140	-0.16211414
169	0x3e1d6ee9	0.1537434
170	0x3e8d142c	0.27554452
171	0x3c807ce6	0.015684556
172	0x3c95984f	0.018261103
173	0x3d1d4bde	0.03840243
174	0x3c5c2e36	0.013438752
175	0x3d91564d	0.07096539
176	0xbe0fc6b6	-0.14040646
177	0xbdde15a7	-0.108439736
178	0xbe642f4e	-0.2228367
179	0x3e2225be	0.1583471
180	0x3e343482	0.17598155
181	0xbe75b1bf	-0.23993586
182	0xbe891ac0	-0.2677822
183	0xbd5a1f8a	-0.053252734
184	0x3ceea0d7	0.029129429
185	0x3e3a4081	0.18188669
186	0xbe8cd081	-0.27502826
187	0x3d916a12	0.071003094
188	0x3e7bf096	0.24603495
189	0x3e396cb5	0.18107875
190	0x3e8a3b25	0.2699825
191	0x3ec0eb34	0.37679446
192	0x3caceba2	0.021108452
193	0x3d5ba69a	0.05362568
194	0xbb68a5fb	-0.0035499323
195	0x3dd6057f	0.10450267
196	0xbebc3d09	-0.36765316
197	0x3d8386f0	0.06422222
198	0xbdaf4ca1	-0.08559538
199	0xbea8912d	-0.3292326
200	0x3e87a57e	0.26493448
201	0xbe3800e9	-0.17969097
202	0x3d20855a	0.039189674
203	0xbded8d03	-0.115991615
204	0x3e431c85	0.19053848
205	0x3dc12062	0.09430005
206	0xbe9c9775	-0.30584303
207	0x3d935ae1	0.07195068
208	0x3cff99d7	0.031201286
209	0xbee7c071	-0.4526401
210	0xbe201d0f	-0.15636085
211	0xbeac1d4b	-0.336161
212	0xbe81bc23	-0.2533885
213	0xbdce1df7	-0.10064309
214	0x3dd09796	0.10185163
215	0xbdcdee14	-0.100551754
216	0xbdc77248	-0.09738594
217	0x3d905b71	0.07048691
218	0x3d5a2840	0.05326104
219	0x3e0492ec	0.12946671
220	0xbcea12a6	-0.028573345
221	0xbd105090	-0.03523308
222	0xbdfad2b2	-0.12247218
223	0xbe83d7a5	-0.2575046
224	0x3bd230d6	0.006414513
225	0xbd111377	-0.035418954
226	0x3da733f7	0.081642084
227	0x3daf6d00	0.08565712
228	0xbd92a06f	-0.071595065
229	0xbe8a2b07	-0.26985952
230	0xbc5cfd0a	-0.013488064
231	0xbdbbdc3c	-0.09172866
232	0xbd97a766	-0.074049756
233	0xbdbf5b92	-0.093436375
234	0x3e27c6e2	0.16384462
235	0x3dddda0f	0.10832607
236	0x3e8e6347	0.27810118
237	0xbe39ba51	-0.1813748
238	0xbe3e9d7d	-0.18614765
239	0x3eaff489	0.34366253
240	0x3d53f71c	0.051749334
241	0x3c24eca5	0.010066186
242	0xbe8bb92c	-0.27289712
243	0x3d8ac2c1	0.067754276
244	0x3e0a5e8a	0.13512626
245	0x3e089341	0.13337423
246	0xbd9f078b	-0.077651106
247	0xbe7ed87e	-0.24887273
248	0x3d27722a	0.04088036
249	0x3c544862	0.0129567105
250	0xbdfa95c8	-0.122356
251	0xbd76b265	-0.060228724
252	0x3eba7cd5	0.36423364
253	0x3e573385	0.21015747
254	0x3ec1c6e4	0.37847054
255	0xbe834169	-0.2563584

conv2.bias f4 [32]
0	0xbd5db1c0	-0.054124594
1	0xbdc65572	-0.09684266
2	0xbe9fab8e	-0.31185573
3	0xbe5c0616	-0.21486697
4	0xbd2a181d	-0.041526902
5	0xbd8aba76	-0.06773846
6	0xbe894f47	-0.26818296
7	0xbe9ea593	-0.30985698
8	0x3ce31689	0.027720707
9	0xbd1b3015	-0.03788765
10	0xbe10a0f4	-0.14123899
11	0xbe3cb6e6	-0.18429145
12	0xbe0cee8e	-0.13762876
13	0xbdfd5ed7	-0.12371605
14	0xbdfcb320	-0.12338853
15	0xbd5b2664	-0.05350341
16	0xbe023e90	-0.12719178
17	0xbdcfa25b	-0.10138389
18	0xbe8db9b0	-0.2768073
19	0xbe54a267	-0.20765077
20	0xbd13a59c	-0.03604661
21	0xbe7f3e35	-0.24926074
22	0xbe17c5ab	-0.14821498
23	0xbe6ff74b	-0.23434179
24	0xbea230d4	-0.31677878
25	0x3da37e80	0.07983112
26	0xbe3ab563	-0.18233256
27	0x3d20f92e	0.039300136
28	0xbe781a25	-0.24228723
29	0x3dbb0a05	0.091327704
30	0xbe0d307c	-0.13788027
31	0xbdbefda9	-0.093257256

fc1.weight f4 [10, 1568]
0	0x3dba1f2a	0.09087975
1	0x3c59b40e	0.013287557
2	0xbd7f6cf4	-0.062359765
3	0xbd9f2c76	-0.07772152
4	0xbe3a310b	-0.18182771
5	0xbd87bcb4	-0.06627789
6	0xbb32e60b	-0.002729776
7	0x3d2ab906	0.04168036
8	0xba29a00b	-0.00064706866
9	0xbcdb9ec8	-0.026809111
10	0xbd8eec00	-0.06978607
11	0xbd97bcc3	-0.0740905
12	0x3dc99050	0.098419785
13	0x3d282ca0	0.041058183
14	0xbe04d189	-0.12970556
15	0x3d13577f	0.035972115
16	0x3e027cfe	0.12742993
17	0x3d9831f8	0.07431406
18	0xbe414d01	-0.18877031
19	0xbec3a518	-0.38211894
20	0xbea36b95	-0.31918016
21	0x39a4c7bf	0.0003142934
22	0x3e3a4652	0.18190888
23	0x3db47e65	0.0881317
24	0xbe8ec67f	-0.27885816
25	0xbd9375ea	-0.07200225
26	0x3d30a4a4	0.043125764
27	0xbe0eee4a	-0.13958088
28	0x3daca688	0.08430201
29	0xbdee7361	-0.116431005
30	0xbd4f018b	-0.05053858
31	0xbd7a2140	-0.061066866
32	0x3db27c4c	0.08715114
33	0x3d3e8e07	0.046522167
34	0xbec40286	-0.38283175
35	0xbd61a88c	-0.05509238
36	0xbe72ad65	-0.23698957
37	0xbdd77705	-0.10520748
38	0xbe14b2e8	-0.14521372
39	0x3d5e2f22	0.054244168
40	0x3e939437	0.28824016
41	0x3e43d24b	0.19123189
42	0x3d9c6e20	0.07638192
43	0xbedc9b5e	-0.43087286
44	0xbf438f8e	-0.7639092
45	0xbea6368e	-0.32463497
46	0xbdc3a0ca	-0.095521525
47	0x3d293855	0.041313488
48	0x3d21c432	0.039493747
49	0xbcb7a7ea	-0.022418935
50	0xbda9ed89	-0.08297259
51	0x3b34aaa8	0.002756754
52	0xbdcf85b3	-0.10132923
53	0x3cc08d40	0.023504853
54	0xbd1a7f78	-0.03771922
55	0xbda9fac8	-0.08299786
56	0xbdd2d7c8	-0.10295063
57	0x3e07bf52	0.13256577
58	0xbda1aec0	-0.07894659
59	0x3d2f8607	0.042852428
60	0x3d9f6892	0.07783617
61	0x3d7c29c4	0.06156327
62	0x3dcff819	0.10154743
63	0x3e4149fa	0.18875876
64	0xbdd85e80	-0.105648994
65	0xbd8ced1a	-0.06881161
66	0x3dbc8b31	0.09206236
67	0x3dd9f472	0.10642327
68	0x3d67987d	0.05654191
69	0x3e0fd44e	0.14045832
70	0xbc5112d2	-0.012760835
71	0xbee8943a	-0.45425588
72	0xbd794968	-0.06086102
73	0xbebd09ee	-0.36921638
74	0xbe925f8f	-0.2858853
75	0xbe0d11c5	-0.1377631
76	0x3cafcec5	0.0214609
77	0xbeba0226	-0.36329764
78	0xbe270dba	-0.1631383
79	0xbbd32415	-0.0064435103
80	0x3d0ca11c	0.034333333
81	0x3dc5a29f	0.09650158
82	0xbe57338c	-0.21015757
83	0xbdf03d0d	-0.117303945
84	0xbe67d426	-0.22639522
85	0xba8b63b3	-0.0010634571
86	0xbc860674	-0.016360499
87	0x3c9d3a88	0.019192949
88	0xbeaa8976	-0.33308
89	0xbe219759	-0.15780391
90	0x3d37e56c	0.044896528
91	0x3d486f31	0.048934165
92	0x3d991af8	0.07475847
93	0x3d1bea19	0.03806505
94	0xbe95d8b1	-0.29266885
95	0xbef48135	-0.47754827
96	0xbe5a258b	-0.21303384
97	0x3d9a17bd	0.07524059
98	0xbdbce7e4	-0.09223917
99	0xbe4d1f7d	-0.20031543
100	0xbd38cb18	-0.04511556
101	0x3e2839b4	0.16428262
102	0xbd73b305	-0.0594969
103	0x3d0f4603	0.034978878
104	0x3a9998b3	0.0011718482
105	0xbd51523a	-0.051103808
106	0x3c07c242	0.008286061
107	0xbdaad8f6	-0.08342163
108	0x3e0528cb	0.13003843
109	0x3daf3546	0.08555083
110	0x3e45228c	0.1925146
111	0xbe0d3693	-0.1379035
112	0x3d6f561e	0.058431737
113	0x3d004a7b	0.03132103
114	0xbdc48da8	-0.09597331
115	0xbd722720	-0.059119344
116	0xbb9ad8bf	-0.004725545
117	0x3e100fe4	0.14068562
118	0xbd7094b4	-0.058735564
119	0x3d8243f9	0.06360621
120	0x3e895553	0.2682291
121	0xbbacb888	-0.0052710213
122	0x3e0e3d16	0.1389049
123	0xbed13d04	-0.40866864
124	0x3c88fafb	0.01672124
125	0xbe0d2c64	-0.13786465
126	0x3e275263	0.16340022
127	0x3de99e4c	0.11407146
128	0xbc3bb236	-0.011456063
129	0xbdf39659	-0.11893911
130	0xbc4fb4d1	-0.012677387
131	0x3e1516b0	0.14559436
132	0xbe2f8cc8	-0.17143548
133	0xbe00f584	-0.12593657
134	0x3c342a72	0.010996448
135	0x3e1c65bd	0.15273185
136	0x3e09891b	0.13431208
137	0x3c2915f3	0.0103201745
138	0x3c90576f	0.017619817
139	0xbd0da402	-0.03458024
140	0x3d93c3dc	0.072150916
141	0x3de853b6	0.113440916
142	0xbe55573f	-0.20834063
143	0x3dcab1e0	0.09897208
144	0x3dc238dd	0.09483502
145	0x3ce7e9a7	0.028309656
146	0xbd1f878f	-0.038947638
147	0xbdac9af8	-0.084279954
148	0xbc4fc221	-0.012680561
149	0x3e074b2c	0.1321227
150	0x3dc36875	0.09541408
151	0x3e3188c4	0.17337328
152	0xbc9afc93	-0.018919265
153	0x3cf992c3	0.03046549
154	0xbba9284f	-0.005162276
155	0xbe2817a5	-0.1641527
156	0xbec74ce3	-0.38925847
157	0xbcc74c2e	-0.024328317
158	0xbc920d68	-0.017828658
159	0x3cf80ef4	0.030280568
160	0xbdae82a2	-0.0852101
161	0x3d0ae928	0.03391376
162	0xbcae5b99	-0.021283912
163	0xbcf24b18	-0.029576823
164	0x3e0dddc1	0.13854124
165	0xbd048b0c	-0.032359168
166	0x3cbec572	0.023287509
167	0xbe3d66e4	-0.18496281
168	0x3ce51f80	0.027969122
169	0xbe127e07	-0.14305888
170	0xbe4f49fe	-0.2024307
171	0xbbf5a8bd	-0.007496922
172	0xbd84b926	-0.06480627
173	0xbdb5b8f1	-0.088731654
174	0xbe50370d	-0.203335
175	0x3cb55084	0.02213312
176	0x3db2c0f1	0.08728207
177	0x3d9069be	0.07051419
178	0xbe603e98	-0.21898878
179	0x3d9f5145	0.07779173
180	0xbd9a5a60	-0.07536769
181	0xbd9afa21	-0.075672396
182	0x3d7c199d	0.061547864
183	0xbd37dc90	-0.04488808
184	0x3d76f4fb	0.060292225
185	0xbca518d3	-0.020153439
186	0xbd29b5d1	-0.04143316
187	0x3a22aefa	0.0006205883
188	0xbe16d48e	-0.1472952
189	0xbd01382f	-0.03154772
190	0x3c50dac7	0.012747473
191	0x3c07299c	0.008249667
192	0xbc003fc0	-0.007827699
193	0x3d86d346	0.06583266
194	0xbdd12c84	-0.10213569
195	0xbded702c	-0.11593661
196	0x3d682c8c	0.05668311
197	0xbcdb17fd	-0.026744837
198	0x3e023dad	0.1271884
199	0xbd6db119	-0.05803022
200	0x3d12296c	0.035684034
201	0x3e0cd456	0.13752875
202	0x3d183856	0.0371631
203	0xbc044af8	-0.008074515
204	0x3d887758	0.06663388
205	0x3d763d81	0.06011725
206	0x3e8c878d	0.27447167
207	0x3d70c9ac	0.05878608
208	0x3cf97c05	0.030454645
209	0xbc4bc537	-0.012437156
210	0x3d9095ab	0.07059797
211	0xbda05faa	-0.078307465
212	0x3d8341db	0.06409045
213	0xbe192ca5	-0.14958437
214	0xbd384a8c	-0.04499297
215	0xbe3d9300	-0.18513107
216	0xbdd52501	-0.104074486
217	0xbdae9dca	-0.085261896
218	0xbe6bdd4e	-0.2303364
219	0xbe00057c	-0.12502092
220	0xbd3bded5	-0.045866806
221	0xbd5e90be	-0.054337256
222	0xbe96dd1f	-0.29465577
223	0xbdb1a907	-0.086748175
224	0x3c373a4a	0.011183331
225	0xbeb372c8	-0.3504851
226	0xbeef46d7	-0.46733734
227	0xbdc7e653	-0.09760728
228	0x3d921ad4	0.07134023
229	0x3e4f4a23	0.20243125
230	0x3d82e28a	0.06390865
231	0x3d2b8ddb	0.04188333
232	0xbdca9390	-0.098914266
233	0xbabb101c	-0.0014271769
234	0x3e337f89	0.1752912
235	0x3d86a549	0.065744944
236	0x3d9db008	0.07699591
237	0xbd760230	-0.06006068
238	0x3dc861f9	0.09784312
239	0xbd3501cd	-0.04419117
240	0xbd0235d5	-0.03178962
241	0x3ccf5c8a	0.02531268
242	0x3d46b82d	0.048515487
243	0x3c533bb5	0.012892653
244	0xbd58281d	-0.05277263
245	0xbd466fb0	-0.048446357
246	0xbc5df7af	-0.013547822
247	0x3c4d83a3	0.012543592
248	0x3b69b752	0.0035662246
249	0xbcbb46b5	-0.022860864
250	0xbe6eddcb	-0.23326795
251	0x3d31aebd	0.043379534
252	0x3d4919c4	0.049096838
253	0x3d127459	0.03575549
254	0xbe19bd59	-0.15013637
255	0x3cc774dd	0.024347717

fc1.bias f4 [10]
0	0x3d8a393c	0.06749198
1	0x3e10ee22	0.1415334
2	0xbbd3ff33	-0.006469631
3	0xbd59ed24	-0.05320467
4	0xbda4df02	-0.08050348
5	0xbb15ff95	-0.0022887934
6	0xbce6ff99	-0.02819805
7	0xbcd472e8	-0.025933698
8	0x3cb6abe2	0.022298757
9	0x3c47b95e	0.012190191
