checkpoints/epoch=3.checkpoint.pth.tar (torch, 75230 bytes, 6 tensors)

conv1.weight f4 [8, 1, 3, 3]
0	0x3e9e48d0	0.30914927
1	0x3ecae2d2	0.39626175
2	0x3f045fc6	0.5170864
3	0x3e16ef81	0.14739801
4	0x3d1525c9	0.036412988
5	0x3e89305b	0.26794705
6	0xbf131790	-0.5745783
7	0x3def05de	0.11671041
8	0xbdf6801a	-0.12036152
9	0xbd72b021	-0.05925
10	0x3e901c8f	0.28146788
11	0x3beb6ffb	0.00718498
12	0xbe342964	-0.17593914
13	0x3f06f749	0.5272108
14	0x3d389380	0.045062542
15	0x3ee65247	0.44984648
16	0x3e98a645	0.29814354
17	0x3e10111b	0.14069025
18	0x3ee4035e	0.4453382
19	0x3d784808	0.06061557
20	0xbeae1969	-0.3400376
21	0x3eab2d68	0.3343308
22	0x3e940a1d	0.28913966
23	0xbe273d00	-0.16331863
24	0xbdada4d8	-0.08478707
25	0x3ec5e331	0.38649896
26	0x3efc9e91	0.49339727
27	0xbea50b86	-0.32235354
28	0xbe5d0d3e	-0.21587083
29	0x3ed03341	0.40664104
30	0x3e79af70	0.2438333
31	0x3f0b9bb6	0.5453447
32	0x3ece7d18	0.40329814
33	0x3d844cb9	0.06459946
34	0x3e4b1310	0.1983149
35	0x3ea93e13	0.3305517
36	0x3e2b38de	0.16720912
37	0xbeb236fb	-0.34807572
38	0xbf35fd8b	-0.7109
39	0x3f21a393	0.6314022
40	0xbcb33924	-0.021877833
41	0xbdd2cfba	-0.10293527
42	0x3e9d61ba	0.30738622
43	0x3f090d51	0.53535944
44	0x3c878b62	0.016545955
45	0xbde1d338	-0.11026615
46	0xbcb9ccdf	-0.022680698
47	0x3ed7b54c	0.42130506
48	0x3f28a218	0.65872335
49	0x3f00a02b	0.50244397
50	0xbdbe619d	-0.09295962
51	0x3e7e9de0	0.24864912
52	0xbebdb28c	-0.37050283
53	0xbf0611ed	-0.523711
54	0x3eb2b24c	0.34901655
55	0x3eed8e6a	0.46397716
56	0x3ee81214	0.45326293
57	0x3ee41c0a	0.44552642
58	0xbd6e73e2	-0.058215983
59	0xbe0ba2ca	-0.13636318
60	0xbf161ca2	-0.5863744
61	0xbf2be609	-0.6714788
62	0xbefc2735	-0.49248663
63	0xbecc5cf1	-0.3991466
64	0xbe0a7843	-0.13522439
65	0x3efa6389	0.48904064
66	0xbed105f1	-0.40824845
67	0xbdeb6d40	-0.11495447
68	0x3e6cb112	0.23114422
69	0xbec9d51b	-0.394204
70	0x3da290ca	0.079377726
71	0x3f13fa22	0.5780355

conv1.bias f4 [8]
0	0x3b8e55ef	0.00434374
1	0xbe2f76e9	-0.17135204
2	0xbea542c9	-0.32277516
3	0xbdc4a549	-0.09601838
4	0x3cb1b796	0.021693986
5	0xbd491e10	-0.049100935
6	0x3e45e416	0.19325289
7	0x3c5aca24	0.013353858

conv2.weight f4 [32, 8, 3, 3]
0	0xbe9346b1	-0.2876487
1	0xbe8bc855	-0.2730128
2	0xbea8937b	-0.3292502
3	0xbe6299a5	-0.22128923
4	0xbc48016a	-0.012207368
5	0x3e2d3310	0.1691401
6	0x3ac352e6	0.0014902025
7	0x3e53ad50	0.20671582
8	0x3e319207	0.17340861
9	0xbec4748b	-0.38370165
10	0xbe77d425	-0.2420202
11	0x3cd30bc0	0.025762439
12	0xbd447a99	-0.04796848
13	0x3e05c9f7	0.13065325
14	0x3e6ce8aa	0.2313563
15	0x3e0c5b8a	0.13706794
16	0x3c3d4a74	0.011553396
17	0xbe6a59aa	-0.22885767
18	0xbeacb9ce	-0.33735508
19	0xbd228bf1	-0.03968424
20	0xbd9a97cb	-0.075484835
21	0xbcfae622	-0.030627314
22	0xbd8496d6	-0.06474082
23	0xbe13d7c6	-0.1443778
24	0xbe15da6d	-0.14634104
25	0xbc7739aa	-0.015089432
26	0xbd97714c	-0.073946565
27	0xbe5f41ac	-0.21802396
28	0xbe55ce63	-0.20879512
29	0x3e05c669	0.13063969
30	0xbe0ec971	-0.13944031
31	0x3e0df74c	0.13863868
32	0x3e7d4f0c	0.24737185
33	0x3e10922e	0.14118263
34	0x3d11d8f1	0.035607282
35	0xbd26d771	-0.040732805
36	0xbe122b5a	-0.1427435
37	0xbe29e625	-0.165917
38	0xbdcec5c7	-0.10096317
39	0xbea4c001	-0.32177737
40	0xbc5d1e42	-0.013495984
41	0xbdd0477b	-0.10169884
42	0xbc9015d7	-0.017588539
43	0xbe2dc5b7	-0.16969953
44	0xbe8e6c1f	-0.27816865
45	0xbe8c0c87	-0.27353308
46	0xbe876920	-0.26447392
47	0xbe683fd0	-0.22680593
48	0xbe41aebb	-0.1891431
49	0x3df958ef	0.12175166
50	0x3ea4376b	0.3207353
51	0x3e8da7d0	0.27667093
52	0x3ed5ad61	0.4173384
53	0x3e1b9d88	0.15196812
54	0x3d627bcc	0.055293843
55	0x3ca38fc5	0.019966016
56	0xbeb12a49	-0.34602574
57	0xbe725f9a	-0.23669282
58	0xbe8b65a6	-0.2722599
59	0x3e8c5e0b	0.274155
60	0x3d4db4a8	0.050221115
61	0x3ea764b5	0.3269402
62	0x3e9e693f	0.3093967
63	0xbe936154	-0.28785193
64	0xbe3ca837	-0.18423544
65	0xbd51fa58	-0.051264137
66	0x3e95230f	0.2912831
67	0x3e53a803	0.2066956
68	0xbe5d6a99	-0.21622695
69	0xbdaad68a	-0.08341701
70	0xbe0b05e9	-0.13576473
71	0xbe403b4b	-0.18772618
72	0xbe2da0a6	-0.16955814
73	0xbe8efd96	-0.27927846
74	0xbd99ce9c	-0.07510111
75	0x3d9b24fc	0.075754136
76	0x3bde4f06	0.0067843227
77	0xbe5ca33d	-0.21546645
78	0x3ddfdc90	0.10930741
79	0x3e55c183	0.208746
80	0x3dd9e6c5	0.10639719
81	0x3c680ce4	0.01416323
82	0xbe7069d2	-0.23477867
83	0xbe879877	-0.2648351
84	0xbd93ca8c	-0.07216367
85	0x3d122783	0.035682213
86	0xbe05e5d1	-0.13075949
87	0xbdd133c8	-0.102149546
88	0x3ddb7e8a	0.10717495
89	0x3d70faca	0.05883292
90	0xbe091768	-0.13387835
91	0xbe80503f	-0.25061223
92	0xbe846b68	-0.25863194
93	0x3e521eab	0.20519511
94	0x3e625cdd	0.22105737
95	0x3d99b0e2	0.07504441
96	0xbe10220b	-0.14075486
97	0x3e098ac2	0.13431838
98	0x3dbea12c	0.09308085
99	0xbdc3b06a	-0.09555133
100	0xbe8625ab	-0.26200613
101	0xbe8cc547	-0.2749426
102	0x3df06fa2	0.11740042
103	0x3df39060	0.11892772
104	0xbd3edbbf	-0.046596285
105	0xbd489248	-0.04896763
106	0x3deda4e1	0.11603714
107	0xbd0f9a2d	-0.035059143
108	0x3defcc10	0.11708844
109	0xbd895c66	-0.06707077
110	0xbda4c571	-0.080454715
111	0x3ed02284	0.40651333
112	0x3eb54ce1	0.35410216
113	0x3eb445be	0.3520946
114	0xbe8bee46	-0.27330226
115	0x3dd34a97	0.10316961
116	0x3ea46231	0.32106164
117	0xbe81b9ad	-0.25336972
118	0xbecfe02b	-0.40600714
119	0xbe3392f5	-0.17536528
120	0x3d96b075	0.07357875
121	0xbde2a9b6	-0.11067526
122	0xbe5d27bd	-0.2159719
123	0x3e4fbc1f	0.20286606
124	0x3dde815a	0.108645156
125	0xbcc3f6ec	-0.023921452
126	0x3d8ba78e	0.06819068
127	0x3d8e33ee	0.069434986
128	0xbd4df91b	-0.050286394
129	0xbe283b1a	-0.16428795
130	0xbdf615f9	-0.1201591
131	0xbe0ef878	-0.13961971
132	0x3eaf9636	0.3429429
133	0x3e71a2e4	0.23597294
134	0xbde60ceb	-0.11232933
135	0xbeefa599	-0.46806028
136	0xbe668c2b	-0.22514407
137	0xbe8d8ea4	-0.2764789
138	0xbe997e76	-0.29979295
139	0xbde93acc	-0.11388168
140	0xbee3d8dc	-0.44501388
141	0xbdf5fd94	-0.12011257
142	0xbe02ca46	-0.12772474
143	0xbd0a1081	-0.033707146
144	0xbe07d0d0	-0.1326325
145	0xbd923345	-0.07138685
146	0x3d93c61d	0.072155215
147	0x3d8a29b7	0.06746238
148	0xbda32d2f	-0.079676025
149	0x3d09f494	0.033680514
150	0xbde9059e	-0.113780245
151	0x3d96eafb	0.07369038
152	0xbe081b6b	-0.13291709
153	0x3a0fd0fe	0.00054861594
154	0x3dc47f02	0.09594537
155	0x3d9e3aa8	0.077260315
156	0xbce860af	-0.028366415
157	0x3ddf75c4	0.10911134
158	0xbb33cd53	-0.0027435615
159	0xbdb8c876	-0.0902261
160	0xbd26394c	-0.040581986
161	0xbba19455	-0.0049310126
162	0xbd03b8f9	-0.032158826
163	0xbe16c22a	-0.14722505
164	0xbbf3fc9c	-0.007445885
165	0x3d97ddba	0.07415338
166	0x3cbcf9c3	0.023068314
167	0xbc9bd69c	-0.019023232
168	0xbdefad00	-0.11702919
169	0x3dc2c63b	0.09510466
170	0x3e2b4e89	0.16729178
171	0x3ca5403b	0.020172229
172	0xbbb0039f	-0.0053715254
173	0x3b9ac701	0.00472343
174	0x3c7d6a09	0.015467175
175	0x3d28f75a	0.041251518
176	0xbde36a95	-0.11104313
177	0xbd4aa256	-0.049471222
178	0xbe39cff7	-0.18145739
179	0x3de6c66c	0.11268315
180	0x3dd767e0	0.105178595
181	0xbe335ba6	-0.1751543
182	0xbe54069c	-0.20705646
183	0xbc908943	-0.017643576
184	0x3d133509	0.03593925
185	0x3e2aefa8	0.16692984
186	0xbd8fc542	-0.07020046
187	0x3d79dfd6	0.061004482
188	0x3e0b9504	0.13631064
189	0x3e08f9de	0.13376567
190	0x3e4984ab	0.19679515
191	0x3e98de50	0.2985711
192	0x3d309c61	0.043117885
193	0x3d38f096	0.045151316
194	0xbb418a15	-0.0029531766
195	0x3dbb6252	0.091496125
196	0xbe5e3f00	-0.2170372
197	0x3dc51fba	0.09625192
198	0xbc2b0f48	-0.010440655
199	0xbe677a40	-0.22605228
200	0x3e37f44f	0.1796429
201	0xbe064c5a	-0.13115063
202	0x3d5eb96c	0.05437605
203	0xbe0293f3	-0.1275175
204	0x3e092daa	0.13396326
205	0x3d26e057	0.04074129
206	0xbe7158df	-0.23569058
207	0x3dbb4be9	0.09145338
208	0xbd39fc98	-0.045406908
209	0xbeae3393	-0.34023723
210	0xbddea395	-0.108710445
211	0xbe1f4915	-0.15555222
212	0xbdc2c6a3	-0.09510543
213	0xbd5c63d6	-0.05380615
214	0x3d99f00f	0.07516491
215	0xbcdcf8f4	-0.026974179
216	0xbd8baafb	-0.06819721
217	0x3dc9b8de	0.09849714
218	0x3d29d3f4	0.0414619
219	0x3e19aa7e	0.15006444
220	0xbc8e8065	-0.017395208
221	0xba2140eb	-0.0006151336
222	0xbdc13aab	-0.09435018
223	0xbe572ce7	-0.21013223
224	0x3ca6b070	0.020347804
225	0x3bc86ec8	0.006116722
226	0x3dead539	0.1146645
227	0x3dfcefb2	0.12350406
228	0xbd9b25d6	-0.07575576
229	0xbe49360d	-0.19649525
230	0x3c625e3e	0.013816414
231	0xbe180ca1	-0.14848568
232	0xbd2165d3	-0.039403748
233	0xbda5fddb	-0.0810506
234	0x3e2ca6c0	0.16860485
235	0x3e28a968	0.16470873
236	0x3e82f8ef	0.25580546
237	0xbdff8658	-0.12476796
238	0xbde07257	-0.109593086
239	0x3e8f06b1	0.27934793
240	0x3ce45622	0.027873103
241	0x3aa1ba2c	0.0012338809
242	0xbe63cdf3	-0.22246532
243	0x3da8ea13	0.08247771
244	0x3dedbbd2	0.116080895
245	0x3e21a737	0.15786444
246	0xbd6940c7	-0.056946542
247	0xbe40add7	-0.18816315
248	0x3daca74d	0.084303476
249	0xbcd89fa9	-0.02644332
250	0xbe106135	-0.14099582
251	0xbd777189	-0.06041101
252	0x3e95db12	0.292687
253	0x3e513275	0.20429404
254	0x3eaa7c2b	0.33297858
255	0xbe3643d4	-0.17799312

conv2.bias f4 [32]
0	0x3aaf386e	0.0013368258
1	0xbd88635b	-0.066595756
2	0xbe7252be	-0.23664376
3	0xbe0d1be9	-0.13780178
4	0x3c8d69cf	0.017262368
5	0xbd2ce5b8	-0.042211264
6	0xbe3901ff	-0.18067168
7	0xbe73974f	-0.23788188
8	0x3d67414d	0.05645876
9	0xbdb74e18	-0.08950442
10	0xbdba120b	-0.09085473
11	0xbe35bb70	-0.17747283
12	0xbdbc58f3	-0.09196653
13	0xbdd85709	-0.10563476
14	0xbd90e1de	-0.07074331
15	0xbd8c8cc4	-0.068627864
16	0xbdbf61e0	-0.0934484
17	0xbda55919	-0.08073635
18	0xbe541813	-0.20712309
19	0xbe33804b	-0.17529409
20	0xbd3c4c73	-0.045971345
21	0xbe3658ba	-0.17807284
22	0xbe17c5ab	-0.14821498
23	0xbe4778ab	-0.19479625
24	0xbe60dcd3	-0.21959238
25	0x3daa592a	0.08317788
26	0xbdf881e2	-0.12134148
27	0x3d522a69	0.051309977
28	0xbe45f1bb	-0.19330494
29	0x3d2f246a	0.042759337
30	0xbda2072b	-0.079115234
31	0xbd881430	-0.066444755

fc1.weight f4 [10, 1568]
0	0x3d68d956	0.056847893
1	0xbbe7c247	-0.00707272
2	0xbcc7bc7c	-0.024381869
3	0xbc335286	-0.010944968
4	0xbda93d5b	-0.08263656
5	0xbd2c0bf2	-0.04200358
6	0x3c787217	0.01516392
7	0x3cb74527	0.022371842
8	0xbcd8ab08	-0.026448742
9	0xbd41d93f	-0.047326323
10	0xbd5db0be	-0.054123633
11	0xbd81bf4d	-0.06335316
12	0x3bf17d50	0.0073696747
13	0x3aff70ee	0.0019488612
14	0xbdc3dd0f	-0.09563648
15	0x3c52280d	0.012826932
16	0x3da8cd81	0.08242322
17	0x3d79a500	0.060948372
18	0xbddf01bb	-0.10889002
19	0xbe71727b	-0.23578827
20	0xbe10dc83	-0.14146619
21	0xbd37293b	-0.044717055
22	0x3dfcbab7	0.123403005
23	0x3dbee1f1	0.09320439
24	0xbe9113e7	-0.28335497
25	0xbda0ec24	-0.0785754
26	0xbbbeecb4	-0.005826557
27	0xbdeccc88	-0.11562449
28	0x3d588b22	0.052867062
29	0xbdb89f9a	-0.090148166
30	0xbd0b39d4	-0.033990696
31	0x3c9b9ab3	0.018994665
32	0x3da1bfb1	0.0789789
33	0x3d00482f	0.03131884
34	0xbe6c7c36	-0.23094258
35	0xbc207f37	-0.009795955
36	0xbe3e06c0	-0.18557262
37	0xbcf34f09	-0.029700773
38	0xbd6cfdd8	-0.05785927
39	0x3b2d1543	0.0026410378
40	0x3e422ff2	0.18963602
41	0x3d890a10	0.066913724
42	0x3c3a9e74	0.011390317
43	0xbea149dd	-0.31501666
44	0xbeeb36e6	-0.45940322
45	0xbe60f46c	-0.2196824
46	0xbd22df67	-0.039763834
47	0x3c352d7b	0.011058207
48	0x3b99fbfd	0.004699229
49	0xbd0a9637	-0.033834662
50	0xbd942fe8	-0.072357
51	0xbc7e0c6e	-0.015505893
52	0xbd89e706	-0.06733517
53	0x3c74e4bd	0.014947114
54	0xbbc9e453	-0.0061612516
55	0xbd58a591	-0.05289227
56	0xbd196c40	-0.03745675
57	0x3d312c81	0.043255333
58	0xbd801894	-0.06254688
59	0x3bedcc19	0.0072569964
60	0x3d287a0a	0.04113201
61	0x3cfd2f0d	0.030906225
62	0x3dab6cc3	0.08370354
63	0x3c938c0b	0.018011114
64	0xbce8ff1b	-0.028441956
65	0x3bc58bd6	0.0060286326
66	0x3c9d62aa	0.019212086
67	0x3daa63a2	0.08319785
68	0x3d278372	0.04089684
69	0x3d996acd	0.07491074
70	0xbd57a189	-0.052644286
71	0xbe751da3	-0.23937087
72	0xbd800a20	-0.06251931
73	0xbe50d720	-0.20394564
74	0xbe69a4cf	-0.22816776
75	0xbd8764ed	-0.06611047
76	0x3d89128c	0.06692991
77	0xbe449da0	-0.19200754
78	0xbe3ac567	-0.18239366
79	0x3c3f919f	0.011692434
80	0x3d2b7b7f	0.041865822
81	0x3c13307e	0.008983729
82	0xbdc617d4	-0.096725136
83	0xbd34dd67	-0.04415646
84	0xbe0ea1a7	-0.13928853
85	0xbc928539	-0.017885791
86	0xbc00b2be	-0.007855115
87	0x3ca0f59c	0.019648366
88	0xbe1c62b8	-0.15272033
89	0xbe0fd47a	-0.14045897
90	0xbc31165a	-0.010808552
91	0x3c56f9a8	0.013121046
92	0x3c9f5e3a	0.01945411
93	0xbbd06ae7	-0.0063604
94	0xbe4de8c1	-0.2010832
95	0xbea1eecb	-0.31627497
96	0xbe1ad50f	-0.15120338
97	0x3a36ef05	0.0006978366
98	0xbd063c31	-0.032772247
99	0xbd8be0cf	-0.06829988
100	0x3d0ed74a	0.034873284
101	0x3cbf4719	0.023349332
102	0xbc168c0a	-0.009188661
103	0xbb502003	-0.0031757362
104	0x3ad75a70	0.0016430151
105	0xbd4ea506	-0.050450347
106	0xbc5856c0	-0.013204277
107	0xbd02435f	-0.03180253
108	0x3d844331	0.06458128
109	0x3d819a50	0.06328261
110	0x3d2af554	0.04173787
111	0xbd5ce0ce	-0.053925328
112	0x3c0ad423	0.008473429
113	0x3bef692f	0.00730624
114	0xbceecfc2	-0.029151801
115	0xbd3df55f	-0.046376582
116	0x3d3c50c3	0.045975458
117	0x3d47f28f	0.048815306
118	0xbd46cfc6	-0.048537992
119	0x3d5a4a6b	0.053293627
120	0x3e01a54d	0.12660713
121	0x3c004eda	0.0078313
122	0x3c939def	0.018019645
123	0xbe498459	-0.19679393
124	0x3c29e77f	0.010370134
125	0xbd714351	-0.05890209
126	0x3d3a4b48	0.04548195
127	0x3d984edf	0.074369185
128	0x3c5a2b5f	0.013316005
129	0xbe1c1360	-0.15241766
130	0xbc5a0327	-0.013306416
131	0x3d3659d1	0.04451925
132	0xbcfccde7	-0.0308599
133	0xbd49eaf7	-0.049296346
134	0xbcab904e	-0.020942833
135	0x3d945a4d	0.07243786
136	0x3d60fa7e	0.054926388
137	0xba84412b	-0.0010090222
138	0x3d295599	0.041341398
139	0xbc0618cc	-0.008184623
140	0x3d08fae3	0.03344239
141	0x3d51aa96	0.051188074
142	0xbd6fbb2f	-0.05852812
143	0x3cfa4ab0	0.030553192
144	0x3cfc676d	0.030811036
145	0xbc496cbd	-0.012293992
146	0xbd08c917	-0.0333949
147	0xbd4536d4	-0.04814799
148	0x3c634920	0.013872415
149	0x3cf8d8e5	0.03037686
150	0x3d36e04f	0.04464751
151	0x3da80408	0.08203894
152	0xbc784725	-0.015153681
153	0x3cf992d8	0.030465528
154	0xbaee9036	-0.0018200937
155	0xbdfcf183	-0.12350752
156	0xbe86467c	-0.2622565
157	0xbcba1005	-0.022712717
158	0x3d5dbc00	0.05413437
159	0xbb89491a	-0.0041896226
160	0xbdc5e051	-0.096619256
161	0x3d192778	0.037391156
162	0xbd7956af	-0.060873684
163	0xbc20de75	-0.009818663
164	0x3d9fa32d	0.07794795
165	0x3bca48a2	0.0061732093
166	0x3c0bc36d	0.00853048
167	0xbdbcca8b	-0.092183195
168	0xbb43dd6b	-0.0029886614
169	0xbe066ba4	-0.13126999
170	0xbe34e497	-0.17665325
171	0xbd6fb441	-0.058521513
172	0xbd4c1dd8	-0.04983315
173	0xbcf824d7	-0.030291004
174	0xbdd16bec	-0.102256626
175	0x3cd0132f	0.025399772
176	0x3cbf7332	0.02337036
177	0x3d28133e	0.041033976
178	0xbe248d0c	-0.1606943
179	0x3d543773	0.051810693
180	0x3c803825	0.015651772
181	0xbbb8e659	-0.005642694
182	0x3d63bd7b	0.055600625
183	0xbb45cc9c	-0.003018177
184	0x3d484c56	0.048900925
185	0x3cb92aa5	0.022603342
186	0xbc92c887	-0.017917885
187	0xbca736a8	-0.020411804
188	0xbc1f524a	-0.009724209
189	0x3cd52709	0.02601959
190	0xbb801547	-0.0039087865
191	0x3cb33107	0.021873964
192	0x3ca8f795	0.020625869
193	0xbb71bd68	-0.0036886577
194	0xbda66636	-0.08124964
195	0xbd77fddd	-0.060544837
196	0x3c6397fc	0.013891216
197	0x3c604a85	0.013689642
198	0x3d7b7805	0.061393756
199	0xbccbadc8	-0.024863139
200	0x3d6f0719	0.05835638
201	0x3c802bd0	0.015645891
202	0x3cb248da	0.021763254
203	0x3c6ffc79	0.0146475965
204	0x3d2a77eb	0.04161827
205	0xbc78ac29	-0.015177765
206	0x3e53a2cf	0.20667575
207	0xbd60ded8	-0.05490002
208	0xbc900335	-0.017579654
209	0xbc6860e6	-0.014183259
210	0x3d29ebfb	0.041484814
211	0xbd052326	-0.032504223
212	0x3d111594	0.03542097
213	0xbd80364c	-0.06260356
214	0xbd79f88d	-0.061028052
215	0xbe30ba7a	-0.17258635
216	0xbcd6250d	-0.026140714
217	0xbd18fa74	-0.037348226
218	0xbe54a42b	-0.2076575
219	0xbe3d97ff	-0.18515013
220	0xbd854543	-0.06507351
221	0xbd935218	-0.071933925
222	0xbe21eefc	-0.15813822
223	0xbcb09a25	-0.021557877
224	0xbc4aebf5	-0.012385358
225	0xbe40c907	-0.18826686
226	0xbe874e4b	-0.2642692
227	0xbe155257	-0.14582191
228	0x3d67418a	0.056458987
229	0x3d884a54	0.06654802
230	0x3ca594fe	0.020212647
231	0x3cb0dae3	0.021588748
232	0xbd9d0a6f	-0.07668006
233	0xbcfc4460	-0.030794322
234	0x3dc5e148	0.096621096
235	0x3d8a58d1	0.06755222
236	0x3d01418e	0.03155666
237	0xbc1640ef	-0.009170755
238	0x3d870f5d	0.06594727
239	0xbcb8825c	-0.022523098
240	0xbd2269d3	-0.039651703
241	0x3b86f202	0.004118205
242	0xbb9e2e7c	-0.0048273187
243	0x3ca71221	0.020394387
244	0x3bb1a466	0.005421209
245	0xbd3549a1	-0.04425967
246	0xbd35d355	-0.044390995
247	0xbc772415	-0.015084286
248	0xbc9ddc5e	-0.019270118
249	0xbca649c7	-0.020298852
250	0xbd9d1ccb	-0.076715074
251	0xbcd3276f	-0.02577564
252	0x3c9e4fff	0.019325254
253	0x3cc27330	0.023736566
254	0xbd7dd849	-0.061973844
255	0x3c6059b3	0.013693261

fc1.bias f4 [10]
0	0x3d213115	0.03935345
1	0x3dafcbce	0.085837945
2	0xbc686526	-0.014184272
3	0xbd08e612	-0.033422537
4	0xbd5f3b53	-0.054499935
5	0x3bd8a22b	0.006611129
6	0xbc5c45a4	-0.013444338
7	0xbc501163	-0.012699458
8	0x3c952238	0.018204793
9	0x3c1747a0	0.009233385
