checkpoints/epoch=1.checkpoint.pth.tar (torch, 52232 bytes, 4 tensors)

conv1.weight f4 [32, 1, 5, 5]
0	0xbe21e521	-0.15810062
1	0x3ddb418f	0.10705864
2	0x3e49de55	0.19713719
3	0x3d912524	0.07087162
4	0xbc208a9a	-0.00979867
5	0xbe02f151	-0.12787367
6	0x3e4e1942	0.20126823
7	0x3e4c1197	0.19928585
8	0xbd54f77b	-0.05199383
9	0xbe37f3fb	-0.17964165
10	0xbd438a03	-0.04773904
11	0x3e810b97	0.25204155
12	0x3daf4b6c	0.085593075
13	0x3d86f414	0.06589523
14	0xbe8e7bb3	-0.2782875
15	0x3e27954b	0.16365544
16	0x3dd92477	0.10602658
17	0xbcac1d94	-0.021010198
18	0xbd262a76	-0.040567838
19	0xbe2d6d4e	-0.16936228
20	0x3d984907	0.07435804
21	0x3d30f2e4	0.04320039
22	0x3df14197	0.117800884
23	0x3e5ed8e5	0.21762426
24	0x3dd5abde	0.10433172
25	0xbe743a56	-0.23850378
26	0xbe83eab0	-0.2576499
27	0xbdf5fecc	-0.12011489
28	0xbcc0f9a1	-0.023556532
29	0x3c943c3b	0.018095126
30	0xbd9c6f5c	-0.076384276
31	0xbd0eb00b	-0.034835856
32	0xbd928449	-0.07154138
33	0x3d810c47	0.0630117
34	0x3bb5b866	0.0055456636
35	0xbe471df8	-0.19445026
36	0xbdfca93b	-0.12336966
37	0x3c6b8197	0.014374158
38	0x3d989a6d	0.074513294
39	0x3db61410	0.08890545
40	0xbe4230f1	-0.18963982
41	0xbd9e3d53	-0.077265404
42	0x3e2988cd	0.16556092
43	0x3e0c904f	0.13726924
44	0xbd30b6ff	-0.04314327
45	0xbe720dc2	-0.2363806
46	0xbe292ac1	-0.16520216
47	0x3e24b6d5	0.1608537
48	0xbb1ac3c9	-0.0023615232
49	0x3e0fcf28	0.14043868
50	0xbd801962	-0.062548414
51	0x3c34bb95	0.011031051
52	0x3e0336f2	0.12813929
53	0x3d91bd7e	0.07116221
54	0xbd12e072	-0.03585858
55	0x3d45bf36	0.048278056
56	0x3cc8b523	0.024500435
57	0x3cd4d688	0.025981203
58	0x3e6b3300	0.22968674
59	0x3e06c707	0.1316186
60	0x3e858887	0.26080725
61	0x3e5727d5	0.21011288
62	0x3e725898	0.23666608
63	0xbd82712b	-0.06369241
64	0xbdceeee7	-0.10104161
65	0x3e8e42a5	0.2778522
66	0x3b4d526e	0.003132965
67	0xb9a00ebd	-0.0003052856
68	0xbdca429d	-0.09875987
69	0x3d29f7a4	0.041495934
70	0x3e1d16e2	0.1534076
71	0xbe3386f5	-0.17531951
72	0xbd445169	-0.0479292
73	0xbc223df5	-0.009902467
74	0xbdf5778d	-0.11985693
75	0x3d6d1d3d	0.057889212
76	0x3e4efd2e	0.20213768
77	0x3d5398b1	0.05165929
78	0x3e3ab6a4	0.18233734
79	0x3e34721e	0.17621657
80	0x3dafeab5	0.08589689
81	0x3e5ab793	0.2135909
82	0x3e7e401c	0.24829143
83	0x3e6aad23	0.22917609
84	0x3eb6e7b4	0.3572365
85	0x3dc8041b	0.09766408
86	0x3e1a50e6	0.15069923
87	0x3e8c5d06	0.2741472
88	0x3daa61fb	0.083194695
89	0x3e8fcb8a	0.28084975
90	0xbdb6f7c4	-0.08933976
91	0xbe456538	-0.19276893
92	0xbe2fd134	-0.17169648
93	0xbe17ffc6	-0.14843664
94	0x3e63b485	0.22236831
95	0xbec86b3a	-0.39144307
96	0xbeb37b68	-0.3505509
97	0xbef0fdc1	-0.470686
98	0xbed8a3bb	-0.42312416
99	0xbe83e3c4	-0.2575971
100	0x3ea0cfb4	0.31408465
101	0x3e80bb5d	0.25142947
102	0x3ebf9c20	0.374238
103	0x3ecc0e68	0.3985474
104	0x3e99a6b0	0.30009985
105	0x3e51b6b4	0.20479852
106	0x3eabe1ba	0.33570653
107	0x3e15274e	0.14565775
108	0x3db8e44f	0.090279214
109	0x3e801c2f	0.25021502
110	0xbd088342	-0.033328302
111	0xbdaf8ff6	-0.0857238
112	0x3e2dde73	0.16979389
113	0x3d133c28	0.03594604
114	0x3e197593	0.14986257
115	0xbed99033	-0.42492828
116	0xbe393a6a	-0.1808869
117	0xbe900f7f	-0.28136823
118	0xbe77f515	-0.24214585
119	0xbe5b454d	-0.21413155
120	0xbef35ba3	-0.4753085
121	0xbe88f9d3	-0.267531
122	0xbee51ce9	-0.4474862
123	0xbe72ae50	-0.23699307
124	0xbe4f77e1	-0.20260574
125	0xbcbc2eea	-0.02297159
126	0x3df93dfd	0.121700265
127	0x3e906216	0.28199834
128	0x3dda36fb	0.10655018
129	0xbcc891e9	-0.024483638
130	0xbe32cf64	-0.17461926
131	0x3e440fb7	0.1914662
132	0x3e1fbc74	0.15599233
133	0x3d4c28cb	0.04984359
134	0xbe855efd	-0.26049033
135	0x3dc192bf	0.09451818
136	0x3e95846b	0.2920259
137	0x3e405662	0.18782952
138	0xbbd5c503	-0.00652373
139	0xbe8cb93f	-0.27485082
140	0x3c9a304d	0.01882186
141	0xbb0989ea	-0.0020986744
142	0x3e187182	0.1488705
143	0xbc460e1c	-0.012088325
144	0xbd423ae1	-0.047419433
145	0x3d8ee3b9	0.069770284
146	0x3dc1b859	0.0945899
147	0x3e6226de	0.22085139
148	0x3e8686ed	0.26274815
149	0xbdbcbbea	-0.09215529
150	0xbd5f3128	-0.05449024
151	0xbe8d18b7	-0.27557918
152	0xbdee97d0	-0.1165005
153	0xbbb3f8ba	-0.005492297
154	0x3e14df6b	0.14538352
155	0xbdf17f5d	-0.11791871
156	0xbe9f5cb3	-0.3112541
157	0xbe40ba63	-0.18821101
158	0x3e70af3a	0.23504344
159	0x3e93cde7	0.2886803
160	0xbe877dd5	-0.2646319
161	0xbe899212	-0.26869255
162	0x3d7163ec	0.058933184
163	0x3e90c3b0	0.28274298
164	0x3d5ecaa9	0.05439249
165	0xbe8a5ead	-0.27025357
166	0xbdcb2a87	-0.09920221
167	0xbd569e51	-0.052397076
168	0x3e84e981	0.259594
169	0x3e25597a	0.16147414
170	0xbe92541b	-0.28579792
171	0x3dc33e0c	0.09533319
172	0x3df6fa81	0.120594986
173	0x3e96822f	0.29396197
174	0x3db32c06	0.08748631
175	0x3eaee244	0.34157002
176	0x3ecf2463	0.40457448
177	0x3ec1f508	0.37882257
178	0x3e354d73	0.17705326
179	0x3e058c85	0.13041885
180	0x3e0f0005	0.13964851
181	0x3e8e6fd2	0.27819687
182	0x3d057543	0.032582533
183	0xbd88a001	-0.06671143
184	0xbe40ce95	-0.18828805
185	0xbe22a7e2	-0.15884355
186	0xbdbb98ce	-0.091600046
187	0xbe8165b2	-0.252729
188	0xbe3dbad5	-0.18528302
189	0xbedfa92d	-0.43683758
190	0xbecd4d06	-0.40097827
191	0xbea71a46	-0.32637233
192	0xbececb4e	-0.40389484
193	0xbebdae14	-0.37046874
194	0xbe7427e3	-0.2384334
195	0xbed544ec	-0.41654146
196	0xbec47841	-0.38372996
197	0xbe48536c	-0.19563073
198	0xbdb96831	-0.09053076
199	0x3d7d8933	0.06189842
200	0xbd82a8b0	-0.06379831
201	0xbcf8ad62	-0.030356113
202	0xbe09fec1	-0.13476087
203	0xbbd5c32a	-0.0065235095
204	0x3e5b2f9c	0.2140488
205	0xbdcd8d2b	-0.10036691
206	0xbe5548dd	-0.20828576
207	0x3c56ab91	0.013102428
208	0x3e39b544	0.18135554
209	0x3d958e15	0.073024906
210	0xbe42a28e	-0.19007322
211	0xbe8c858e	-0.27445644
212	0xbe1e1862	-0.15438989
213	0x3e19a630	0.15004802
214	0x3e5d8534	0.21632844
215	0xbe90c739	-0.28276995
216	0xbe39df85	-0.18151672
217	0x3dbd993d	0.092577435
218	0x3e29fe28	0.16600859
219	0x3e93daba	0.28877813
220	0xbe23944c	-0.1597454
221	0xbdf13bc5	-0.11778978
222	0x3e192561	0.14955665
223	0x3e80f524	0.25187027
224	0x3d816aca	0.063191965
225	0x3e603583	0.21895413
226	0xbd00753c	-0.031361803
227	0xbdabdd4b	-0.08391818
228	0xbe728e7d	-0.23687167
229	0xbeb66daa	-0.35630542
230	0xbe704eff	-0.23467635
231	0xbeb917f9	-0.36151102
232	0xbe81a539	-0.25321367
233	0xbeaa951e	-0.33316892
234	0x39d9e789	0.00041561972
235	0xbe87c5de	-0.26518148
236	0xbeb8dec8	-0.3610747
237	0xbe61dc49	-0.22056688
238	0xbc49b93b	-0.012312229
239	0x3e8e5fdb	0.27807507
240	0x3d12e90e	0.03586679
241	0x3e4dcfe6	0.20098838
242	0x3e9dc857	0.3081691
243	0x3ecf1572	0.4044605
244	0x3dbe0ffe	0.09280394
245	0x3ec1d3fc	0.37857044
246	0x3f00e094	0.5034268
247	0x3ea79178	0.3272817
248	0x3e1fe20a	0.15613571
249	0x3da01b22	0.07817675
250	0x3d959ee2	0.07305695
251	0xbceb6f69	-0.028739648
252	0x3e244d5d	0.16045137
253	0xbd3b4299	-0.04571781
254	0xbe2c71fd	-0.16840358
255	0xbbe1c61c	-0.0068900716

conv1.bias f4 [32]
0	0x3d0be2cf	0.03415185
1	0x3e071b3b	0.13193981
2	0xbc0fed3f	-0.008784591
3	0x3dca7724	0.098860055
4	0xba7c0adb	-0.00096146547
5	0xbd28a4c9	-0.041172776
6	0xbc30619c	-0.010765459
7	0x3e88bc4e	0.26706165
8	0xbbd48368	-0.0064853914
9	0xba19a0c9	-0.00058604457
10	0xbcdb256d	-0.026751244
11	0xbdbe46c5	-0.09290842
12	0x3e1e4bbc	0.15458578
13	0xba79cb4b	-0.0009528889
14	0x3e1d39db	0.15354101
15	0x3d2a2d3f	0.041547056
16	0xbe5329c4	-0.20621401
17	0xbb8a071f	-0.0042122747
18	0xbdcfc350	-0.10144675
19	0x3e180ae7	0.14847909
20	0xbd3641ee	-0.04449647
21	0xbd24bc54	-0.040218666
22	0x3e51d7c0	0.20492458
23	0xbc21a06a	-0.009864906
24	0xbdc01354	-0.093786865
25	0xbd79a4b1	-0.060948078
26	0x3e13ab50	0.1442082
27	0xbdc24b11	-0.09486974
28	0xbe1a2ff9	-0.15057363
29	0xbb716b28	-0.0036837552
30	0x3dec8473	0.115487
31	0xbb397269	-0.0028296954

fc1.weight f4 [10, 1152]
0	0xbbba50fe	-0.0056859246
1	0xbc5608b3	-0.0130635975
2	0xbac0a6e1	-0.0014698171
3	0x3c42ae94	0.011882443
4	0x3acbabba	0.0015538849
5	0xbbfca210	-0.007709749
6	0xbb45e878	-0.0030198377
7	0xbceef4a0	-0.02916938
8	0x3ba68ff2	0.0050830776
9	0xbb34a4eb	-0.002756412
10	0x3d2bc3a3	0.04193462
11	0xbc2bc3d0	-0.010483697
12	0x3b851c2d	0.0040621967
13	0x3ca8df85	0.020614395
14	0x3c013a07	0.00788737
15	0xbca47e75	-0.02007983
16	0x3c3cc254	0.011520941
17	0x3cfc7916	0.030819457
18	0xbc1b67b3	-0.009485173
19	0x3ba785a0	0.005112365
20	0x3d72ac97	0.059246626
21	0xbd732e6f	-0.059370454
22	0xbceecda8	-0.029150799
23	0x3b51287e	0.0031915004
24	0xbca4e1c9	-0.020127194
25	0x3cca7468	0.02471371
26	0x3d9b5d4d	0.07586155
27	0xbd38ba4f	-0.045099553
28	0xbc0c6ded	-0.00857113
29	0x3c18935f	0.00931248
30	0x3bb4cc94	0.0055175517
31	0xba838242	-0.0010033327
32	0x3d4af439	0.049549315
33	0xbc354c00	-0.011065483
34	0xbbbbd139	-0.0057317284
35	0xbc98b9f7	-0.018643362
36	0xbb4ab322	-0.0030929525
37	0xba7de0bb	-0.00096846715
38	0x3c9591df	0.018258033
39	0xbc5a5a5f	-0.01332721
40	0x3b778547	0.0037768648
41	0x3bc27b8f	0.0059351395
42	0xbb1475a6	-0.0022653132
43	0x3ca80b5f	0.020513235
44	0xbd2f5b63	-0.042811763
45	0x3ca2abda	0.019857336
46	0x3ce9c4ab	0.028536161
47	0xbc17d510	-0.009267107
48	0xbbef17d9	-0.007296544
49	0x3cd0f895	0.025509158
50	0x3b89d33f	0.0042060907
51	0xbc2edc99	-0.010672712
52	0xbc653923	-0.013990673
53	0x3d0ddf49	0.03463677
54	0xbc1822a4	-0.009285603
55	0x3ca408dd	0.020023758
56	0x3c4dde3f	0.012565195
57	0xbcc66035	-0.024215797
58	0x3ca45f0e	0.020064857
59	0x3d8b67d6	0.068069145
60	0xbc018aa7	-0.007906592
61	0xbcd46abe	-0.025929805
62	0x3bdae90e	0.0066806143
63	0x3c28e2d2	0.010307984
64	0x3d0e295a	0.034707405
65	0x3c494fc9	0.012287089
66	0xbc838b37	-0.016057594
67	0xbc25d4e6	-0.01012156
68	0xbcd21704	-0.02564574
69	0xbd6d4bfb	-0.05793379
70	0xbd1f3cbd	-0.038876284
71	0xbbb3f1c7	-0.0054914686
72	0x355f3d9e	8.316364e-07
73	0xbb4f5139	-0.0031634106
74	0xbc2aceab	-0.01042525
75	0xbc42b0e2	-0.011882992
76	0xbd43a4a5	-0.04776444
77	0xbd1aec55	-0.03782304
78	0xbabe90f9	-0.0014539055
79	0xbca67162	-0.020317737
80	0x3a77b925	0.0009449891
81	0xbd37195b	-0.044701915
82	0xbcfd9a7d	-0.030957455
83	0x3c6eb47a	0.014569396
84	0x390b6cf2	0.00013296658
85	0xbc69c5c1	-0.01426834
86	0xbbb2b328	-0.005453486
87	0x3c74e62b	0.014947454
88	0xbd143fdf	-0.036193725
89	0x3cd05bb1	0.025434347
90	0xbc45df0b	-0.012077103
91	0x3c80048b	0.015627166
92	0x3dac266a	0.084057644
93	0xbd09e33f	-0.033663984
94	0xbde24bf3	-0.110496424
95	0x3baec5dd	0.0053336457
96	0xbcacd066	-0.021095466
97	0x3bbf16b0	0.005831562
98	0x3ce8bc5d	0.028410131
99	0xbda07475	-0.078347124
100	0x3c4c8f91	0.012485401
101	0x3d19b5f3	0.037527036
102	0x3ad5a645	0.0016300163
103	0xbd19ddc8	-0.037565023
104	0x3d048975	0.03235765
105	0x3d08a4f5	0.03336044
106	0xbabaa1c6	-0.0014238886
107	0xbc393cee	-0.011306031
108	0xba0b9f39	-0.0005326155
109	0x3b1e7000	0.0024175644
110	0xbc13af5e	-0.009013979
111	0x3bfe48b8	0.0077601336
112	0x3cb21584	0.021738775
113	0x3bfe1518	0.0077539794
114	0xbbd67246	-0.006544384
115	0xbce416df	-0.027842937
116	0xbd599dca	-0.053128995
117	0x3c95c821	0.018283905
118	0xbccef53f	-0.025263427
119	0xbc38966d	-0.011266333
120	0x3c1b286a	0.009470085
121	0xbd578acd	-0.052622605
122	0xbd956843	-0.07295277
123	0x3d0bf803	0.03417207
124	0x3c1e1a3d	0.00964981
125	0xbd76b262	-0.060228713
126	0x3d0b8259	0.034059856
127	0xbd93bb0b	-0.0721341
128	0xbddcbbc5	-0.10778002
129	0xbda80e85	-0.082058944
130	0xbd405354	-0.046954468
131	0x3ca24ca6	0.01981194
132	0xbaa8201f	-0.0012826956
133	0x3c8bec16	0.017080348
134	0xbce77975	-0.028256157
135	0xbd946e40	-0.07247591
136	0x3c8906b3	0.016726827
137	0xbbf4981e	-0.007464423
138	0x3c4bf781	0.012449146
139	0xbc8e3148	-0.017357484
140	0x3d594d58	0.053052276
141	0x3d6ee648	0.058325082
142	0xba8ccc4f	-0.0010742041
143	0xbb520873	-0.0032048493
144	0xb74807ee	-1.1922775e-05
145	0x3bff4622	0.007790343
146	0x3c5b5ce2	0.013388844
147	0x3cba7ff6	0.022766095
148	0x3c1ccdaa	0.0095705185
149	0xbaa34413	-0.0012456201
150	0xbaaa9637	-0.0013014738
151	0xbd8262c0	-0.06366491
152	0xbd975a32	-0.0739025
153	0xbcd12340	-0.025529504
154	0xbd3c5729	-0.04598156
155	0xbce9868f	-0.028506545
156	0x3c35bcfa	0.011092419
157	0xbd6f7d08	-0.05846885
158	0xbd9c6089	-0.076356
159	0x3c7bc2ad	0.015366239
160	0x3d00ab82	0.031413563
161	0xbd6dbd71	-0.058041994
162	0xbcb51c39	-0.022108184
163	0xbde2f015	-0.11080948
164	0xbda3748b	-0.07981213
165	0xbde927e7	-0.11384564
166	0xbe1251db	-0.14289038
167	0x3cacc8fc	0.02109193
168	0xbd41d393	-0.047320914
169	0xbd36c5f4	-0.044622377
170	0xbd8a629f	-0.06757092
171	0xbdbbacfa	-0.09163852
172	0xbce9d218	-0.028542563
173	0x3c323257	0.01087626
174	0xbc608f54	-0.013706047
175	0xbc2e5ef5	-0.010642757
176	0x3d2b58c7	0.04183271
177	0x3d9fbbe9	0.07799513
178	0x3d02d593	0.03194196
179	0x3c01485e	0.007890789
180	0xb9e85b32	-0.00044318434
181	0xbc907222	-0.017632548
182	0xbc98692a	-0.018604834
183	0xba99292c	-0.0011685244
184	0x3cc8d631	0.024516197
185	0x3c5fd33d	0.013661203
186	0xba973245	-0.0011535367
187	0xbc69b595	-0.014264484
188	0xbace681b	-0.0015747579
189	0x3c973ce0	0.018461645
190	0x3c2f63d0	0.0107049495
191	0x3c82fad8	0.015988752
192	0xbbaee7dc	-0.0053376984
193	0x3ca19774	0.019725539
194	0x3c429e06	0.011878496
195	0xbc5221f7	-0.012825481
196	0x3cc2899d	0.02374726
197	0x3cee3846	0.029079568
198	0xbc9f7623	-0.019465512
199	0x3c2a0ad0	0.010378554
200	0x3dae6931	0.085161574
201	0xbdb3a44b	-0.08771571
202	0xbd0e1a96	-0.034693323
203	0x3d0782e0	0.033083797
204	0xbc8e80a3	-0.017395323
205	0xbb294ee5	-0.0025834378
206	0x3da03542	0.07822658
207	0xbd97fdba	-0.074214414
208	0x3b935de3	0.004497276
209	0x3bb923c7	0.005650017
210	0xb86d3240	-5.6552002e-05
211	0x3cdfd1de	0.027321752
212	0x3cdc0ca0	0.026861489
213	0x3b502392	0.0031759483
214	0xbd67fe4f	-0.056639012
215	0xbcf2b00a	-0.029624958
216	0xbc28806a	-0.010284523
217	0xbae484be	-0.001743458
218	0x3bbfa9d2	0.0058491016
219	0xbcd59890	-0.026073724
220	0xbc4b36e8	-0.012403227
221	0x3c541a4e	0.012945725
222	0xbc1fda81	-0.009756685
223	0xbb1f40c7	-0.0024300085
224	0xbc9bf169	-0.019036012
225	0x3bef4287	0.007301632
226	0x3ba0a6b4	0.004902685
227	0xbd07b701	-0.03313351
228	0xbd11428f	-0.035463866
229	0xbae91793	-0.0017783515
230	0x3d2bd54a	0.041951455
231	0xbd0e386f	-0.034721788
232	0x3c1d69ec	0.009607773
233	0x3d3e84e2	0.046513446
234	0x3c6645c0	0.014054716
235	0x3d886c9e	0.06661342
236	0x3cd15f8e	0.02555826
237	0xbd07a9ba	-0.03312085
238	0x3d91a399	0.07111282
239	0x3dcbaccf	0.0994507
240	0x3d222e2e	0.03959482
241	0x3d1d2ce3	0.038372885
242	0x3d68f252	0.05687172
243	0x3c3ee070	0.01165019
244	0xbbd7f9dc	-0.006591065
245	0x3d928bf7	0.071556024
246	0xbba32da9	-0.0049798083
247	0xbd22f119	-0.03978071
248	0x3b6d0dc6	0.003617154
249	0xbdbcfc35	-0.09227792
250	0xbdb13365	-0.08652381
251	0xbcc1e323	-0.023667878
252	0xba9f1d29	-0.0012139428
253	0xbc9774e7	-0.01848836
254	0xbc17db8e	-0.0092686545
255	0x3bac9171	0.0052663614

fc1.bias f4 [10]
0	0x3c8b29ca	0.0169877
1	0x3c9c1315	0.019052068
2	0x3b10b2b9	0.0022079183
3	0xbd27956d	-0.040913988
4	0xbc666597	-0.014062307
5	0x3d64b2d6	0.055834614
6	0xbd1c1b95	-0.03811224
7	0x392fad60	0.00016753888
8	0xbd322f2d	-0.04350202
9	0xbc63fb38	-0.013914876
