checkpoints/epoch=15.checkpoint.pth.tar (torch, 55248 bytes, 4 tensors)

conv1.weight f4 [32, 1, 5, 5]
000000 9e 4f 88 be a0 8a 44 bd 9c f4 80 3e 7d ac 0e 3e
       -0.26623243 -0.047983766 0.25186622 0.13932987
000010 ca 31 09 bd 3e 45 90 be 2a c7 6d 3e 18 e1 be 3e
       -0.03349475 -0.28177828 0.23220506 0.37281108
000020 3a f1 8a bd aa 3b 5d be b1 fe a7 bd b4 35 b4 3e
       -0.067842916 -0.21604791 -0.082028754 0.35197222
000030 f9 f0 2b 3e 02 0a 61 be 19 ca 4b be 22 6c c5 3d
       0.16791143 -0.21976474 -0.19901313 0.09639765
000040 80 ac 34 3e 59 82 9a bd 04 1b 31 be f6 29 ba bd
       0.17643929 -0.07544393 -0.17295462 -0.09090035
000050 f4 25 ee 3d 09 7b 09 bb 90 30 c4 bd 16 e2 ca bc
       0.11628333 -0.0020977876 -0.09579575 -0.02476601
000060 ea 7a c1 3c 48 75 37 be 29 7f 11 be d9 2e 79 be
       0.02361818 -0.17915833 -0.14208664 -0.24334277
000070 2e fa b8 be c8 c5 5c be 85 7b 17 be 65 e4 4e be
       -0.36128372 -0.21559823 -0.14793213 -0.20204313
000080 06 93 83 be 9e 0a dd bd 47 74 0a 3e 6a 3d 5a be
       -0.25698107 -0.10793041 0.13520919 -0.2131249
000090 19 3a 33 be e1 47 71 bd b1 78 1c 3e cc 5b 90 3e
       -0.17502631 -0.05890644 0.15280415 0.28195035
0000a0 66 6f 9e be f0 32 16 be bf 38 14 3e 29 c9 80 3e
       -0.30944365 -0.14667869 0.14474772 0.25153473
0000b0 a4 55 1f 3e 42 ab 98 be c2 8f 29 be 1b de 26 3e
       0.15560013 -0.2981816 -0.16558746 0.16295664
0000c0 2d a6 3c 3e d8 b9 2b 3e 05 51 14 be 2f b5 b7 bd
       0.18422766 0.16770113 -0.14484031 -0.08970105
0000d0 01 24 c7 3d 6f f8 7f 3e 0e 88 6e 3e ca 2f 46 be
       0.09723664 0.24997114 0.23294088 -0.19354168
0000e0 e1 98 df 3d f1 af 82 3e 42 a6 5c 3e fb f4 0a bd
       0.10917831 0.25524858 0.21547797 -0.033925038
0000f0 6a eb 31 3e 76 90 c9 3e de e9 a3 3e ec 5d 34 bd
       0.1737496 0.39368027 0.32014364 -0.044034883
000100 e9 36 5e be 68 a9 e7 3e 07 91 59 3e ce 91 c0 bd
       -0.21700634 0.45246434 0.2124673 -0.0940281
000110 1b 6a 20 be 92 ac b6 bd 08 14 30 3e b3 2c 87 be
       -0.15665476 -0.08919634 0.17195141 -0.2640129
000120 2d 2d 8e be 92 fb e5 bd 4d 1a 59 bd a5 fc c0 3d
       -0.2776884 -0.11229624 -0.053003598 0.09423188
000130 12 3c af 3d 11 3f 52 bc bb 3f 4a bd 0c 69 c6 bd
       0.085563794 -0.012832419 -0.049377184 -0.09688005
000140 8a 83 54 3e 7b d4 8c 3e d5 bc 96 3e 6e 50 a1 3e
       0.20753303 0.2750586 0.29440942 0.31506675
000150 b0 4d 9c 3e e6 96 85 3d 98 c4 50 3e b5 e2 97 3e
       0.3052802 0.06522922 0.20387495 0.2966515
000160 51 ea 8a 3e bb 41 9e 3e 36 d7 5d be 04 6f 27 be
       0.27131894 0.30909523 -0.21664128 -0.16350943
000170 8b d5 30 be dd f0 eb bd 9a ca e2 3d 93 ab b0 be
       -0.1726896 -0.115205504 0.110737994 -0.345059
000180 a1 7c b5 be 5c 4c d8 be e7 ed d6 be f2 e9 82 be
       -0.35446647 -0.42245758 -0.4197838 -0.2556911
000190 96 3b 6d 3e 66 d6 67 3e 74 33 71 3e 4b 49 8e 3e
       0.23167261 0.2264038 0.23554784 0.27790293
0001a0 16 bb 9d 3e b2 e6 8a 3e fc 0f ab 3e a3 ec 81 3e
       0.30806798 0.27129132 0.33410633 0.25375852
0001b0 3a c3 75 3e 94 4e aa 3e db 99 16 bd d2 40 b1 3d
       0.24000254 0.33263075 -0.03676782 0.086549416
0001c0 60 4f 48 3e 11 e1 81 3d e3 0f 47 3d dc 24 9a be
       0.19561529 0.06341756 0.048599135 -0.30106246
0001d0 4a f1 5c be 47 07 68 be ba d5 69 be 02 28 54 be
       -0.2157642 -0.22659026 -0.22835436 -0.20718387
0001e0 ee 5a 9d be 02 66 bf be 92 d8 e0 be 93 2c ae be
       -0.30733436 -0.37382513 -0.4391523 -0.34018382
0001f0 cd 26 64 be 2e 5d 95 bd 08 23 fe 3d 9b c3 80 3e
       -0.22280426 -0.07293163 0.124090254 0.25149235
000200 17 7a c5 3d 73 ff 2d be c7 4f 33 be 51 e6 0a 3e
       0.096424274 -0.16991977 -0.17510901 0.13564421
000210 c1 47 8d 3e 0b 22 b3 3c 3a ba b7 be 01 64 46 be
       0.27593806 0.021866819 -0.35884267 -0.19374086
000220 0b 39 2b 3e 13 d0 98 3e 4c d7 be 3c ac f5 97 be
       0.16720979 0.29846248 0.02329602 -0.2967962
000230 f4 30 39 be ab ff a5 3d 4d ce 73 3e b9 92 48 3d
       -0.1808508 0.081054054 0.23809166 0.04896805
000240 cd 43 4f be 25 4c 02 be a9 9a 95 3d 32 5a 4f 3e
       -0.20240708 -0.1272436 0.0730489 0.2024925
000250 c0 90 18 3e fd bb c7 bd 6e f0 2e be b7 89 42 be
       0.14898968 -0.09752653 -0.17083904 -0.18997847
000260 b1 91 62 be 2a 25 0f be 71 51 0f 3e d5 8b 31 be
       -0.2212589 -0.1397902 0.13995911 -0.17338498
000270 a5 04 40 be cd 85 16 be cb c2 b5 3d 1d e5 8d 3e
       -0.18751772 -0.14699478 0.088750444 0.27713862
000280 6f d9 26 be 70 01 27 be ed a5 0e bd 14 c4 69 3e
       -0.16293882 -0.16309142 -0.034826208 0.22828704
000290 c6 d9 3f 3e 9e 64 5c be 96 e0 3e be cb da 37 3d
       0.18735418 -0.21522757 -0.1864036 0.04488639
0002a0 d2 a5 79 3e 92 df 0c 3e 29 b1 52 be ca a6 15 be
       0.24379662 0.1375716 -0.20575394 -0.14614406
0002b0 a3 3f d2 3d 14 2d 83 3e e7 48 83 3d ce 89 b6 3e
       0.10266044 0.2562033 0.064103894 0.35652012
0002c0 23 73 e2 3e 87 2d c0 3e 21 21 82 3e c0 db 34 3d
       0.44228467 0.37534735 0.254159 0.044154882
0002d0 0a d5 f3 3d 17 d4 5a 3e 38 d0 38 bc e2 f6 0b be
       0.11905868 0.21369968 -0.011280112 -0.13668397
0002e0 2d 8f cc be a9 74 72 be 43 a7 35 be c1 28 8c be
       -0.39952984 -0.23677315 -0.17739587 -0.27374843
0002f0 95 9e a3 be 81 52 be be d0 7d dd be 00 7c 96 be
       -0.31956926 -0.3717232 -0.4326005 -0.2939148
000300 d5 4e ad be 2f 44 75 be 17 7d 3c be 1a b6 c6 be
       -0.33849207 -0.23951791 -0.18407093 -0.38810807
000310 64 8f 88 be 81 b0 6c be d6 24 3d bd 70 97 63 3d
       -0.26671898 -0.23114206 -0.046177708 0.055564344
000320 b5 69 0e bc df f2 5e bc b7 ba e5 bc 3e e0 4f bb
       -0.008692195 -0.01360771 -0.028043134 -0.0031719352
000330 c7 81 18 3e 1a 0e e9 bd c8 28 dd bd c0 e0 cf bd
       0.14893256 -0.11379643 -0.10798794 -0.101502895
000340 c5 88 19 bc a4 37 30 3e 13 a9 04 be e7 d7 26 be
       -0.009370987 0.17208725 -0.12955122 -0.16293298
000350 5b b8 38 be 38 e6 61 3d a4 6a 79 3e cf a7 2b be
       -0.18039076 0.055151194 0.24357086 -0.16763233
000360 29 44 60 be 1f 6e 8d bd 26 d0 69 3e 2b ce 77 3e
       -0.21901001 -0.069057696 0.22833309 0.2419974
000370 04 29 27 be b1 56 23 be 60 4f b5 3d cb 3f 8d 3e
       -0.1632424 -0.15951039 0.0885303 0.27587733
000380 96 a7 89 3d 68 17 96 3e 16 ab 42 3e 9a 7b d6 bc
       0.067214176 0.29314733 0.19010577 -0.026181985
000390 a4 59 59 be 35 eb c2 be 4d 06 56 be 3d 46 d4 be
       -0.21225601 -0.38070074 -0.20900841 -0.41459838
0003a0 2b f0 ea be 4c 26 b4 be a9 f7 11 be dd 54 ee be
       -0.4588636 -0.35185468 -0.14254631 -0.4654912
0003b0 70 3a 0d bf 4d 77 83 be 5c b6 c3 3b a5 bc a2 3e
       -0.55167294 -0.25676957 0.0059726667 0.3178455
0003c0 d4 16 5a bd e6 33 19 3e 4b 72 d5 3e 90 7d e6 3e
       -0.053244427 0.14961204 0.4168876 0.45017672
0003d0 71 15 64 3e 86 dd 06 3f fe 54 22 3f fd c6 ce 3e
       0.22273804 0.5268177 0.6341094 0.4038619
0003e0 09 55 bb 3d 5a 16 1c bd d2 da 86 3b 65 c2 0e 3c
       0.091470785 -0.038107254 0.004115441 0.008713339
0003f0 6c dc 34 3c 7d ee 36 bd be 42 01 be 7f 39 e4 3d
       0.011038881 -0.044661034 -0.12623116 0.11143779

conv1.bias f4 [32]
000000 97 4f 0c be 37 8a c5 3d 14 dd 75 be 9c 9c 8c bb
       -0.13702236 0.09645503 -0.24010116 -0.00429113
000010 a8 91 8b bb 28 56 1f be 61 bd 65 bd 4b 1a b9 3e
       -0.004259307 -0.1556021 -0.05608881 0.36152872
000020 1b c9 a2 bd 11 5f 07 3a f0 86 d2 bd 88 b9 8f be
       -0.07948514 0.00051640073 -0.102796435 -0.28071237
000030 96 08 e4 3d 11 05 8f bb 94 24 9c bd 8a c7 34 bb
       0.1113445 -0.0043646176 -0.07624164 -0.0027584755
000040 78 ac a0 be 4c 1f d0 bd 1e 1f 6c be 7e 5e 02 3e
       -0.31381583 -0.101622194 -0.23058745 0.12731358
000050 6d d8 64 be e2 00 30 be 43 1e e5 3c 2d df f9 bd
       -0.22348185 -0.17187837 0.027968531 -0.122007705
000060 06 75 65 be 66 c7 44 be ad 4f eb bc 55 1a 54 be
       -0.22407922 -0.1921669 -0.028724516 -0.2071317
000070 c6 98 96 be b3 a6 ed bb 85 93 27 ba 47 72 53 bd
       -0.29413432 -0.007252538 -0.00063925266 -0.051622655

fc1.weight f4 [10, 1152]
000000 e6 c0 01 99 cd ef 85 bb 6e 06 9a bc f6 ee 9e bb
       -6.708099e-24 -0.0040874244 -0.018801894 -0.0048502637
000010 f8 b4 a6 bc ce f5 4d ba 05 1f 8c b6 1f 39 00 bc
       -0.020349964 -0.0007856757 -4.1759363e-06 -0.007826119
000020 5b 22 9f bc 1e 6b 92 bc f1 8f 71 bd 6c 7f 43 bd
       -0.019425562 -0.017873343 -0.058975164 -0.04772894
000030 02 17 35 b7 6a 8c 53 3c 71 1b 86 bc e7 68 f9 bb
       -1.0793798e-05 0.012911895 -0.016370507 -0.0076113823
000040 2b 72 90 bd e1 8e bb 3b 97 67 c1 b6 26 8e 9e 3d
       -0.07053026 0.0057238196 -5.7639077e-06 0.077419564
000050 e6 8a 9e 3d 3c 47 90 3d 5e ad 6f 3d 59 de b9 3a
       0.077413365 0.07044837 0.058514945 0.0014180645
000060 72 23 0f 39 f4 37 56 3d 1e 56 7f 3d 91 59 b3 3b
       0.00013650747 0.052299455 0.062337987 0.0054733236
000070 0e 68 99 3d 53 e3 8b 3d 70 1d 4b ba 46 91 fa 3c
       0.0749055 0.06830468 -0.0007748222 0.03058685
000080 8c 8e a3 bc 77 72 3d bc e7 bf e3 bc 33 f1 b3 bb
       -0.019965433 -0.011562935 -0.027801467 -0.0054913997
000090 a7 c0 72 bb af cc 91 bc c8 2e 07 3b 72 87 d9 3b
       -0.00370411 -0.017797796 0.002062725 0.006638461
0000a0 6a 5e 0f 3d 7f bc c7 3b b1 bf 17 3a 5b 1d 27 3c
       0.03500215 0.0060954685 0.0005788757 0.01019987
0000b0 38 c7 29 bd 30 cc 5b 3d ca e4 2f bc ba 51 bb 3b
       -0.041449755 0.053661525 -0.0107357 0.0057165297
0000c0 9f 3d 1b bc 8c 7f 03 3d 10 b1 aa 3c b0 69 7d 3c
       -0.009475141 0.03210406 0.020836383 0.015467092
0000d0 01 e5 6b bd 1a 36 11 3a 60 8d cf 3c a5 94 42 3d
       -0.057591442 0.0005539373 0.025335968 0.04750504
0000e0 e2 9d 08 3d 5d 0b d5 bc 56 96 c0 bc 98 8d ad 3c
       0.033353694 -0.026006395 -0.023509186 0.021185681
0000f0 f8 77 03 3d f3 fa 9a bd 4f 91 19 bc 21 e5 56 3d
       0.032096833 -0.07567396 -0.009373023 0.052464608
000100 fa c2 f8 3c 8b c5 42 3c 71 14 20 bc 9d b5 ca bc
       0.03036641 0.011887918 -0.009770499 -0.024744803
000110 ec cc 00 be 65 2b ed bc 72 07 ca bc 5d 63 69 bb
       -0.12578171 -0.028951356 -0.024661753 -0.0035612204
000120 a4 11 6a aa 8d 95 67 bb 5c e3 cc bc 5a 76 d3 bb
       -2.0789495e-13 -0.0035336942 -0.025010757 -0.0064533176
000130 98 92 22 bd b3 23 85 ba 3d 97 a8 b6 cd 2e 9e bb
       -0.039690584 -0.0010157734 -5.0243966e-06 -0.0048273564
000140 dc 47 b4 3c a5 9b 90 bd 8f 7b c7 bd 71 7e 34 bd
       0.022006921 -0.07060937 -0.09740364 -0.044065896
000150 53 5f 40 b9 9e 6f 0a 3d 61 fb 4b bc ba be e9 3c
       -0.00018346058 0.033797853 -0.01245007 0.028533328
000160 b0 04 19 be 33 05 1b bd 73 e5 67 bb 67 b8 9d 3d
       -0.14943194 -0.037846755 -0.0035384565 0.077011876
000170 0a 64 9d 3d 77 bb bd bb 09 a2 15 bd 13 ac 02 3b
       0.076850966 -0.00579017 -0.036531482 0.001993899
000180 51 73 dd bb cf e0 7f 3c 84 e0 35 3c d7 86 d2 bc
       -0.0067581316 0.015617563 0.011100892 -0.025699062
000190 33 da be 3d 4d 93 90 3d 67 75 91 b9 77 ef a9 bc
       0.09318962 0.070593454 -0.00027744027 -0.020744069
0001a0 c6 f0 8c bc 61 6b 19 3d 13 84 65 bb ea cf 14 3c
       -0.017204653 0.03745592 -0.003502135 0.009082774
0001b0 5a f3 25 3a 9d 27 d8 bb f8 16 ab bc fe ac af bb
       0.00063305127 -0.006596519 -0.020884976 -0.0053611984
0001c0 c0 6f 0f bb 1d 17 fd b9 ed 4c 2e 3c c4 87 00 bd
       -0.0021886677 -0.0004827314 0.010638458 -0.031379476
0001d0 3b a0 9f bd 2a f1 0b 3d 1e a6 28 3d 1c 4d 1b bc
       -0.077942334 0.03416554 0.041174047 -0.0094788335
0001e0 c0 a1 db 3b ab 91 e0 bc 5c c1 8d bd 1f a5 e8 3c
       0.0067026317 -0.02741321 -0.06921646 0.028399048
0001f0 31 52 59 bc 16 3d e1 bc e9 03 d5 bb 45 b2 c8 bd
       -0.013264225 -0.027494948 -0.0065007103 -0.09799627
000200 b5 66 04 be 30 7c 81 bd 99 85 a1 bd a9 92 1b 3d
       -0.12929805 -0.06322515 -0.0788681 0.037981663
000210 c3 39 64 3b 58 cf f7 bc a3 fa 7c bd e5 88 e6 bc
       0.0034824468 -0.030250236 -0.061762463 -0.028141448
000220 2f 84 ba bb 1b 2c 87 bc 76 00 79 3c b1 d8 90 bc
       -0.005692027 -0.016500523 0.015197864 -0.017681452
000230 e4 99 92 3d 97 be d3 3d 94 19 63 bc 96 e7 90 bc
       0.071582586 0.103390865 -0.013861079 -0.017688554
000240 7c 4a f9 32 f0 c3 87 38 a0 38 22 bb 3a 69 c1 b9
       2.9021287e-08 6.473798e-05 -0.002475299 -0.00036890229
000250 9f 00 8b ba 5b 7e cc b9 cd aa 12 bb 0c 30 0e bd
       -0.0010605043 -0.00039004054 -0.0022379637 -0.03471379
000260 d9 ab d0 bd 0c a1 aa 3c 47 48 93 3a 1e 0c 20 bd
       -0.10189027 0.020828746 0.001123675 -0.039074056
000270 8f d8 04 3c f1 84 dd bc 05 e7 49 bc 68 d8 7a 3d
       0.008108272 -0.02704093 -0.012323146 0.061241537
000280 0d f8 4d 3c 5a 91 97 bd dd 72 55 bc 2b e5 eb bd
       0.012571347 -0.074007705 -0.013027874 -0.1151832
000290 05 b7 f5 bd 6c 86 38 bd db a6 01 be 48 52 5f 3c
       -0.11997799 -0.04505007 -0.12661307 0.013630457
0002a0 fa d2 1c bc 54 ec a1 bd 78 13 43 bd 0b 69 a2 bc
       -0.009571785 -0.07906404 -0.04762599 -0.019825479
0002b0 a3 f1 da bb 44 06 db 3c c4 01 01 bb 3a 1f 27 bd
       -0.0066816374 0.026736386 -0.001968489 -0.040801264
0002c0 1c e5 83 3d d8 ce fb 3d fe b7 93 3c ee f5 77 3b
       0.064401835 0.12295312 0.01803207 0.0037835795
0002d0 be a6 2f b7 6f d1 69 ba 73 65 e0 bc f1 30 90 bb
       -1.04696355e-05 -0.00089194527 -0.027392125 -0.0044003655
0002e0 e8 43 61 ba b4 65 8f bb da 61 18 36 7f 77 85 bc
       -0.00085931877 -0.0043761376 2.2706722e-06 -0.016292332
0002f0 3c 8e 07 bd 37 4d 95 bd ca 21 7e bb 0a 17 d6 3c
       -0.03309463 -0.07290118 -0.0038777464 0.026134033
000300 14 45 5c bb f2 e5 3c 3c 31 58 11 bd ee 75 12 bd
       -0.003361051 0.011529433 -0.035484497 -0.035756998
000310 5d 22 4b 3d 67 73 7d 3d 51 0e 1c bb a1 32 16 3d
       0.04959332 0.061877634 -0.0023812244 0.036669377
000320 36 98 ca 3d 17 58 2a bc 72 a7 6f 3d a4 7b a9 3d
       0.09892313 -0.010396979 0.058509298 0.08275536
000330 06 ae f2 3a fc 6b 93 3d db 78 f1 3d 25 9a 88 bd
       0.0018514998 0.07198331 0.117906295 -0.06670026
000340 70 ed 7f bb 62 a2 4c 3d 9e 83 79 ba 7c 32 9f 3d
       -0.0039051436 0.049959548 -0.00095182087 0.07773301
000350 01 f4 54 3d 37 97 ea bd fa fe ef bd e4 ca 3e bd
       0.051990513 -0.11454623 -0.11718555 -0.04658021
000360 85 f4 6e bb 55 47 6b bc 86 16 88 bc 92 47 1e bc
       -0.0036461663 -0.014360269 -0.016612303 -0.009660618
000370 39 f1 8b 3c d0 7f ae 3b 77 bb 86 bb aa a0 04 bc
       0.017082797 0.005325295 -0.004111703 -0.008094946
000380 44 7b 4c bd 90 d3 5d 3c f7 0a 54 bc 79 5c cb bb
       -0.049922243 0.01353921 -0.012942067 -0.006206092
000390 2b 88 ba bc 3e 65 68 3c c0 76 d5 3c 97 48 d6 bb
       -0.022770008 0.014184294 0.026057601 -0.006539415
0003a0 f9 6a c4 bc 28 88 96 3c ff 0b 90 3c c2 06 b6 3d
       -0.02397679 0.018375471 0.017583845 0.08888008
0003b0 72 6d 8d 3d 02 fa 99 bc 51 49 87 3d 97 ff 8b 3d
       0.06905641 -0.01879597 0.06605781 0.06835859
0003c0 cd 7d 74 3d 3e 38 7a 3c a9 d8 f2 3c fc bf 07 3d
       0.059690285 0.015272198 0.029644327 0.033142075
0003d0 69 df 76 3c 00 77 0b 3d 7e d4 41 3c 32 c2 a6 bb
       0.015067914 0.034049034 0.011830447 -0.005089068
0003e0 e6 a1 a8 bd 54 95 c6 bd 47 3d ae bd 56 b8 b7 bc
       -0.08234005 -0.09696451 -0.085077815 -0.022426765
0003f0 2e c5 1c 3c 73 e0 f3 3b 3f 6e a9 3c 33 48 bd 3c
       0.009568496 0.007442528 0.020682452 0.023105716

fc1.bias f4 [10]
000000 b6 f6 cd 3c 14 89 00 3e 46 a8 a7 3c 8c de 9e bd
       0.025142055 0.12552291 0.020465981 -0.07757291
000010 42 df 6e bd d1 92 a6 3d c6 23 20 bd ae cd 10 3d
       -0.058318384 0.08133472 -0.039096616 0.0353524
000020 24 50 c3 bd 8c b2 a3 bc
       -0.0953677 -0.019982599
