checkpoints/epoch=11.checkpoint.pth.tar (torch, 75240 bytes, 6 tensors)

conv1.weight f4 [8, 1, 3, 3]
00000000: f6f7 a43e 0aea df3e ac2a d33e 530d e43d
00000010: c108 d33d ca44 a53e d5e4 4abf ca18 7dbb
00000020: 88d4 55be bd87 d8bd f0fc 913e a2c2 1b3c
00000030: 81c7 33be ae95 0c3f 19c7 bd3c 82e3 dd3e
00000040: 1d87 a93e 84c4 9b3d 57f5 e73e 1da1 5e3d
00000050: 6f2f ecbe 501e bc3e 4f16 db3e 3c21 80be
00000060: de53 16be 286c fa3e aca6 003f 2471 05bf
00000070: 4a5c abbe 9376 df3e 000b ac3e c858 183f
00000080: 01aa e03e caeb 8e3d 3896 013e 2a18 433e
00000090: 5538 4b3e 1bb8 01bf 5160 7fbf d7aa 5a3f
000000a0: a673 113c 590f 63be ad4e dd3e 02b4 1b3f
000000b0: 1c75 1d3b d8b6 11be a43b fb3c 9aa5 d33e
000000c0: cac5 503f a5b2 1c3f e0b4 2abe a20c b63e
000000d0: 8938 f0be ba5d 41bf bb67 ec3e 30cd 0d3f
000000e0: 3a1d 173f 47db 033f 03c7 48bd 622b ffbd
000000f0: 9af1 36bf 7053 76bf cd72 f5be 015e d3be
00000100: c30f 44be ab51 123f af59 16bf c0a0 0cbe
00000110: 3ef9 bb3e b06e ecbe b30b 143e f60a 2c3f
0.3222043 0.43733245 0.41243494 0.11135354 0.10304404 0.32279044 -0.7925542 -0.0038619512
-0.20881855 -0.10572765 0.28513288 0.009506853 -0.17556573 0.54915893 0.023166226 0.43337637
0.33110896 0.07605842 0.45304367 0.05435287 -0.4612994 0.36741877 0.42790458 -0.25025356
-0.1468043 0.48910642 0.5025432 -0.52125764 -0.33468848 0.43645152 0.33602142 0.5951047
0.43879703 0.06978567 0.1265496 0.19052187 0.19845708 -0.5067155 -0.9975634 0.8541693
0.00887767 -0.22173823 0.43224087 0.60821545 0.0024026101 -0.14229906 0.030668087 0.4133728
0.815518 0.6121009 -0.16670561 0.35556513 -0.46918133 -0.7553364 0.4617289 0.55391216
0.5902897 0.51506466 -0.049017917 -0.124594465 -0.71462405 -0.96221066 -0.4793915 -0.41282657
-0.19146638 0.57155865 -0.58730596 -0.13733196 0.36713594 -0.46178198 0.14457588 0.67204225

conv1.bias f4 [8]
00000000: 4d9c 5dbd 7f2a 4bbe 507c f4be 79de 63be
00000010: a081 d4b7 f376 0abd 7a1b 3b3e e4df 81bb
-0.05410414 -0.1984043 -0.47751093 -0.22252835 -2.533273e-05 -0.033804845 0.182722 -0.0039634574

conv2.weight f4 [32, 8, 3, 3]
00000000: cc9a 00bf 164a 1abe 5f2a bbbe 1d39 93be
00000010: b5bf 8cbd 05f9 7f3e c05e 4e3d d267 943e
00000020: 7fdf 7e3e f375 02bf 48c3 92be 8e28 02bd
00000030: 664e 0dbe 0fe3 543e e871 7a3e 4495 213e
00000040: ea8d 993c cb73 58be 0357 e4be 1ee8 10bd
00000050: 2db9 3abd 7a9c 59bd 15b3 a4bb e39a b2bd
00000060: 4310 5ebe 054f 713d 523f 7bbd 4d0a 5dbe
00000070: 1a63 7fbe 76cc c03d 6947 89be 8e2f 123e
00000080: 1d18 a43e f3b4 583e 0fbc 883d b0c0 993a
00000090: 5672 e6bd f9df 12be a34d 183d 70a9 91be
000000a0: 115d 013d 4a33 0bbe 314e 913d 635a 26be
000000b0: 51fd d2be d991 01bf 2063 a8be ee46 b0be
000000c0: a668 acbe d415 f53d 2975 953e 17d2 d83e
000000d0: 5b60 e93e ccd9 0e3e b2c2 94bd 478d 223e
000000e0: 82da 9dbe 6af1 3bbe b436 debe 7ac5 8e3e
000000f0: e682 763d d7a0 d43e 3405 ac3e 1028 adbe
00000100: 95e1 45be f704 55bd fea5 d73e 02fb 633e
00000110: 3ffd b5be 9766 edbc 59cf 2bbe af2c 56be
00000120: e889 36be c202 6bbe e175 e6bc a372 333e
00000130: 69be dc3d 282f 97be ae2f 173e da50 583e
00000140: 9edf f53d ac58 6c3c f239 70be 2413 b0be
00000150: 76fd 1abe b398 a23d 1ec0 30be 6c76 d0bd
00000160: 93ef 283e 8844 f03d e21d 83be b3a2 82be
00000170: 2703 b7be bb84 1e3e 30fe 743e df59 d03c
00000180: b614 8cbe 5e62 4c3e 2c82 293e 4468 a7bd
00000190: 2bb4 62be 9606 debe 41f6 ba3d 8c60 1a3e
000001a0: b8c3 0fbe 9e8b 53bd 9a30 123e f6aa 9cbd
000001b0: 196f 913a 7f1c 6bbd e490 40be 5433 a83e
000001c0: 0482 cf3e 1312 ec3e 0a98 09bf f052 393e
000001d0: 8aec d63e 6cb2 a7be 6610 d5be 15d1 a2bd
000001e0: d305 4c3e cf09 933d a867 94be bebc f83d
000001f0: 94fd fd3d d1c9 ccbd d0a7 bf3d f717 153e
00000200: 485d f13d 9830 9bbd 3b79 1a3c 301e 75bd
00000210: f9ef b33e e3fb 463e 3301 92be b5bf 45bf
00000220: be8c 81be d001 bdbe fcd1 dcbe 45d5 dfbc
00000230: fa72 08bf a773 ed3c 8cf6 c8bc a446 29bd
00000240: 2425 48be 2b6a babd 8e68 4f3d 82f0 9e3d
00000250: eec6 0dbe 0cb9 093d f02b 85bd 88ea 353e
00000260: 4693 17be 4404 26bc ea7d d83d ccc9 f53d
00000270: ffbe afbc b003 e93d bf01 2bbe c032 13be
00000280: 082d 10be ae04 8dbb cde1 393c 401d 5abe
00000290: 9eef 49bd 05fe 0e3e 55a8 443d bedf ca3c
000002a0: 835d 41be 8812 1c3e 0446 a43e 8133 293d
000002b0: c552 303d 40a5 3a3d 309a fe3a 086f 833d
000002c0: 66c2 65be 47c0 1bbe f320 87be 8bc2 283e
000002d0: 1bc4 563e 1d43 93be 3494 98be ce3c a4bd
000002e0: f187 2abc acc2 1f3e ce1d cfbe ef9f 803d
000002f0: 6be2 903e 3a55 563e 7249 993e 081b d13e
00000300: 4347 80bc 3cdb 623d 28dd e0bc 03ec b43d
00000310: 3438 e3be 5fee 2f3c 9a2b c7bd 5792 b8be
00000320: cb63 a03e 2b67 60be b13b c73c ddc5 c5bd
00000330: 56aa 5e3e 3df3 cd3d 94a5 bcbe 67be cb3d
00000340: dfc9 4c3d b4d8 03bf b1ed 57be 119f e5be
00000350: 6556 b4be 3217 1bbe 8c61 ae3d f625 debd
00000360: 01a1 b0bd cf25 d63d 524b b23d cbae 163e
00000370: 04f4 0e3c 9b9f 0abc 6118 37be 87a2 84be
00000380: 6acb 893a 42bb 47bd 0b01 bc3d bdbd d43d
00000390: c6b5 b4bd c5a5 8fbe 50fe bbbc 36c8 7bbd
000003a0: 0125 4ebd 24fd debd 2962 203e 969e f63d
000003b0: 71de aa3e 6cd6 6abe 8384 45be 8ef8 c93e
000003c0: 7e16 7d3d 88c6 153d 5644 98be 64fc a43d
000003d0: ed65 423e a69d 2f3e 81c2 a5bd 9735 72be
000003e0: 900d 043d af43 943d 0726 8abd 1473 5ebd
000003f0: c271 d43e e846 783e d54f ee3e c105 85be
-0.502362 -0.15067324 -0.36555764 -0.2875451 -0.06872503 0.24997337 0.05038333 0.2898546
0.24889944 -0.50961226 -0.28664613 -0.031776957 -0.13799438 0.20789741 0.24457514 0.15779597
0.018744428 -0.21137922 -0.44597635 -0.035377614 -0.045586754 -0.053127743 -0.005026231 -0.087209485
-0.21685891 0.05891325 -0.061339684 -0.2158596 -0.24940148 0.09413998 -0.26812294 0.14275953
0.32049647 0.21162777 0.06676494 0.0011730399 -0.112522766 -0.14343251 0.037183415 -0.28449583
0.031582896 -0.13593784 0.07094992 -0.16245417 -0.4120889 -0.5061317 -0.32888126 -0.34429115
-0.3367359 0.11967054 0.2919095 0.42347786 0.45581326 0.1395027 -0.07263698 0.15874206
-0.3083077 -0.18353811 -0.4340111 0.27885038 0.06018343 0.4152896 0.3359772 -0.33819628
-0.19324334 -0.052006688 0.4211883 0.2226372 -0.35544774 -0.028979583 -0.16778316 -0.20915483
-0.17826045 -0.22950271 -0.02813238 0.17524199 0.10778505 -0.29528165 0.14764282 0.21124592
0.12005542 0.014425438 -0.23459604 -0.34389603 -0.1513575 0.07939281 -0.17260787 -0.10178837
0.1649764 0.11731821 -0.25608736 -0.25514755 -0.35744593 0.1548032 0.2392509 0.025433479
-0.2735955 0.19959399 0.16553563 -0.08174184 -0.22139041 -0.433644 0.091290005 0.15075892
-0.14039505 -0.05164682 0.14276353 -0.07649796 0.0011095732 -0.057400223 -0.18805271 0.3285166
0.40528882 0.4610754 -0.5374762 0.18098044 0.4197734 -0.32753313 -0.41614074 -0.079500355
0.19924097 0.07179605 -0.28985333 0.12145375 0.12401882 -0.09999431 0.093581796 0.14559923
0.1178537 -0.07577628 0.009428318 -0.059843242 0.35144022 0.19432025 -0.2851654 -0.77245647
-0.2530269 -0.36915445 -0.43128955 -0.027323375 -0.5330044 0.028985811 -0.024531625 -0.041327134
-0.19545418 -0.09102281 0.05063682 0.07760717 -0.13845417 0.03362374 -0.06502521 0.17765248
-0.14802274 -0.010132853 0.10570891 0.1200138 -0.021453379 0.113776565 -0.16699885 -0.14374828
-0.14079678 -0.0043035364 0.011345339 -0.2130022 -0.049300782 0.13964088 0.048012096 0.024764892
-0.18883328 0.15241444 0.32084668 0.041308884 0.043047685 0.04556775 0.0019424614 0.06417662
-0.22437438 -0.15210067 -0.26392326 0.16480462 0.20973246 -0.2876214 -0.2980057 -0.0801941
-0.0104083875 0.15601605 -0.40452427 0.06280505 0.28297743 0.20930949 0.29938847 0.40840936
-0.01565898 0.05538486 -0.027449206 0.08834078 -0.44378817 0.010737984 -0.09725113 -0.36049148
0.31326136 -0.21914355 0.024320455 -0.0965688 0.21744666 0.1005616 -0.36845076 0.09948426
0.049997207 -0.5150254 -0.21086766 -0.4484792 -0.35222164 -0.15145567 0.08514699 -0.10847084
-0.08624459 0.1045643 0.087057725 0.14715116 0.00872517 -0.0084609045 -0.17880394 -0.2590525
0.0010512893 -0.048762567 0.091798864 0.10387752 -0.08823733 -0.2805616 -0.022948414 -0.061470233
-0.05032826 -0.108881265 0.15662445 0.120419666 0.33372834 -0.22933358 -0.1928883 0.39447445
0.06178903 0.036566287 -0.29739636 0.08055952 0.18984194 0.17149982 -0.08093739 -0.23653255
0.032239497 0.07239472 -0.067455344 -0.054308966 0.4149304 0.24245799 0.46545282 -0.25980952

conv2.bias f4 [32]
00000000: dec0 76bd 1cb5 d6bd cace a3be bfb4 63be
00000010: d3a9 a0bd 0c4d cdbd 77d8 9dbe b911 94be
00000020: 0e4a 233d 218c 45bd f600 38be 3529 39be
00000030: 4e75 06be a428 ccbd f6c5 16be 251d 47bd
00000040: 3f24 23be c576 bcbd dfee 90be 2bf3 58be
00000050: 97a1 febc a8ac 8dbe abc5 17be 4ee3 8abe
00000060: d4da cfbe 646c 643d 19b1 56be 4584 483c
00000070: 2290 8abe 4b03 053e e84b 1cbe fa74 ffbd
-0.060242526 -0.104837626 -0.31993705 -0.22236918 -0.078448914 -0.10024461 -0.30829212 -0.2891977
0.039865546 -0.04822934 -0.17969117 -0.18082125 -0.13130686 -0.09968689 -0.14723954 -0.04861178
-0.15931796 -0.09202341 -0.28307244 -0.21186511 -0.031082911 -0.2767079 -0.14821498 -0.27126545
-0.4059664 0.05576743 -0.20965995 0.012238567 -0.2706309 0.12989537 -0.15263331 -0.124734834

fc1.weight f4 [10, 1568]
00000000: 2ee4 c53d 1a74 ab3c 6616 87bd 5be8 c0bd
00000010: caf7 52be 665e 4dbd 1827 e03c 5dcc 8a3d
00000020: 1b8c 093d ad25 d9bb 78fa 8dbd 5f4e cabd
00000030: 8d96 1b3e de8c 24bc 85ff 3abe 215a e43c
00000040: 75f4 2a3e 6a5d ca3d 64c7 46be 19ba dfbe
00000050: f0c3 c9be 699b c8bc 425a 2c3e cab8 a83d
00000060: 5e81 84be 232b 71bd 4f5d 403d b763 38be
00000070: 57d3 f03d fb8a eabd 38ea 64bd 4e68 c4bd
00000080: fcaf bb3d d1de 933d 805b e6be c319 b9bd
00000090: 12cc 85be ed26 0ebe 025f 4bbe 028c 7f3d
000000a0: 9d7f ae3e cb6a 8a3e 30c4 023e 4c9d 05bf
000000b0: 7f0d 62bf ad63 cdbe 9df6 3dbe f4ed d43b
000000c0: a378 f93c 86a0 afbd 0030 febd 83d3 2b3d
000000d0: 6ca7 e9bd fdfa ce3c 7bf0 9fbc 6cda 3bbd
000000e0: ca64 eabd 2a67 0f3e 15ed abbd d92e 943d
000000f0: c970 b73d 324c a23c b630 b83d 169f 653e
00000100: 73de 31be 31bd 36bd 379f f43d 4374 0f3e
00000110: aa40 4d3d a6a9 ff3d b0ce b6bc f441 01bf
00000120: fa85 07be d7eb e9be f250 8fbe c4c4 0ebe
00000130: 80f8 613c 474d 00bf 2a32 ffbd 2185 47bc
00000140: dda9 2c3c 29d6 f23d 9249 7ebe fd1a 14be
00000150: 0023 84be 86c8 623d e04b 81bd 21d5 6c3c
00000160: f912 c3be e502 57be 36ae 853c e080 a03c
00000170: 1c70 c73d ad56 5b3c 222a bebe e859 15bf
00000180: b22b 84be 6f5e 9d3d 490b 08be c854 5bbe
00000190: 7320 59bd b5de 1d3e a9bd b0bd cb65 043e
000001a0: cb59 983a 815e 10be d3ee 45bd 6f4d dbbd
000001b0: fb2e 2c3e c4c0 813d 533e 5e3e 579f 23be
000001c0: 8b71 7f3d 49a9 febb 74d6 a2bd 23aa b5bd
000001d0: 6bee ddbc 5fb6 4e3e d4f5 88bd bc7a 523d
000001e0: b2e1 903e 1181 7fbc 54b5 463e 3d12 fdbe
000001f0: 2ed2 1f3d a71d 21be 7f13 3c3e a3b7 053e
00000200: 3c33 71bd 9ba1 26be 9fd7 c5bc 53ed 6c3e
00000210: 6b8a 3abe dc3c 41be 6900 babb cfdc 543e
00000220: 2e60 203e a4ca 4a3d 2389 363d 607c 3cbd
00000230: 2f7a 143e c7aa 393e 826d 57be 2d32 023e
00000240: 89e4 a93d c593 d33d 6691 1fbd 022d adbd
00000250: 2cd4 2fbc 5e28 103e 65ea 263d 70d3 673e
00000260: 73cd 1cbd 1abb 093d 458f f4bc a893 54be
00000270: 8a36 d9be 2ece feba 4205 7ebd 503a b43c
00000280: a2f7 57bd dca3 793d 75b8 a6bd a6ab 69bc
00000290: aa42 283e 9529 53bd 6f41 003d 1278 85be
000002a0: 7590 5f3d 92bb 5cbe c2b5 4bbe b8c2 193d
000002b0: ac52 45bd 672d cfbd 08bd 73be 6896 513d
000002c0: df79 913d d5fe ba3d d1e9 2fbe 74fb d53d
000002d0: 7107 e0bd 9a7f e1bd 40da 7f3d 5161 4fbd
000002e0: 372a 333d d531 84bd 2172 86bd 6854 633d
000002f0: 6c13 72be 0bec 83bd 296d 3c3d e87d a7b9
00000300: d08a 21bc a832 873d a3fc 2fbe 02c6 41be
00000310: 31bf 8b3d b162 87bc e2d9 203e 6afc dfbd
00000320: 0e8e 49ba 2a8e 543e 3c3e c63c 2fe9 033c
00000330: 3533 173d d862 f13d 2b21 a23e 3574 c23d
00000340: 67a9 7a3d 50aa c63c edad bd3d 8a8b d4bd
00000350: c906 dd3d a5eb 0dbe 7147 61bc e793 5bbe
00000360: 36a0 37be 79f4 e7bd e6f7 96be dc58 15be
00000370: 675e 9f3b 5025 173c 9693 afbe ece8 80bd
00000380: 70b6 eabb 39db debe 9698 f7be 5a5d dcbd
00000390: 62e2 083d 7b43 843e 056d 1d3d b7a6 9c3d
000003a0: c0e6 e7bd 18c0 033b e0e9 373e df3b ca3d
000003b0: 54c8 033e b15b 58bd 1d6c e03d 2830 90bd
000003c0: b74e aabc 0518 313d e465 2c3c 9c1f 34bd
000003d0: d068 b0bd 0587 07bd ac24 c33c 863d cb3c
000003e0: 0172 0cbc 746e 40bd 2bb6 78be aace 573d
000003f0: 7250 713d 83e9 ae3c 2c25 46be 4b7c e43a
0.096626624 0.020929385 -0.06596069 -0.09419318 -0.20602337 -0.050138853 0.027362391 0.067772605
0.03358088 -0.0066268058 -0.06932539 -0.09878229 0.1519415 -0.010043351 -0.18261535 0.027875008
0.16694815 0.098810986 -0.19411999 -0.4369667 -0.394073 -0.024488168 0.16831306 0.08238371
-0.2587995 -0.05887903 0.046963986 -0.18006788 0.1175906 -0.1145229 -0.05588743 -0.09590207
0.09164426 0.07220233 -0.44991684 -0.09038117 -0.26132256 -0.13882037 -0.19860461 0.06238938
0.34081736 0.27034602 0.12770152 -0.5219314 -0.88301843 -0.4011511 -0.18551107 0.006498093
0.030453032 -0.08575539 -0.12411499 0.04194976 -0.11408886 0.025266165 -0.01952385 -0.0458626
-0.11445005 0.14004198 -0.08394829 0.07235498 0.08957059 0.019811723 0.08993666 0.22423968
-0.17370014 -0.04461402 0.1194443 0.14009194 0.050110497 0.1248353 -0.022315353 -0.5049126
-0.13234702 -0.45687744 -0.27991444 -0.13942248 0.013792157 -0.50117916 -0.1246074 -0.0121777365
0.010538545 0.11857254 -0.24832752 -0.1446342 -0.25807953 0.055367015 -0.063133 0.014455111
-0.38100412 -0.20997198 0.016318422 0.019592702 0.0973818 0.013387364 -0.3714152 -0.5834031
-0.25814587 0.076840274 -0.13285555 -0.2141906 -0.05300946 0.15416987 -0.08629925 0.12929456
0.001162344 -0.1409855 -0.048323464 -0.10708129 0.16814797 0.06335595 0.21703462 -0.15978752
0.062364142 -0.007771645 -0.0795106 -0.08870342 -0.027091226 0.20186757 -0.06687513 0.05138658
0.28297192 -0.015594737 0.19405109 -0.49427977 0.039018802 -0.15733968 0.18366812 0.13058333
-0.05888675 -0.16272585 -0.024150668 0.23137407 -0.18216865 -0.18870872 -0.0056763184 0.20787357
0.1566169 0.04950966 0.044564378 -0.04601705 0.14499734 0.18131553 -0.21037868 0.12714453
0.08295543 0.10330919 -0.038957022 -0.0845585 -0.010731738 0.14077899 0.04075088 0.22639251
-0.03828187 0.0336257 -0.029853472 -0.20759451 -0.42424423 -0.0019440108 -0.062016733 0.022000462
-0.052726395 0.060947284 -0.08140651 -0.014262116 0.1643168 -0.051553328 0.031312402 -0.2606817
0.054581124 -0.21555927 -0.19893554 0.037539214 -0.048174545 -0.10116082 -0.23802578 0.05116883
0.07103323 0.091306366 -0.17179038 0.104483515 -0.10938919 -0.11010666 0.062464 -0.050629918
0.04374143 -0.06454817 -0.06564737 0.055500418 -0.23640221 -0.06441506 0.04600254 -0.0003194653
-0.009859756 0.06601459 -0.17186217 -0.1892319 0.06823576 -0.016526552 0.15708116 -0.10936816
-0.00076887093 0.20757356 0.024199598 0.008051201 0.03691407 0.11786431 0.3166593 0.09494821
0.06119671 0.024251133 0.09261689 -0.103781775 0.1079231 -0.13859423 -0.013749943 -0.21443139
-0.1793221 -0.11325926 -0.29486006 -0.14584678 0.0048635486 0.009225205 -0.34292287 -0.06294426
-0.0071628615 -0.4352663 -0.483586 -0.10759993 0.03341902 0.25832734 0.038434047 0.07648986
-0.11323309 0.002010351 0.1796031 0.09874701 0.12869388 -0.05282182 0.10958121 -0.07040435
-0.020789487 0.043235797 0.0105223395 -0.043975458 -0.086137414 -0.03308775 0.023821197 0.02480961
-0.0085721025 -0.046980336 -0.24288242 0.052687325 0.05891461 0.021351581 -0.19350117 0.0017432062

fc1.bias f4 [10]
00000000: 36f3 a33d 919d 223e 5e95 57bb da35 8cbd
00000010: 7828 c4bd 4553 f0bb ac2f f5bc f2df edbc
00000020: 959c 113d b8d1 373c
0.08005373 0.1588042 -0.0032895426 -0.06846209 -0.09578031 -0.0073341453 -0.029929958 -0.02903745
0.03554972 0.011219434
