checkpoints/epoch=11.checkpoint.pth.tar (torch, 54288 bytes, 4 tensors)

conv1.weight f4 [32, 1, 5, 5]
0	0xbe855187	-0.26038763
1	0xbd3b1804	-0.0456772
2	0x3e63a7a6	0.22231922
3	0x3e060642	0.13088325
4	0xbce83a27	-0.028348042
5	0xbe89c266	-0.26906127
6	0x3e5b2675	0.21401389
7	0x3eaf534f	0.34243247
8	0xbd3e92e4	-0.046526805
9	0xbe53247d	-0.20619388
10	0xbdaa5e20	-0.08318734
11	0x3ea6c67e	0.32573313
12	0x3e284126	0.16431102
13	0xbe324c1e	-0.17411849
14	0xbe48f2de	-0.19623896
15	0x3db495a6	0.08817606
16	0x3e1a1cfd	0.1505012
17	0xbd8de863	-0.0692909
18	0xbe1f3062	-0.155458
19	0xbdb2fec8	-0.08740002
20	0x3dc6ae1f	0.0970118
21	0x3ad00662	0.0015871043
22	0xbd9661a1	-0.0734284
23	0xbc335a44	-0.010946814
24	0x3cf2d9cc	0.02964487
25	0xbe4366e4	-0.19082218
26	0xbe1bb3ba	-0.15205279
27	0xbe8131ad	-0.25233212
28	0xbeacf71c	-0.3378228
29	0xbe2759ac	-0.16342801
30	0xbe295570	-0.16536498
31	0xbe4975ca	-0.19673839
32	0xbe756bb8	-0.23966873
33	0xbd874e14	-0.06606689
34	0x3e0739ab	0.13205592
35	0xbe653822	-0.22384694
36	0xbe31a3a2	-0.17347577
37	0xbd5146b9	-0.051092837
38	0x3e25d16a	0.16193166
39	0x3e8349bd	0.25642195
40	0xbe9bd3be	-0.30434984
41	0xbe0ee2ef	-0.13953756
42	0x3e19c733	0.15017395
43	0x3e7ac6dd	0.24489923
44	0x3dfd5e2d	0.12371478
45	0xbe943fdd	-0.28954974
46	0xbe29266b	-0.16518562
47	0x3e2cf67d	0.16890903
48	0x3e29dc43	0.1658793
49	0x3e2dcd39	0.16972817
50	0xbe06c61d	-0.13161512
51	0xbda955da	-0.08268328
52	0x3db1485e	0.08656381
53	0x3e5b923f	0.21442507
54	0x3e516fa4	0.20452744
55	0xbe39684e	-0.18106195
56	0x3db4d2bf	0.08829259
57	0x3e6137a1	0.21993877
58	0x3e57be70	0.2106874
59	0xbc2fa8ed	-0.010721427
60	0x3e2d9c6f	0.16954206
61	0x3eba62de	0.36403555
62	0x3e9e88ed	0.3096384
63	0xbd2e4c87	-0.04255345
64	0xbe523e98	-0.2053169
65	0x3ed50e40	0.41612434
66	0x3e39cdf5	0.18144973
67	0xbda50823	-0.080581926
68	0xbe21be77	-0.15795313
69	0xbdb89c3b	-0.090141736
70	0x3e1fddaf	0.1561191
71	0xbe82edd3	-0.2557207
72	0xbe867464	-0.26260674
73	0xbdf216eb	-0.118207775
74	0xbd834048	-0.06408745
75	0x3d9bc345	0.07605604
76	0x3dcabd4e	0.09899388
77	0xb8cba40c	-9.7103504e-05
78	0xbc6b8084	-0.014373902
79	0xbd666648	-0.056249887
80	0x3e39f396	0.18159327
81	0x3e88170f	0.26580092
82	0x3e958137	0.29200146
83	0x3e9bbf28	0.30419278
84	0x3ea14aba	0.31502324
85	0x3dbbb8be	0.09166096
86	0x3e59304f	0.21209835
87	0x3e9cf6dc	0.3065709
88	0x3e831c8a	0.2560771
89	0x3ea5c114	0.3237387
90	0xbe31fb19	-0.17380942
91	0xbe2d0abc	-0.16898626
92	0xbe3112f3	-0.17292385
93	0xbded76de	-0.11594938
94	0x3e10b76e	0.14132473
95	0xbebb5dd3	-0.3659502
96	0xbec0cd4d	-0.37656632
97	0xbee5b302	-0.44863135
98	0xbedf5894	-0.43622267
99	0xbe83340c	-0.25625646
100	0x3e7aff0f	0.2451136
101	0x3e785820	0.24252367
102	0x3e8b2180	0.27173996
103	0x3e9acdcc	0.30235136
104	0x3e9d4fa7	0.30724832
105	0x3e856bfc	0.26058948
106	0x3eb03d8e	0.34421962
107	0x3e70b863	0.23507838
108	0x3e514eb5	0.2044018
109	0x3ea6c792	0.32574135
110	0xbd16fa82	-0.036859997
111	0x3d8586f7	0.06519883
112	0x3e4b1e78	0.19835842
113	0x3d8d9711	0.06913579
114	0x3daaf624	0.08347729
115	0xbea78ac9	-0.32723072
116	0xbe61a805	-0.2203675
117	0xbe70ac59	-0.23503245
118	0xbe6b33d8	-0.22968996
119	0xbe5c887f	-0.21536444
120	0xbeafefa4	-0.3436252
121	0xbebcdf29	-0.36889008
122	0xbee66297	-0.44997093
123	0xbeaf44a2	-0.3423205
124	0xbe687ecc	-0.22704619
125	0xbda0c7ad	-0.07850585
126	0x3ddb014a	0.10693605
127	0x3e8092e7	0.25112078
128	0x3de3db42	0.111258045
129	0xbe0b18b8	-0.13583648
130	0xbe3351bd	-0.1751165
131	0x3e1a370c	0.15060061
132	0x3e86edf5	0.26353422
133	0x3d29f5d4	0.041494206
134	0xbeacc076	-0.33740586
135	0xbe16c1d2	-0.14722374
136	0x3e44c956	0.19217429
137	0x3e8f1c55	0.27951303
138	0x3cbc066f	0.022952287
139	0xbe92155d	-0.28531924
140	0xbe124e15	-0.14287598
141	0x3d88eed9	0.066861816
142	0x3e5a2e31	0.21306683
143	0x3d21f312	0.03953845
144	0xbe3eea82	-0.18644145
145	0xbdbe8c21	-0.09304071
146	0x3d911ebd	0.07085941
147	0x3e42d057	0.19024788
148	0x3e1f2f22	0.15545323
149	0xbdbdfd31	-0.09276808
150	0xbe37aae4	-0.17936283
151	0xbe48389b	-0.19552843
152	0xbe5e3bcc	-0.21702498
153	0xbe0aa59c	-0.13539737
154	0x3e191af6	0.14951691
155	0xbe3b8353	-0.18311815
156	0xbe42b1a9	-0.19013084
157	0xbe1fb66c	-0.15596932
158	0x3ddcac62	0.10775067
159	0x3e971565	0.2950851
160	0xbe29394d	-0.16525765
161	0xbe345335	-0.17609866
162	0xbd0a2792	-0.033729143
163	0x3e8028ab	0.25031027
164	0x3e3ce4fd	0.18446727
165	0xbe6b56d4	-0.22982341
166	0xbe43e4ae	-0.19130203
167	0x3cd8f257	0.026482744
168	0x3e842b43	0.25814256
169	0x3e14a829	0.14517273
170	0xbe6ac562	-0.22926858
171	0xbdec17f4	-0.11528006
172	0x3df59c57	0.1199271
173	0x3e8de982	0.27717215
174	0x3d8c3867	0.068466954
175	0x3eb86bd2	0.3601976
176	0x3ee10110	0.43946123
177	0x3ec55584	0.38541806
178	0x3e7a7594	0.24458915
179	0x3d64ea69	0.055887613
180	0x3e0c1240	0.13678837
181	0x3e701d45	0.23448665
182	0xba15b270	-0.0005710488
183	0xbe00be2e	-0.12572548
184	0xbec8c8c9	-0.39215687
185	0xbe61ea96	-0.22062144
186	0xbe20175b	-0.1563391
187	0xbe8b97a9	-0.27264145
188	0xbea7c80d	-0.32769814
189	0xbed4827c	-0.41505802
190	0xbeee2061	-0.46509078
191	0xbe9e97db	-0.30975232
192	0xbeb47b32	-0.3525024
193	0xbe8399af	-0.2570319
194	0xbe412e52	-0.18865326
195	0xbeda2c37	-0.42611858
196	0xbe8de5a9	-0.2771428
197	0xbe6e0c04	-0.23246771
198	0xbcf6775a	-0.030086208
199	0x3dbf1517	0.093301944
200	0xbc9974c9	-0.018732445
201	0xbc828d7c	-0.015936606
202	0xbd12d1e9	-0.035844717
203	0xbc7575be	-0.014981685
204	0x3e285027	0.16436826
205	0xbdde5ae2	-0.10857178
206	0xbddc4e15	-0.107570805
207	0xbdddf458	-0.108376205
208	0x3b1b2975	0.0023675833
209	0x3e36594d	0.17807503
210	0xbe01596c	-0.12631768
211	0xbe2a45ca	-0.16628185
212	0xbe46c45d	-0.19410844
213	0x3d9450f7	0.07242005
214	0x3e853618	0.26017833
215	0xbe31d508	-0.17366421
216	0xbe67bba3	-0.22630171
217	0xbd2c1107	-0.042008426
218	0x3e7f4a7f	0.24930762
219	0x3e887da2	0.2665835
220	0xbe386672	-0.1800783
221	0xbe231592	-0.15926197
222	0x3df87e74	0.12133494
223	0x3e9b2d56	0.30308026
224	0x3d886865	0.06660537
225	0x3e9e0e77	0.3087041
226	0x3e361812	0.1778262
227	0xbcb238cc	-0.021755598
228	0xbe64a4fa	-0.22328559
229	0xbeca34f7	-0.39493534
230	0xbe6d9763	-0.2320228
231	0xbedeeacc	-0.4353851
232	0xbee3a831	-0.44464257
233	0xbeb4ccb8	-0.35312438
234	0xbdeffbf8	-0.11717981
235	0xbeeab291	-0.4583936
236	0xbf0ee652	-0.5582019
237	0xbe8120bf	-0.25220296
238	0x3c80fb91	0.015744956
239	0x3ea52f68	0.3226273
240	0xbccbb130	-0.024864763
241	0x3e2fe43f	0.17176913
242	0x3ed7436f	0.42043635
243	0x3eebec3d	0.46078673
244	0x3e506d27	0.20354138
245	0x3f06aae2	0.52604496
246	0x3f22c97a	0.6358868
247	0x3ed13f63	0.40868673
248	0x3dd8eded	0.10592256
249	0xbce99678	-0.028514132
250	0x3c712df4	0.014720429
251	0x3b046efc	0.0020207753
252	0x3c8a5d9a	0.016890336
253	0xbd4faf82	-0.050704487
254	0xbe0aaae0	-0.13541746
255	0x3dd389ea	0.103290394

conv1.bias f4 [32]
0	0xbdfdfd2a	-0.12401803
1	0x3dd24b41	0.1026826
2	0xbe4f0ef0	-0.20220542
3	0xba8284d9	-0.0009957805
4	0x39af1f1d	0.00033401782
5	0xbe200d88	-0.15630162
6	0xbd53383b	-0.051567297
7	0x3eabaa9e	0.33528608
8	0xbd6cbaf2	-0.057795472
9	0xba7f53e1	-0.0009739977
10	0xbdb74f61	-0.08950687
11	0xbe77cdf6	-0.24199662
12	0x3df0ab15	0.11751381
13	0x39190dc3	0.00014596344
14	0xbcbec647	-0.023287905
15	0xbb55d9a8	-0.0032630954
16	0xbe95c701	-0.2925339
17	0xbda965d4	-0.08271375
18	0xbe5de94a	-0.21671024
19	0x3e0a1746	0.1348544
20	0xbe594fe2	-0.21221879
21	0xbe18cd3a	-0.14922038
22	0x3db810bd	0.089875676
23	0xbdd6b3b0	-0.104834914
24	0xbe53cf43	-0.20684533
25	0xbe35549c	-0.17708057
26	0x3b135f4b	0.002248722
27	0xbe3f136c	-0.18659753
28	0xbe8e464f	-0.27788016
29	0x3979269a	0.0002376087
30	0x3c6ccb64	0.014452789
31	0xbd22c546	-0.039738916

fc1.weight f4 [10, 1152]
0	0xb44646d3	-1.8465953e-07
1	0x397325e5	0.00023188403
2	0xbbb4c490	-0.005516596
3	0xbb135566	-0.0022481321
4	0xbcc83136	-0.024437528
5	0x38be7c0c	9.0830115e-05
6	0x3108c3c6	1.990189e-09
7	0xbc13428f	-0.008988037
8	0xbbbec754	-0.0058221016
9	0xbcf49cca	-0.02985992
10	0xbd5d9603	-0.05409814
11	0xbd0b549e	-0.034016244
12	0xb44629b0	-1.8455353e-07
13	0x3c406c9f	0.011744647
14	0xbcca009c	-0.024658494
15	0xbc27c90f	-0.010240807
16	0xbd84437c	-0.06458184
17	0x3c09335b	0.0083740605
18	0xb7a079ff	-1.9130295e-05
19	0x3d890dcb	0.06692084
20	0x3d9bea88	0.07613093
21	0x3d64d212	0.0558644
22	0x3d364d0b	0.044507068
23	0x3bdd8329	0.0067600203
24	0x385e4e43	5.300181e-05
25	0x3d5b2501	0.053502087
26	0x3d8f42f8	0.06995195
27	0xbb964194	-0.0045854542
28	0x3d654ae4	0.055979624
29	0x3d65c16d	0.05609267
30	0xbbfa4811	-0.0076379855
31	0x3d14a33c	0.036288485
32	0xbc6940a0	-0.014236599
33	0xbcca98ec	-0.024731122
34	0xbcf1be8e	-0.029509809
35	0xbb2666d0	-0.002539087
36	0xbb886d10	-0.004163392
37	0xbc8bd26f	-0.017068116
38	0x3c4337bc	0.011915144
39	0xbace2d18	-0.0015729992
40	0x3d12bfe2	0.035827525
41	0x3c07f88d	0.008299005
42	0xbb651d0a	-0.0034959936
43	0x3c0d7b40	0.008635342
44	0xbd3507ab	-0.044196766
45	0x3d3c3982	0.04595328
46	0x3a678e77	0.00088331796
47	0x3b21ce67	0.0024689676
48	0xbc1daf52	-0.009624319
49	0x3ce67f3f	0.028136848
50	0x3c82436d	0.015901292
51	0x3cc6e6cb	0.024279973
52	0xbd533802	-0.051567085
53	0x3bcee25b	0.006313605
54	0x3c871622	0.016490046
55	0x3d4a43b5	0.049380977
56	0x3d5bc02c	0.053650066
57	0xbd128b8b	-0.03577761
58	0xbc527000	-0.012844086
59	0x3d02a760	0.031897902
60	0x3cec702b	0.02886208
61	0xbd77e78d	-0.06052356
62	0xbc4a4bb7	-0.012347153
63	0x3d2b6240	0.041841745
64	0x3ce1b27a	0.027550925
65	0x3d1a6eea	0.037703432
66	0xbc14d7ee	-0.009084685
67	0xbc4dd7c1	-0.012563647
68	0xbe046a4e	-0.12931177
69	0xbd19c2b0	-0.037539184
70	0xbcc46481	-0.023973705
71	0xb99c4500	-0.00029806048
72	0x34cc0963	3.800479e-07
73	0xb924d5fd	-0.00015719976
74	0xbc65b504	-0.014020208
75	0xbb73e285	-0.0037213874
76	0xbd0ac7f3	-0.033882093
77	0xbc29b827	-0.010358847
78	0xb3f4fa1e	-1.14076315e-07
79	0xbbebc79b	-0.0071954257
80	0x3ceb6a1c	0.02873712
81	0xbdab0faf	-0.08352601
82	0xbdb1ffa0	-0.08691335
83	0xbd1352f5	-0.035967786
84	0xb992af84	-0.0002797806
85	0x3cda250f	0.026628999
86	0xbcad7790	-0.021175176
87	0x3cb95b98	0.022626683
88	0xbe0aab44	-0.13541895
89	0xbca8a855	-0.02058808
90	0xbb1b7397	-0.002372002
91	0x3d86b9d8	0.06578416
92	0x3daf3515	0.085550465
93	0xbb44e47b	-0.0030043412
94	0xbd3614cd	-0.04445343
95	0x3b989ed0	0.004657604
96	0xbc45668b	-0.012048374
97	0x3c531448	0.012883253
98	0x3c71861e	0.014741449
99	0xbd01129a	-0.03151188
100	0x3da67360	0.08127475
101	0x3d65cb4e	0.05610209
102	0xbbd7501c	-0.006570829
103	0xbc97b873	-0.01852057
104	0xbc272fd9	-0.010204279
105	0x3ce72a41	0.02821839
106	0xbb3451fc	-0.0027514687
107	0x3b468ea3	0.003029742
108	0xb9632644	-0.00021662662
109	0xb956b584	-0.0002047625
110	0x3afd3df9	0.0019320837
111	0xbafe8054	-0.0019416907
112	0xbabf3a36	-0.0014589492
113	0xba1ffebf	-0.0006103329
114	0x3ac1584e	0.0014751048
115	0xbd08fa03	-0.033441555
116	0xbd9383c3	-0.07202866
117	0x3d05f881	0.032707695
118	0x3d33b2e8	0.04387179
119	0x39733af1	0.00023196243
120	0xbbc10f24	-0.0058916975
121	0xbd1d2f9a	-0.038375475
122	0xbdb9e736	-0.09077303
123	0x3d08d64d	0.0334075
124	0xbb51a59e	-0.0031989585
125	0xbd0b41b3	-0.033998203
126	0x3bebde99	0.0071981666
127	0xbdd0a03b	-0.101868115
128	0xbe0bd403	-0.13655095
129	0xbd8e922e	-0.06961475
130	0xbdb5c4dd	-0.08875439
131	0x3d36e8b1	0.044655506
132	0x3b21d0d7	0.0024691129
133	0xbcf1c517	-0.029512925
134	0xbd4444b9	-0.0479171
135	0xbcc8f43b	-0.02453052
136	0xbb40609c	-0.0029354459
137	0xbc3a5f0e	-0.011375202
138	0x3ca0dc01	0.019636156
139	0xbc8d5be2	-0.017255727
140	0x3d98ce2f	0.074612014
141	0x3dc6e795	0.097121395
142	0xbc7307cc	-0.014833402
143	0xbc8dc8bf	-0.017307637
144	0xb84d8698	-4.900116e-05
145	0xb881dc0e	-6.192188e-05
146	0x3c2d0268	0.010559656
147	0x3c03139c	0.008000281
148	0xb9779d66	-0.00023614391
149	0xb9f0a434	-0.00045898708
150	0xbb0cc307	-0.002147855
151	0xbd10877f	-0.03528547
152	0xbdde6418	-0.10858935
153	0x3c97e495	0.018541614
154	0x3bfc59e8	0.0077011473
155	0xbcf55124	-0.029945917
156	0xbbbfc04d	-0.0058517815
157	0xbd468df9	-0.04847524
158	0xbd02fd24	-0.031979695
159	0x3d56499e	0.0523163
160	0x3ca2c5c9	0.019869702
161	0xbd9748cf	-0.07386934
162	0xbbd19a60	-0.0063965768
163	0xbe01d42d	-0.12678595
164	0xbdff2bb7	-0.1245951
165	0xbd7f785c	-0.062370643
166	0xbe143a61	-0.14475395
167	0x3cab4ec6	0.020911586
168	0xbc9dacc7	-0.019247426
169	0xbda75d5c	-0.08172104
170	0xbd2e0ad5	-0.0424908
171	0xbc86ae78	-0.016440615
172	0xbc565195	-0.013080974
173	0x3cb054fb	0.021524897
174	0xba4a67cc	-0.00077211554
175	0xbd1de734	-0.03855057
176	0x3d78b57c	0.060719952
177	0x3def9b30	0.116995215
178	0x3c77fff8	0.015136711
179	0x3c0367aa	0.008020321
180	0x29233983	3.6243154e-14
181	0xbbe2b912	-0.0069190348
182	0xbc89ad31	-0.016806217
183	0xbc043f93	-0.008071798
184	0xbc2ba797	-0.010476968
185	0x3b5a49d8	0.0033308174
186	0x39421238	0.00018508069
187	0xbc803e19	-0.01565461
188	0xbc983c52	-0.01858345
189	0xbd6baca8	-0.057537705
190	0xbc73b1bf	-0.014873921
191	0x3d0d2958	0.034463257
192	0x381b8a8f	3.7083923e-05
193	0x3c810011	0.015747102
194	0xbd0f26a8	-0.034948975
195	0xbd09b2c7	-0.03361776
196	0x3d1befcf	0.038070496
197	0x3d7b9076	0.061417066
198	0x3a83f55e	0.0010067632
199	0x3d213014	0.03935249
200	0x3dd8b855	0.105820335
201	0xbc875ea6	-0.016524624
202	0x3d1d4db6	0.03840419
203	0x3d9095ee	0.07059847
204	0x3b1831a9	0.002322296
205	0x3d882346	0.06647353
206	0x3deef4be	0.116677746
207	0xbd885512	-0.06656851
208	0x3a9216c8	0.0011145705
209	0x3d360bd4	0.044444874
210	0xbc137ea8	-0.009002365
211	0x3da25035	0.079254545
212	0x3d1413d4	0.036151722
213	0xbdc179f0	-0.09447086
214	0xbdee9d0b	-0.11651047
215	0xbd2f350e	-0.042775206
216	0xbb0c874f	-0.0021442955
217	0xbc52bba4	-0.01286212
218	0xbbc44d6e	-0.0059906757
219	0xbc92bd90	-0.017912656
220	0x3c7922bf	0.015206038
221	0x3c10bae3	0.00883362
222	0xbc47b24a	-0.0121885035
223	0xbbdc9e6a	-0.0067327516
224	0xbd477f8c	-0.048705623
225	0x3bf392d3	0.0074332743
226	0xbc232ad1	-0.009958939
227	0xbb87f4a2	-0.0041490356
228	0xbce038a4	-0.027370758
229	0x3c4f4da5	0.012652789
230	0x3d045520	0.032307744
231	0xbb43a609	-0.0029853603
232	0xbcefed66	-0.029288005
233	0x3ccd743e	0.025079843
234	0x3c58eedf	0.013240545
235	0x3dbcf0fb	0.09225651
236	0x3d9e40c3	0.07727196
237	0xbcc8766c	-0.02447053
238	0x3d904a8a	0.07045467
239	0x3da81bce	0.08208428
240	0x3d73445f	0.059391376
241	0x3cb25130	0.021767229
242	0x3d3579f0	0.04430574
243	0x3ccd69b2	0.025074814
244	0x3bb0ae86	0.0053918986
245	0x3d5f4d31	0.054516975
246	0x3c34e35a	0.011040533
247	0xbc337099	-0.010952138
248	0xbdaeb118	-0.08529872
249	0xbde29219	-0.11063022
250	0xbdbcda7b	-0.09221359
251	0xbc7113ce	-0.014714194
252	0x3c068079	0.008209341
253	0x3ba01065	0.004884767
254	0x3ca65db9	0.020308362
255	0x3cce91c4	0.02521599

fc1.bias f4 [10]
0	0x3cb9dc6f	0.022688119
1	0x3dda5427	0.10660582
2	0x3c750cbc	0.014956649
3	0xbd8a3b85	-0.06749634
4	0xbd504548	-0.05084732
5	0x3da5ddfb	0.0809898
6	0xbd2481d6	-0.040162884
7	0x3cec7af1	0.028867217
8	0xbdbbaed5	-0.09164206
9	0xbc69c520	-0.01426819
