checkpoints/epoch=15.checkpoint.pth.tar (torch, 75240 bytes, 6 tensors)

conv1.weight f4 [8, 1, 3, 3]
0.33023068 -0.7306046 -1.4628276 0.8971696 0.40490422 -0.03738858 0.08291774 0.6290737
0.11426287 0.12092563 -0.18426439 -0.1831809 -0.17020738 -0.07378006 -0.093888484 -0.08866958
-0.011529883 -0.2833128 -0.5746683 0.23473905 0.73764473 0.2383189 0.69472986 0.4274759
0.46029988 0.26441905 -0.55510217 0.27828595 0.4325306 0.76291394 -0.42237112 0.107605286
0.5874287 -0.68572575 -1.2601659 -0.82002646 0.33381975 0.46163902 0.19759898 0.16543259
-0.10606595 -0.068636626 0.5658936 0.0058813654 0.14303444 0.621136 -0.085109055 0.12535785
0.13608004 0.5406385 0.2441706 -0.38379547 -0.45924658 -0.016051132 -0.20588967 0.1829548
0.30720115 -0.24133116 0.42208695 0.51801604 0.3552658 0.4113429 0.33838654 0.27945435
0.7129624 0.09906169 -0.5358703 0.7588938 0.4886602 -1.3802869 -0.32833347 0.6355451
00000000: ff13 a93e e708 3bbf ef3d bbbf e8ac 653f
00000010: 9b4f cf3e c524 19bd c7d0 a93d f90a 213f
00000020: a702 ea3d dba7 f73d ceaf 3cbe c693 3bbe
00000030: d84a 2ebe 001a 97bd 9b48 c0bd 6698 b5bd
00000040: d6e7 3cbc 600e 91be 761d 13bf 6f5f 703e
00000050: 49d6 3c3f df09 743e d1d9 313f 1fde da3e
00000060: 6dac eb3e ef61 873e 2d1b 0ebf 7f7b 8e3e
00000070: a774 dd3e 544e 433f 0741 d8be 2960 dc3d
00000080: ba61 163f b98b 2fbf 1e4d a1bf 41ed 51bf
00000090: 6cea aa3e f35b ec3e 6357 4a3e 2967 293e
000000a0: 1b39 d9bd 5c91 8cbd 67de 103f 78b8 c03b
000000b0: 9f77 123e c502 1f3f a84d aebd cf5d 003e
000000c0: 9158 0b3e 4967 0a3f dc07 7a3e d780 c4be
000000d0: 5e22 ebbe aa7d 83bc bed4 52be 8158 3b3e
000000e0: 7849 9d3e 841f 77be c81b d83e b39c 043f
000000f0: 66e5 b53e 899b d23e 0041 ad3e a414 8f3e
00000100: b484 363f dbe0 ca3d cc2e 09bf dd46 423f
00000110: ab31 fa3e 3ead b0bf 531b a8be 15b3 223f

conv1.bias f4 [8]
0.05202818 -0.14702079 -0.10885609 -0.011611826 -0.30316845 -0.18283471 -0.31104144 -0.19052064
00000000: 801b 553d 9e8c 16be f1ef debd 873f 3ebc
00000010: e538 9bbe 0639 3bbe d340 9fbe d817 43be

conv2.weight f4 [32, 8, 3, 3]
-0.4011321 -0.27093774 -0.46392804 0.378243 0.019096583 -0.16350049 0.06425164 0.4597973
0.46481466 0.0032264537 -0.10733143 -0.013246966 0.011645371 0.113160454 0.0023834324 -0.040892698
0.050878905 -0.106694244 -0.096669324 -0.7411174 0.0066773114 -0.0057762368 -0.25690722 -0.61279744
0.0644675 0.059359845 -0.23611157 0.2658827 -0.11854765 0.45423797 -0.6734199 -0.20621276
0.35340834 0.11778744 -0.21803026 -0.18444076 -0.41653365 -0.44679537 -0.48780546 0.082419746
-0.16936754 -0.46569282 0.27621877 0.21199512 0.17854866 -0.5093138 -0.09398302 -0.08781613
0.31949362 -0.54331136 -0.6672592 0.5255012 0.24965383 0.1105528 -0.2211254 -0.45710853
-0.013231181 0.08657541 -0.16043308 -0.48580483 0.12550037 0.26631168 0.076956235 -0.7706391
-0.079383925 0.055533968 -0.23566078 -0.4323518 -0.42552117 0.55748945 0.5301312 0.06861369
-0.23698826 0.6000648 0.531614 -0.43638596 -0.05014975 0.21052225 -0.6588481 -0.29393783
-0.3107154 0.0037864167 -0.03111345 -0.11668493 -0.08675923 0.06379617 -0.055673067 0.09669574
0.04236309 0.02010409 0.016798701 -0.24171993 -0.09867596 0.080824666 -0.14602058 0.10428734
0.2770191 0.06039464 -0.040199883 -0.01702354 0.1046546 -0.37139526 -0.16933523 -0.05780142
0.1548041 -0.34211442 -0.33173534 0.025827326 0.09375909 0.025761725 -0.18151014 -0.07723707
0.11053948 0.16592985 0.105268866 0.09941759 0.00024961028 0.26091433 0.098220415 -0.2536
-0.30865937 0.028680116 0.20401065 -0.061124988 0.041758794 0.19237544 0.09987105 -0.038437486
-0.15786825 0.0008898293 -0.032555863 0.06406245 0.118891574 -0.05829909 -0.24349776 0.39858097
0.5092312 -0.26880988 -0.07496421 0.012814832 0.13503017 -0.32929403 -0.33148962 -0.25324374
0.30779994 -0.043446254 -0.12787558 0.16624025 -0.17766607 -0.2990004 -0.21327308 -0.2713346
-0.30080697 0.019511659 0.110014096 -0.0078063267 0.059052695 0.07030006 0.05858218 -0.10516171
-0.11327881 0.11560962 -0.15887561 0.10423851 0.13766064 0.13232262 0.21576141 0.11842866
-0.13931222 -0.2578886 -0.30417132 -0.7688007 -0.63362336 -0.6721222 -0.49831367 0.10741489
0.055272084 0.5419605 0.20376538 -0.24341805 -0.2291171 -0.12122988 0.091671646 0.1547243
0.18798466 0.15205228 -0.09950316 -0.10158007 -0.2545442 -0.5102715 -0.28240642 0.003373289
0.20350753 0.13475205 0.10298617 0.36843452 0.045879684 -0.20960587 -0.16383554 0.2243735
0.17780162 -0.030507218 0.05242371 0.049915243 -0.056577846 -0.43097976 -0.32259852 -0.04989654
-0.1403047 -0.3811063 -0.018170064 0.063943185 0.09763837 0.30065745 -0.029224603 0.03685127
-0.64607114 -0.2042796 -0.07760591 -0.7410779 -0.008886351 0.4093503 -0.90166605 -0.01870129
0.62969524 -0.062141664 0.07722174 -0.10395891 0.053674925 0.018928261 0.06583828 0.058146495
0.08880076 0.051999055 0.08403675 0.25717288 0.14721599 -0.15393862 0.026058363 -0.20582505
-0.36198315 0.08093448 -0.0437752 -0.48267317 -1.0039736 -0.3751253 -0.4183727 -0.2087527
-0.485733 0.062380172 0.124077804 0.26871198 -0.097592115 0.055259816 0.09788705 -0.0852606
00000000: 3061 cdbe 5ab8 8abe fa87 edbe 11a9 c13e
00000010: 7070 9c3c ac6c 27be 5d96 833d 8d6a eb3e
00000020: 30fc ed3e e972 533b 95d0 dbbd cd09 59bc
00000030: 3acc 3e3c abc0 e73d 5c33 1c3b 1a7f 27bd
00000040: 6666 503d 8382 dabd 91fa c5bd dfb9 3dbf
00000050: 59cd da3b 9646 bdbb 5889 83be 4be0 1cbf
00000060: 8907 843d 4f23 733d 3bc7 71be c721 883e
00000070: 1cc9 f2bd e191 e83e 3f65 2cbf 7029 53be
00000080: f0f1 b43e 8b3a f13d 5343 5fbe 0ade 3cbe
00000090: e643 d5be 5dc2 e4be a3c1 f9be afcb a83d
000000a0: af6e 2dbe 4a6f eebe 8c6c 8d3e 4015 593e
000000b0: 76d5 363e 6462 02bf 2b7a c0bd f1d8 b3bd
000000c0: ab94 a33e 7416 0bbf 80d1 2abf 3f87 063f
000000d0: 41a5 7f3e 8269 e23d b26e 62be 210a eabe
000000e0: 98c7 58bc 734e b13d 9248 24be 69bb f8be
000000f0: 2b83 003e 015a 883e 3b9b 9d3d 9b48 45bf
00000100: 0a94 a2bd 9677 633d 0f51 71be 375d ddbe
00000110: e9dd d9be a1b7 0e3f aeb6 073f 5685 8c3d
00000120: 0dad 72be d99d 193f db17 083f fb6d dfbe
00000130: d369 4dbd 2593 573e 45aa 28bf 057f 96be
00000140: 1716 9fbe 8825 783b a2e1 febc 82f8 eebd
00000150: d3ae b1bd 91a7 823d 7109 64bd 6b08 c63d
00000160: eb84 2d3d 55b1 a43c 6e9d 893c 6e85 77be
00000170: 9f16 cabd 6787 a53d 6b86 15be 9a94 d53d
00000180: 73d5 8d3e 5f60 773d a2a8 24bd f374 8bbc
00000190: 2755 d63d 8527 bebe 3766 2dbe 2fc1 6cbd
000001a0: f784 1e3e 9f29 afbe 37d9 a9be d493 d33c
000001b0: c404 c03d 410a d33c cbdd 39be 782e 9ebd
000001c0: 8662 e23d 84e9 293e 3497 d73d 739b cb3d
000001d0: 20de 8239 9096 853e c927 c93d dcd7 81be
000001e0: 9a08 9ebe 90f2 ea3c 2be8 503e 325e 7abd
000001f0: 450b 2b3d 11fe 443e 3189 cc3d a070 1dbd
00000200: 37a8 21be 6f43 693a 4c59 05bd 2c33 833d
00000210: 6d7d f33d 07cb 6ebd 7a57 79be ce12 cc3e
00000220: fa5c 023f 73a1 89be d686 99bd 4df5 513c
00000230: 5945 0a3e 3a99 a8be 02b9 a9be 2aa9 81be
00000240: f497 9d3e b3f4 31bd d1f1 02be e23a 2a3e
00000250: 18ee 35be 9516 99be 4264 5abe 5eec 8abe
00000260: 5f03 9abe ead6 9f3c 124f e13d 37cc ffbb
00000270: 3de1 713d 7af9 8f3d def3 6f3d 065f d7bd
00000280: b9fe e7bd bdc4 ec3d 4ab0 22be 007b d53d
00000290: e9f6 0c3e 957f 073e 8ff0 5c3e ba8a f23d
000002a0: dda7 0ebe f909 84be 58bc 9bbe 1fd0 44bf
000002b0: 2435 22bf 3310 2cbf f822 ffbe 56fc db3d
000002c0: fb64 623d ecbd 0a3f dfa7 503e 9542 79be
000002d0: ac9d 6abe 5f47 f8bd 58be bb3d 0c70 1e3e
000002e0: 0d7f 403e 98b3 1b3e 50c8 cbbd 3609 d0bd
000002f0: 9e53 82be 27a1 02bf 9397 90be 6612 5d3b
00000300: 4764 503e 71fc 093e 6aea d23d 73a3 bc3e
00000310: 56ec 3b3d eca2 56be 81c4 27be 2bc2 653e
00000320: a111 363e 46ea f9bc 3eba 563d ed73 4c3d
00000330: 2cbe 67bd 61a9 dcbe a22b a5be 5060 4cbd
00000340: 09ac 0fbe 5d20 c3be 63d9 94bc a5f4 823d
00000350: a0f6 c73d c6ef 993e 6f68 efbc 5bf1 163d
00000360: eb64 25bf ac2e 51be d9ef 9ebd 48b7 3dbf
00000370: 0f98 11bc 5d96 d13e 96d3 66bf 7333 99bc
00000380: b533 213f 4288 7ebd 6e26 9e3d 69e8 d4bd
00000390: 3dda 5b3d 710f 9b3c 38d6 863d 052b 6e3d
000003a0: 2cdd b53d f6fc 543d 761b ac3d 2aac 833e
000003b0: cabf 163e 16a2 1dbe 5978 d53c cdc3 52be
000003c0: db55 b9be fac0 a53d a04d 33bd f020 f7be
000003d0: 3582 80bf 6c10 c0be f234 d6be 45c3 55be
000003e0: ffb1 f8be 5a82 7f3d 811c fe3d 9e94 893e
000003f0: 60de c7bd 1e58 623d 0179 c83d 1c9d aebd

conv2.bias f4 [32]
-0.030717675 -0.41211164 0.0284928 -0.3042194 -0.007931816 -0.14051627 -0.3832676 -0.04065607
-0.20281276 -0.42866248 -0.048919037 -0.16249008 0.0060459864 -0.44864577 -0.39287177 -0.35125282
-0.33975202 -0.08593477 -0.108747676 -0.098999105 -0.17220502 -0.047162313 -0.30052683 -0.03549458
-0.0188458 -0.093109585 -0.1236059 -0.19155994 -0.02686593 -0.023100978 -0.26071945 -0.10871787
00000000: a2a3 fbbc 4c00 d3be bc69 e93c a5c2 9bbe
00000010: 73f4 01bc 7fe3 0fbe a73b c4be fb86 26bd
00000020: 26ae 4fbe a679 dbbe 545f 48bd cd63 26be
00000030: 691d c63b e6b4 e5be 7d26 c9be 69d7 b3be
00000040: faf3 adbe 92fe afbd 1ab7 debd 0bc0 cabd
00000050: 8356 30be 452d 41bd a7de 99be c462 11bd
00000060: 8262 9abc 3db0 bebd 1725 fdbd 4a28 44be
00000070: f015 dcbc 433e bdbc 057d 85be 7aa7 debd

fc1.weight f4 [10, 1568]
0.05126105 -0.09445848 0.0048068757 -0.022869859 0.028573444 0.06355217 0.03560293 -0.106586486
0.1953575 0.090952285 0.20906892 0.13123254 0.041377533 0.09800349 0.19893312 -0.06280526
0.2511608 0.10752976 0.06303373 0.05530372 0.09024577 -0.26299453 -0.6259801 -0.4368707
-0.25024614 -0.44532993 -0.33201656 -0.08572201 -0.19091336 -0.28304863 -0.12738651 0.16737294
0.116552845 -0.37141183 -0.32157144 -0.09808154 -0.19111338 0.030446641 0.049036484 -0.35280088
-0.38312855 -0.10594924 0.10547195 -0.09718087 0.05513334 -0.4624054 -0.13116512 -0.12137589
0.11995408 -0.02972816 -0.0350318 0.12231794 -0.04872986 -0.03466992 -0.06376791 -0.0324607
-0.009064466 0.055710163 0.0025002148 -0.0048638596 0.008269773 -0.027228767 -0.09734566 0.030900717
-0.04029022 -0.22898161 -0.08745798 -0.04895033 0.06230391 0.11657283 0.15228114 -0.25290686
-0.09889355 0.008147515 0.080173865 0.048879057 0.0023660774 -0.11244173 0.14020507 -0.2916683
-0.14143795 -0.026023457 0.08723613 -0.12813206 0.17677633 -0.059751302 0.011514411 0.09437586
0.05974977 -0.104576424 -0.30600417 -0.23774602 0.3507461 0.18779245 -0.13120185 -0.29332095
-0.22689496 -0.20906954 0.14939554 -0.011986503 0.21087964 -0.15233296 -0.13423246 -0.15016833
-0.31599838 0.26749054 -0.07753895 -0.29161158 0.037955847 -0.025459103 -0.23447955 0.047204126
-0.010654359 -0.07681261 -0.0498039 -0.10931872 -0.24863572 -0.4718851 0.08122172 -0.3650278
-0.10505019 -0.10136073 -0.08777956 -0.5193499 0.06649354 0.015008372 0.05198506 -0.113217674
0.026559269 -0.0542132 -0.0014728063 0.1865436 -0.29379907 -0.25281486 0.07049644 0.008146301
0.15992253 0.048605148 -0.106659286 -0.10355217 0.23604034 0.016896406 -0.3048853 -0.07054945
0.32399032 -0.14106718 0.12795343 -0.15220213 -0.23515326 -0.10356257 0.07748344 0.1446473
-0.106939614 -0.006427593 -0.23678276 0.0021570357 -0.20835789 0.063308306 -0.08634501 0.10465601
-0.028683297 0.14196193 0.06865876 -0.04077316 -0.15255325 0.070787586 0.18511596 -0.049251106
-0.14255232 0.11274085 0.042837504 -0.09804075 -0.15305479 0.08196757 0.09483954 -0.2964799
0.054125596 0.091336794 -0.21598738 -0.12281297 -0.14623775 0.0063660964 0.096696846 0.14413871
0.17240243 -0.3053691 -0.43841857 -0.19550724 -0.17179453 -0.04024993 -0.09230436 -0.18867196
-0.37533858 -0.09204027 -0.023395617 -0.023023194 0.016468778 -0.2945097 -0.13371132 0.055958237
-0.2749643 -0.09429648 -0.04105509 0.042120226 -0.14848745 -0.13674684 -0.21871968 -0.22324108
-0.31175035 0.10718348 -0.03205396 0.03727865 -0.22451356 -0.13725974 0.02312657 -0.08580329
-0.033198763 -0.02166978 0.109024145 0.29427165 0.32451022 0.24777874 0.02399009 0.004348642
-0.042306524 0.029488768 0.24754734 -0.20805918 0.18568762 0.050023418 0.045407217 0.0720959
0.019915968 -0.11660053 -0.33602905 0.10552057 -0.01606556 -0.18696892 -0.020802615 -0.10173354
-0.26865694 -0.93006665 -0.5002613 -0.31022623 -0.18226957 -0.17505492 -0.042632498 -0.28113464
0.23692757 -0.2552691 -0.097896 0.25695813 -0.007077865 -0.06120865 -0.19470742 -0.017697757
00000000: 1bf7 513d 7373 c1bd ff82 9d3b 9259 bbbc
00000010: db12 ea3c a427 823d 61d4 113d 044a dabd
00000020: cc0b 483e 3145 ba3d 2a16 563e d361 063e
00000030: 7d7b 293d 0eb6 c83d 20b5 4b3e 0ba0 80bd
00000040: 2698 803e 9038 dc3d d417 813d 2786 623d
00000050: c6d2 b83d 38a7 86be 3b40 20bf 84ad dfbe
00000060: 4320 80be 4902 e4be 13fe a9be 058f afbd
00000070: cb7e 43be c0eb 90be 9c71 02be d063 2b3e
00000080: 42b3 ee3d b129 bebe 03a5 a4be f9de c8bd
00000090: 3ab3 43be 3c6b f93c 7bda 483d 51a2 b4be
000000a0: 6d29 c4be eafb d8bd ad01 d83d c406 c7bd
000000b0: 7fd3 613d 67c0 ecbe 2650 06be ec93 f8bd
000000c0: 7caa f53d 7888 f3bc 817d 0fbd d481 fa3d
000000d0: f698 47bd 0c02 0ebd c098 82bd 83f5 04bd
000000e0: 2083 14bc 5730 643d a5da 233b 0361 9fbb
000000f0: f17d 073c dd0e dfbc 295d c7bd 8023 fd3c
00000100: 5c07 25bd 287a 6abe 2b1d b3bd 2480 48bd
00000110: 6232 7f3d bcbd ee3d 96ef 1b3e 027d 81be
00000120: b488 cabd 287d 053c 3232 a43d 6835 483d
00000130: 3110 1b3b da47 e6bd eb91 0f3e 8c55 95be
00000140: 1cd5 10be 252f d5bc dba8 b23d 0d35 03be
00000150: db04 353e c8bd 74bd f1a6 3c3c 2248 c13d
00000160: 2dbc 743d 2a2c d6bd 94ac 9cbe b173 73be
00000170: fe94 b33e aa4c 403e c759 06be 2a2e 96be
00000180: 2757 68be 5316 56be 25fb 183e 0a63 44bc
00000190: d5f0 573e 2cfd 1bbe 3c74 09be bac5 19be
000001a0: 8aca a1be 85f4 883e becc 9ebd 1d4e 95be
000001b0: 9777 1b3d 9c8f d0bc 681b 70be 1d59 413d
000001c0: 9f8f 2ebc ee4f 9dbd 2dff 4bbd 7ee2 dfbd
000001d0: 5d9a 7ebe ec9a f1be 9357 a63d ece4 babe
000001e0: 8e24 d7bd 3796 cfbd c5c5 b3bd 1df4 04bf
000001f0: c42d 883d ade5 753c 49ee 543d abde e7bd
00000200: d392 d93c a90e 5ebd 2e0b c1ba 4905 3f3e
00000210: d56c 96be f370 81be 7060 903d 1078 053c
00000220: bbc2 233e 3116 473d 2f70 dabd 2913 d4bd
00000230: 8fb4 713e 556a 8a3c ed19 9cbe 3b7c 90bd
00000240: 0fe2 a53e ea73 10be 3906 033e e0da 1bbe
00000250: 04cc 70be 9d18 d4bd a3af 9e3d 6c1e 143e
00000260: 2803 dbbd 8f9e d2bb 2e77 72be 0e5d 0d3b
00000270: c55b 55be c9a7 813d a7d5 b0bd e455 d63d
00000280: 3cf9 eabc 785e 113e f79c 8c3d c201 27bd
00000290: eb36 1cbe 15f9 903d 0a8f 3d3e 87bb 49bd
000002a0: 3cf9 11be ade4 e63d 6176 2f3d 97c9 c8bd
000002b0: 65ba 1cbe 9dde a73d 3c3b c23d 37cc 97be
000002c0: cdb2 5d3d c90e bb3d cc2b 5dbe 5e85 fbbd
000002d0: 59bf 15be b09a d03b ff08 c63d 1999 133e
000002e0: 438a 303e 5759 9cbe 6678 e0be 0d33 48be
000002f0: e8ea 2fbe 1cdd 24bd 110a bdbd 3933 41be
00000300: 612c c0be 9c7f bcbd 2aa8 bfbc 239b bcbc
00000310: 88e9 863c fac9 96be 9feb 08be 7734 653d
00000320: 1fc8 8cbe 831e c1bd 6229 28bd 4286 2c3d
00000330: 180d 18be 5d07 0cbe 0df8 5fbe 4f99 64be
00000340: be9d 9fbe 0383 db3d 034b 03bd 7fb1 183d
00000350: e2e6 65be d18d 0cbe ef73 bd3c a3b9 afbd
00000360: 6dfb 07bd d384 b1bc 0d48 df3d c6aa 963e
00000370: 3426 a63e b6b9 7d3e dd86 c43c 0e7f 8e3b
00000380: 9b49 2dbd 6e92 f13c 0d7d 7d3e 770d 55be
00000390: e524 3e3e 5be5 4c3d ebfc 393d 04a7 933d
000003a0: d026 a33c 42cc eebd 000c acbe 2b1b d83d
000003b0: ec9b 83bc c874 3fbe 3f6a aabc ad59 d0bd
000003c0: 678d 89be d918 6ebf 2011 00bf f9d5 9ebe
000003d0: e0a4 3abe 9941 33be 6a9f 2ebd e1f0 8fbe
000003e0: 249d 723e a2b2 82be b37d c8bd 0490 833e
000003f0: 6fed e7bb ecb5 7abd 6261 47be e3fa 90bc

fc1.bias f4 [10]
0.08977188 0.14596881 0.034296326 -0.095401764 -0.05865702 0.0029165745 -0.025223607 -0.026986951
-0.014289831 -0.011080437
00000000: 52da b73d d978 153e 4e7a 0c3d 0062 c3bd
00000010: 5842 70bd 0024 3f3b bda1 cebc bd13 ddbc
00000020: e51f 6abc b98a 35bc
