checkpoints/epoch=22.checkpoint.pth.tar (torch, 75240 bytes, 6 tensors)

conv1.weight f4 [8, 1, 3, 3]
00000000: 6c0d a23e dda8 4bbf 7c57 cbbf a199 7a3f
00000010: e8c0 dd3e 2de3 98bd bdd9 bf3d 97db 263f
00000020: 13b7 f33d dba7 f73d ceaf 3cbe c693 3bbe
00000030: d84a 2ebe 001a 97bd 9b48 c0bd 6698 b5bd
00000040: d6e7 3cbc 600e 91be 6d10 22bf 8ae2 753e
00000050: 75b2 483f f86c 653e 932a 4f3f 5966 e73e
00000060: f239 023f d06a 883e c1a3 22bf d315 b33e
00000070: 9a78 023f 7bb9 543f 8661 e9be a8b5 c33d
00000080: bd97 1c3f a857 4fbf 625c b2bf 7aea 69bf
00000090: de03 aa3e ea8d ed3e d198 3a3e 0bf8 273e
000000a0: 8e65 16be 1cc1 9bbd eece 1d3f 8459 7d3c
000000b0: 5df0 113e 364c 253f 5ad5 aebd 70c6 d83d
000000c0: b161 173e 1442 123f c90e 883e aaea e4be
000000d0: f399 eabe 2f19 4cbd ea64 43be 10fb 473e
000000e0: 4e81 9d3e 7465 65be 5113 f63e d12c 0a3f
000000f0: c083 cc3e 814c f53e 3ffb c03e e35d 8e3e
00000100: 3adb 3c3f efdb a43d 4f7e 18bf 25d4 553f
00000110: 2e6f 093f fcae bfbf ef8a bfbe bc74 253f
0.31650865 -0.7955454 -1.5886073 0.9789067 0.43311238 -0.07465205 0.09367702 0.6517882
0.11900153 0.12092563 -0.18426439 -0.1831809 -0.17020738 -0.07378006 -0.093888484 -0.08866958
-0.011529883 -0.2833128 -0.63306314 0.24012199 0.78397304 0.2240485 0.8092434 0.45195273
0.5086967 0.2664399 -0.6353112 0.34977588 0.50965273 0.8309552 -0.45582217 0.095561326
0.61169034 -0.8099313 -1.3934443 -0.9137341 0.33206075 0.46397334 0.18222357 0.16403215
-0.14687178 -0.07605192 0.61643875 0.015463237 0.14251848 0.64569414 -0.08536787 0.10584724
0.1478336 0.5713208 0.2657378 -0.44710284 -0.4582058 -0.049828704 -0.19081464 0.19529366
0.30762714 -0.22401983 0.48061612 0.53974634 0.39944267 0.4790993 0.37691686 0.27806005
0.73772013 0.080497615 -0.5956773 0.8352683 0.5368527 -1.4975276 -0.37410685 0.6463125

conv1.bias f4 [8]
00000000: 8045 013d 9e8c 16be e639 c6bd 5d5b 14bb
00000010: 9b88 e2be acd4 56be 218b a8be 11c9 79be
0.03156042 -0.14702079 -0.09679012 -0.0022637465 -0.44244847 -0.20979565 -0.32918647 -0.24393107

conv2.weight f4 [32, 8, 3, 3]
00000000: 2fac b8be 2bad a6be 0458 e5be c9d7 f53e
00000010: 6af7 5b3d f1fc 45be cd30 6a3d b1f7 093f
00000020: c1f8 ef3e e972 533b 95d0 dbbd cd09 59bc
00000030: 3acc 3e3c abc0 e73d 5c33 1c3b 1a7f 27bd
00000040: 6666 503d 8382 dabd 59bd f9bd efde 5fbf
00000050: 6493 073d 0977 103d b438 8ebe 1761 2bbf
00000060: 05bd 473d ad6d 263d 1519 8bbe ce45 643e
00000070: e45e 9fbe 3636 e83e eb8c 4dbf 2375 18be
00000080: 1c3c c23e 81f1 ee3d 8312 8fbe 5eac 3ebe
00000090: a170 04bf 4f14 1abf b8d1 27bf fa9d 013e
000000a0: 13d6 05be 899e 07bf 8ef9 a63e 4627 7f3e
000000b0: eb04 243e 3dc4 20bf a717 12be ea09 45be
000000c0: f208 c53e e2c6 10bf f021 37bf b49e 163f
000000d0: 8e91 823e 909b c83d 6a59 73be 0589 0abf
000000e0: 955e 8cbc 7002 253e d448 58be a29a 0bbf
000000f0: a4f2 fe3d b1a5 893e d5dd 3c3d 9780 7abf
00000100: ce82 c9bd a7e3 643c 6c66 94be 3310 33bf
00000110: b270 03bf 8766 203f c53d 173f 829c 113d
00000120: 1b74 4fbe c936 303f 3940 153f 8689 0abf
00000130: 07ba a4bd b671 493e 0178 38bf 4ee6 9abe
00000140: d1ea aabe 8825 783b a2e1 febc 82f8 eebd
00000150: d3ae b1bd 91a7 823d 7109 64bd 6b08 c63d
00000160: eb84 2d3d 55b1 a43c aa8b 83bb 77c7 94be
00000170: bdf1 02be f8ba b13d e23f 4dbe 0e6d f33d
00000180: 79df 963e 19b7 b73d fad0 acbd f413 333c
00000190: 1776 b63d 02df 09bf 6c32 22be 7bf8 a1bd
000001a0: db3b 2e3e a332 c9be c691 b3be 4aef 833d
000001b0: 33cc 843d ce75 3d3d aeb4 54be 1d67 cdbd
000001c0: 4d01 b43d cee2 3e3e 897a 073e 657a 9b3d
000001d0: 4976 963c 89a1 a23e 11a4 d53d 5118 a8be
000001e0: 9767 c7be 4a50 023d 2430 4e3e 5344 e3bd
000001f0: cfef 3fbb aed8 3c3e 5325 c33d 2e32 a6bd
00000200: 17d4 28be a160 973c 39f2 64bd a559 be3d
00000210: 2f36 033e 724a a6bd 14ec 9fbe 1207 d23e
00000220: 1a00 0c3f b6e4 98be 162b 8dbd 6a1b a13c
00000230: bb8b 3e3e e133 efbe f849 c6be 1935 adbe
00000240: 4731 b83e e505 13bd 60e0 3bbe 34c8 1c3e
00000250: 0b0a 79be 5404 aebe ac57 48be 3b1b 68be
00000260: ee79 82be ead6 9f3c 124f e13d 37cc ffbb
00000270: 3de1 713d 7af9 8f3d def3 6f3d 065f d7bd
00000280: b9fe e7bd bdc4 ec3d 50cd 0fbe ff46 0a3e
00000290: 32a6 3f3e a9c1 213e eb0d 703e 1c93 ec3d
000002a0: 3d6d febd 1f16 bfbe 39c9 91be 381d 55bf
000002b0: 9176 32bf 0a62 45bf 6671 0dbf 8c5f 833e
000002c0: a207 243e d484 1e3f 0dfc 683e d7f0 7bbe
000002d0: 69dd 4fbe 4db0 7cbd 4e44 043e e96d 0e3e
000002e0: 76d0 633e 9d5f 2a3e ae24 04be 0ce0 01be
000002f0: 641a 95be 7759 18bf 9270 87be 5276 bb3b
00000300: e396 733e b558 353e 1e8d 2d3e 5b2a d23e
00000310: f5d4 283c e136 9fbe 4fe7 10be d8a5 8b3e
00000320: cf5a 703e 5e8d b7bc 19d7 2e3d 8975 823d
00000330: d11d 9ebd 40be 09bf e956 adbe cc9b 533d
00000340: 1042 10be f58e c5be d7f2 353d 8382 913d
00000350: b93f 2a3e 8d50 ab3e abbf 533c 7932 643d
00000360: 764e 3abf 6d8a 15be 9295 e4bd 5d80 5fbf
00000370: 6bc1 443d 6001 e73e 6d4a 83bf e284 29bd
00000380: 1944 2a3f 4288 7ebd 6e26 9e3d 69e8 d4bd
00000390: 3dda 5b3d 710f 9b3c 38d6 863d 052b 6e3d
000003a0: 2cdd b53d f6fc 543d bad3 fd3d 14d0 6f3e
000003b0: f24c 3c3e 365f 53be 82d1 353c 3fce 6abe
000003c0: 05f5 c3be 7727 9c3d 058f 44bd b551 eabe
000003d0: c726 8ebf 58ca 09bf 5999 d2be 8fe7 83be
000003e0: cede 31bf cc33 bd3d edd5 eb3d 28ea 943e
000003f0: 02f5 fbbd a57c 4e3d 404f b93d 1ca5 0bbe
-0.36068866 -0.32553992 -0.44793713 0.48016194 0.05370275 -0.1933477 0.057175446 0.5389357
0.46869472 0.0032264537 -0.10733143 -0.013246966 0.011645371 0.113160454 0.0023834324 -0.040892698
0.050878905 -0.106694244 -0.12194318 -0.87449545 0.033099547 0.03526977 -0.27777636 -0.6694502
0.048764247 0.04063194 -0.27167574 0.22292253 -0.31127083 0.4535386 -0.8029315 -0.14888434
0.37936485 0.11667157 -0.2794381 -0.1862044 -0.5173436 -0.6018724 -0.6555438 0.1265792
-0.13069944 -0.5297628 0.3261227 0.24917325 0.16017501 -0.62799436 -0.14266835 -0.19242063
0.38483387 -0.5655347 -0.7153616 0.5883591 0.25501674 0.09795296 -0.23764578 -0.54115325
-0.017134944 0.16114211 -0.21121532 -0.54532826 0.12448624 0.26884225 0.046109993 -0.9785246
-0.09839402 0.013970292 -0.28984392 -0.69946593 -0.51343834 0.62656444 0.5907863 0.035549648
-0.20259134 0.68833596 0.5830112 -0.54116094 -0.080432944 0.19672284 -0.7205811 -0.30253834
-0.33382276 0.0037864167 -0.03111345 -0.11668493 -0.08675923 0.06379617 -0.055673067 0.09669574
0.04236309 0.02010409 -0.004014452 -0.2905843 -0.12787528 0.086782396 -0.200439 0.11886035
0.2946737 0.0897047 -0.084382966 0.01093005 0.089092426 -0.5385591 -0.15839547 -0.07908722
0.1701502 -0.39296445 -0.35072154 0.06442125 0.064842604 0.046254925 -0.20772049 -0.10029433
0.087893106 0.18641207 0.13230337 0.07591704 0.01836695 0.31763867 0.10431684 -0.32831052
-0.3894622 0.03181485 0.20135552 -0.11097016 -0.0029287224 0.18442032 0.095286034 -0.0811504
-0.16487156 0.018478693 -0.055895064 0.09294442 0.12813638 -0.08119668 -0.312348 0.4102102
0.54687655 -0.29861993 -0.068929836 0.019666392 0.1860799 -0.46719268 -0.3872831 -0.33829573
0.35975096 -0.035894293 -0.18347311 0.15310746 -0.24320237 -0.33987677 -0.19564694 -0.22666638
-0.2548365 0.019511659 0.110014096 -0.0078063267 0.059052695 0.07030006 0.05858218 -0.10516171
-0.11327881 0.11560962 -0.14043164 0.13503645 0.18715742 0.15796532 0.2344281 0.115514964
-0.12423179 -0.37321565 -0.28473833 -0.8324771 -0.6971217 -0.7710272 -0.5525116 0.25658834
0.16018537 0.6192143 0.227524 -0.24603592 -0.20299305 -0.06169157 0.12916681 0.13909115
0.2224749 0.16638036 -0.12904617 -0.12683123 -0.29121697 -0.5951151 -0.26453072 0.005720892
0.23788027 0.1770962 0.16948363 0.4104794 0.010304679 -0.31096557 -0.14150737 0.27274966
0.2347214 -0.022406276 0.0426856 0.06370074 -0.07720531 -0.53805923 -0.3385537 0.05166225
-0.14087701 -0.3858563 0.044421043 0.07104971 0.16625871 0.33459893 0.012924115 0.055712197
-0.7277597 -0.14603586 -0.11161341 -0.8730524 0.04803602 0.45118237 -1.0257088 -0.041386493
0.6651016 -0.062141664 0.07722174 -0.10395891 0.053674925 0.018928261 0.06583828 0.058146495
0.08880076 0.051999055 0.12393899 0.2341922 0.18388727 -0.20641789 0.011097314 -0.22930239
-0.38272873 0.07624715 -0.047987957 -0.45765463 -1.1105584 -0.5382438 -0.4113262 -0.25762603
-0.694806 0.09238395 0.115154125 0.29084897 -0.12302591 0.05041184 0.09048319 -0.13637203

conv2.bias f4 [32]
00000000: 1904 31bd 117f f1be cd3c acbc f8cb aebe
00000010: ecae 203c 75d0 1cbe c416 f3be adf0 88bd
00000020: 5df4 78be 3a3a e2be 6b2c c5bd fdc1 5bbe
00000030: 049a 20bc cd74 0abf 803d e5be 7894 d1be
00000040: 7ff6 d7be 3f42 c6bd aa4c 11be 0bc0 cabd
00000050: 83e6 19be 7261 0cbd 21c8 9bbe 3237 94bc
00000060: 53e0 3bbb bec4 91bd 08e9 dcbd 70af 7abe
00000070: d4e2 7bbd 7124 94bd fdae a4be 8dbc e9bd
-0.0432168 -0.47167256 -0.021025086 -0.3413999 0.00980733 -0.15313895 -0.47478306 -0.0668653
-0.24311967 -0.44185048 -0.09627613 -0.2146072 -0.009802345 -0.54084474 -0.44773483 -0.40933585
-0.4218025 -0.09680604 -0.14189401 -0.098999105 -0.1502934 -0.03427262 -0.30426124 -0.018092725
-0.0028667643 -0.07117604 -0.10786635 -0.24480987 -0.061495617 -0.07233513 -0.32164755 -0.11412916

fc1.weight f4 [10, 1568]
00000000: f977 c83d edf9 1abe fbbe 17bd a86f 74bd
00000010: afd5 2a3d 69bf 983d ac12 a6ba 1258 a9bd
00000020: 8648 8e3e 3c4b 2f3e 2972 8a3e 9c3f 1f3e
00000030: 716c d63c 801e f83d 3046 363e c4f1 03be
00000040: 82a9 373e cd89 a93d 33f9 a0bb c552 2e3d
00000050: b444 d53d c2cc 9dbe e397 56bf 6993 fbbe
00000060: bfc0 a2be 8e70 10bf 642f e5be cd06 c8bd
00000070: 3a3d 20be 2ee4 b5be de04 4fbe 239b 4b3e
00000080: b8de 713d 5e2d c5be eab3 cdbe 7741 d4bd
00000090: 8c59 4abe 4088 813d 011e d7bc f9b4 e9be
000000a0: 9092 ecbe bb37 eabd b48f 0a3e 77cc afbd
000000b0: 9909 653d 5192 31bf eb40 08be 2d84 0ebc
000000c0: 1c9a af3d 7888 f3bc bc98 44ba 915e fe3d
000000d0: ff26 8fbd 74d1 313b b107 e4bd 83f5 04bd
000000e0: be09 403d 7924 f6bc 8df6 03bc 21f6 4ebd
000000f0: dfae c4bc 392a 2ebe f788 06be 4ea0 8e3c
00000100: 962d 2cbc 37bc 95be 69b3 00be 19c8 d1bd
00000110: 8885 bb3d ce20 203d 5e9c 823e e1bc a4be
00000120: 4935 25be 944f ea3c 9a53 953d 9f83 733d
00000130: 93b8 8cb9 e720 0dbe bb2d 183e bd57 93be
00000140: b0ec 3abe ee79 88bd dbc1 cd3d e2a6 d9bd
00000150: 4be2 a53e e394 04be 1866 bcbb 419f 0f3e
00000160: ec32 203e 2f13 d4bd 1da4 b6be 0738 9ebe
00000170: b845 e13e 37c8 1f3e 3808 d2bd 71d7 a7be
00000180: 4214 aebe 586e 70be 44c8 c53d 34df 82bd
00000190: 888c 353e 8f74 39be 6f85 a1be e466 2ebe
000001a0: 7eda b7be 7a59 b23e 4b95 47bd 8aa2 bbbe
000001b0: 5853 923c adcc 44bd e56c 8dbe 710f 363d
000001c0: cb44 ccbd fb08 17be dade 03bd 6d4f 07be
000001d0: 1b53 87be 32c5 c9be 06c0 df3d 94ab e5be
000001e0: 61a6 14be 4f96 0bbe aafd f3bd b8ac 19bf
000001f0: 420e 0e3e ed09 443d ae7b db3d d590 80bd
00000200: 50c3 013e 2d2c c23c dc5f 823c de4e 553e
00000210: faee b8be f074 9bbe ddf7 053e 01cd 8d3b
00000220: 4e67 393e fecc b43d af23 12be b416 dbbd
00000230: 576e b53e 0144 98bc 2837 a0be 7809 8ebd
00000240: e5d9 b43e 8e33 2fbe 2558 103e 36b7 1abe
00000250: 6576 9fbe 8001 2fbe fec7 a13d 29c5 413e
00000260: 2607 bfbd d0c1 d2bb 4cd0 73be ed73 2b3c
00000270: b847 8ebe 88fc 1a3e 4e61 37be 012b 3a3e
00000280: 1c8a e4bc e08f ee3d acb3 3a3d 6476 8fbd
00000290: 2701 0ebe bf3d 803d 849d 5e3e 078a 1bbe
000002a0: 38f3 19be 39ef d33d ea88 9a3d 91a5 10bd
000002b0: d1dd f4bd cb67 893d 94fd 333d d428 a7be
000002c0: 69da 3d3d cd6a 003e 9b38 4dbe 170f e8bd
000002d0: 8e29 33be a9c2 163d e80d 3f3a 730d 493e
000002e0: 88f5 1d3e 905d 99be f39b f0be 6ad9 7bbe
000002f0: 8778 6cbe 1cdd 24bd 8241 0cbe c42c 9dbe
00000300: d230 03bf d046 29be 5294 58bd 239b bcbc
00000310: 60fb 433d bb46 9cbe 64a9 80be 4942 a23d
00000320: f775 d5be 39ce d7bd e155 de3b c469 a93d
00000330: 995c 4fbe bb5d 30be 6b08 85be d27b 81be
00000340: b666 d7be de7f 0d3e f005 0c3c 4446 b43c
00000350: 198d a1be 0fe7 08be a806 ed3c abb7 a2bd
00000360: 298f 97bd cf54 4d3d cb88 983d f3f2 a23e
00000370: 5f53 d13e 6cc3 b13e 273d 973c 8da4 15bc
00000380: 2d5e f53c 9bb5 27bd e80f 9e3e 58d1 3ebe
00000390: 00ae 613e 3c3b 163d 713c b13d f7ac 1f3e
000003a0: 8787 66bc 8d12 2bbe b342 bebe a259 023e
000003b0: fb8d 46bd cc79 39be cf5a f93c e6f8 0dbe
000003c0: bf1a 56be 7987 8bbf 0d2c 1bbf 82f8 a5be
000003d0: 09be 68be 9608 58be e628 73bd 714f 7cbe
000003e0: 4bb9 953e bc35 9bbe 0790 c1bd 4b78 ad3e
000003f0: e09c 253b 2fec e2bc ba64 54be 061f c6bd
0.09788508 -0.15134402 -0.037047368 -0.059676796 0.04170769 0.074583836 -0.001267036 -0.08268751
0.27789706 0.17118543 0.27040222 0.15551609 0.026174756 0.121151924 0.17800212 -0.12885195
0.17935756 0.082782365 -0.0049125194 0.042559404 0.10413495 -0.3082028 -0.8382551 -0.49135903
-0.3178768 -0.56421745 -0.4476272 -0.09766922 -0.15648356 -0.3552565 -0.202167 0.19883399
0.05905029 -0.38511175 -0.40176326 -0.10364049 -0.19760722 0.06324816 -0.026259424 -0.45645884
-0.46205568 -0.11436411 0.13531381 -0.085839204 0.055917356 -0.69363886 -0.13306014 -0.008698505
0.08574316 -0.02972816 -0.0007499566 0.12420381 -0.0698986 0.00271329 -0.111342795 -0.0324607
0.04688429 -0.030046688 -0.008054388 -0.050527696 -0.024009166 -0.17008294 -0.13138185 0.017410424
-0.010508915 -0.2924516 -0.1256844 -0.10243244 0.091563284 0.039093785 0.25509924 -0.32175353
-0.16133608 0.028602399 0.07291336 0.059451696 -0.000268404 -0.13782082 0.14861195 -0.28777876
-0.18254352 -0.06663881 0.100467406 -0.106275335 0.3239921 -0.12947421 -0.005749475 0.14025594
0.15644425 -0.103552215 -0.35672083 -0.3090212 0.43998504 0.1560372 -0.10255474 -0.32781556
-0.3399983 -0.23479593 0.09657338 -0.06390229 0.1772939 -0.1811087 -0.31547114 -0.17031437
-0.35908884 0.3483389 -0.04872636 -0.36647445 0.017862007 -0.048046757 -0.27622142 0.04444832
-0.09974059 -0.1474952 -0.03219495 -0.13213892 -0.26430592 -0.3940826 0.109252974 -0.44857466
-0.14516594 -0.13631557 -0.11913617 -0.6002917 0.13872626 0.04786103 0.107169494 -0.062776245
0.12672162 0.023702705 0.01591485 0.20830867 -0.36119825 -0.30362654 0.13082834 0.004327417
0.18105814 0.08828162 -0.14271425 -0.1069769 0.35435745 -0.018587114 -0.3129208 -0.069354
0.3532249 -0.1710951 0.14096124 -0.15108952 -0.31145015 -0.17090416 0.078994736 0.18922867
-0.09327535 -0.0064317957 -0.23809928 0.010464651 -0.27789092 0.15135396 -0.17908213 0.18180467
-0.027897887 0.11648536 0.045581505 -0.07005003 -0.13867627 0.06261777 0.21739775 -0.15189372
-0.15034187 0.103483625 0.075456455 -0.035314146 -0.119563706 0.0670925 0.043943003 -0.32648337
0.04635087 0.12540741 -0.20041125 -0.11331003 -0.1749632 0.036806736 0.0007288144 0.19634037
0.15425694 -0.29954195 -0.4699398 -0.24594656 -0.23092853 -0.04024993 -0.13696864 -0.30698216
-0.5124637 -0.16530919 -0.052875824 -0.023023194 0.04784715 -0.30522713 -0.25129235 0.07922799
-0.41691563 -0.10537381 0.00678514 0.08272126 -0.20250167 -0.17223255 -0.25982985 -0.2528978
-0.4207055 0.13818309 0.0085463375 0.022006162 -0.3155296 -0.13369392 0.028933838 -0.07945188
-0.074003525 0.050129708 0.07447966 0.3182598 0.4088392 0.34719408 0.018461777 -0.00913347
0.029952133 -0.040944677 0.3087151 -0.18634546 0.22039032 0.036677584 0.086541064 0.15593325
-0.014070398 -0.16706295 -0.37160262 0.12729505 -0.048475247 -0.18112868 0.030438809 -0.13864478
-0.2090864 -1.0900718 -0.6061409 -0.3241616 -0.22728743 -0.21097025 -0.059365176 -0.2463968
0.2924293 -0.30314434 -0.09451299 0.3388084 0.0025270507 -0.027700512 -0.20741549 -0.09673886

fc1.bias f4 [10]
00000000: c1aa d33d 52ed 253e debd c53c 7295 dabd
00000010: b4fc 38bd c8b4 9dba 3cd1 efbc 3b1b 41bd
00000020: ccb8 bcbb 3225 8abc
0.10335303 0.16203812 0.024138387 -0.10673036 -0.04516287 -0.0012032026 -0.029274575 -0.04714511
-0.005759334 -0.01686344
