checkpoints/epoch=13.checkpoint.pth.tar (torch, 54736 bytes, 4 tensors)

conv1.weight f4 [32, 1, 5, 5]
-0.2676351 -0.049806595 0.23758796 0.13785057 -0.027851822 -0.27721474 0.22124653 0.35836807
-0.058014963 -0.21020275 -0.083990134 0.33793834 0.16618872 -0.2034608 -0.19805227 0.089710124
0.16054569 -0.07678037 -0.16973244 -0.08916049 0.10078087 -0.00707498 -0.0875482 -0.020128427
0.029095342 -0.19260336 -0.15958318 -0.25435406 -0.35404333 -0.18979682 -0.16516277 -0.21415244
-0.24612285 -0.08156162 0.13734256 -0.22770506 -0.18029019 -0.060084913 0.15617871 0.26885974
-0.31531647 -0.14826654 0.13981985 0.2448988 0.1369562 -0.3003528 -0.1736123 0.15550672
0.17015928 0.16724958 -0.13358669 -0.08593504 0.09546391 0.23576598 0.2193359 -0.18472442
0.10267727 0.24479705 0.21762778 -0.023067137 0.17565988 0.38494712 0.31771752 -0.039449155
-0.2114328 0.43660572 0.19884339 -0.08699088 -0.15597743 -0.091160476 0.16252051 -0.26154047
-0.26417083 -0.111479476 -0.055821415 0.07908155 0.080945425 -0.01122905 -0.03127197 -0.07493904
0.18587932 0.25980103 0.29011917 0.3108651 0.30824906 0.067560375 0.19588532 0.2965445
0.26324168 0.31306386 -0.20696168 -0.17330341 -0.17080317 -0.11584001 0.12266356 -0.36412647
-0.36526698 -0.43121937 -0.42491296 -0.2560932 0.23385242 0.22905144 0.24841987 0.28843978
0.30792463 0.25959972 0.3321052 0.24412233 0.2240177 0.33059576 -0.043526523 0.07204929
0.19663315 0.06738246 0.06680276 -0.31979752 -0.22109398 -0.22471468 -0.2253798 -0.20744444
-0.32960385 -0.37336195 -0.43995088 -0.33684614 -0.22085556 -0.07827798 0.11353969 0.24975511
0.10384109 -0.15508388 -0.17671837 0.1400631 0.2694788 0.029993884 -0.3523497 -0.17435607
0.17499514 0.28667915 0.019560117 -0.29286233 -0.1631032 0.0694774 0.2213471 0.043125454
-0.1927007 -0.10818838 0.06732118 0.19144204 0.14982928 -0.09257163 -0.18608746 -0.20044643
-0.23009655 -0.1467729 0.14246935 -0.18728814 -0.19123662 -0.15501271 0.0958937 0.28471777
-0.16497134 -0.16538537 -0.037530426 0.23681433 0.18444489 -0.21994483 -0.18966079 0.033719115
0.24914002 0.13714877 -0.2162773 -0.13730246 0.10632785 0.2628166 0.063064925 0.35628873
0.43855107 0.37795645 0.24875446 0.049174592 0.12697834 0.22147153 -0.009025098 -0.13541393
-0.39865026 -0.2333972 -0.17210631 -0.28304827 -0.33473688 -0.39739862 -0.45076123 -0.3058308
-0.35124156 -0.2549813 -0.19478995 -0.40813574 -0.27869233 -0.23588918 -0.03620257 0.0734516
-0.026050843 -0.017181829 -0.030390626 -0.010409757 0.1539632 -0.11168569 -0.10109737 -0.10233323
-0.0021053718 0.17771456 -0.11900263 -0.1496701 -0.18399344 0.0656746 0.2555596 -0.1546325
-0.20971894 -0.054076873 0.23935705 0.25536823 -0.16748615 -0.16430363 0.1000055 0.28750145
0.06581045 0.29866776 0.17593054 -0.038019862 -0.22482857 -0.39002776 -0.22052507 -0.43413407
-0.46439007 -0.3570459 -0.12871526 -0.45887703 -0.5584244 -0.25766748 0.009788371 0.32061225
-0.032005467 0.16121554 0.41893378 0.4551209 0.21390267 0.5320521 0.6344182 0.405661
0.097269036 -0.03168724 0.005474864 0.003092529 0.009272326 -0.049277022 -0.12827381 0.10617552
00000000: 7807 89be 0002 4cbd 424a 733e b328 0d3e
00000010: 8129 e4bc 17ef 8dbe 738e 623e 057c b73e
00000020: 19a1 6dbd 643f 57be 0503 acbd 4106 ad3e
00000030: 602d 2a3e 0758 50be 37ce 4abe f1b9 b73d
00000040: 1766 243e 073f 9dbd 57ce 2dbe c699 b6bd
00000050: 3366 ce3d 3cd5 e7bb 784c b3bd 5fe4 a4bc
00000060: 5b59 ee3c d139 45be c669 23be b23a 82be
00000070: 2b45 b5be 195a 42be 6e20 29be c74a 5bbe
00000080: a107 7cbe c709 a7bd 87a3 0c3e 842b 69be
00000090: fe9d 38be 991b 76bd 50ed 1f3e fca7 893e
000000a0: 2971 a1be 2fd3 17be ef2c 0f3e c0c6 7a3e
000000b0: 3f3e 0c3e d8c7 99be 6cc7 31be 273d 1f3e
000000c0: 3c3e 2e3e 7943 2b3e f3ca 08be b6fe afbd
000000d0: 9582 c33d a36c 713e 9799 603e 6628 3dbe
000000e0: 7648 d23d 14ac 7a3e d1d9 5e3e 4bf7 bcbc
000000f0: 2fe0 333e ca17 c53e dfab a23e 7095 21bd
00000100: d781 58be c98a df3e 9a9d 4b3e 4628 b2bd
00000110: 8cb8 1fbe 58b2 babd c76b 263e a2e8 85be
00000120: 6641 87be 5a4f e4bd ffa4 64bd 82f5 a13d
00000130: b7c6 a53d 0dfa 37bc 0a17 00bd a479 99bd
00000140: 2657 3e3e a404 853e 808a 943e b629 9f3e
00000150: d2d2 9d3e 185d 8a3d 2996 483e aed4 973e
00000160: 9dc7 863e e849 a03e c3ed 53be 7376 31be
00000170: 07e7 2ebe 873d edbd 0837 fb3d c96e babe
00000180: 4604 bbbe c9c8 dcbe 318e d9be a61e 83be
00000190: 0277 6f3e 768c 6a3e c761 7e3e 61ae 933e
000001a0: 4ca8 9d3e 41ea 843e b109 aa3e 34fb 793e
000001b0: e564 653e d943 a93e de48 32bd 948e 933d
000001c0: 335a 493e d1ff 893d e3cf 883d 80bc a3be
000001d0: 7666 62be 9b1b 66be f6c9 66be 516c 54be
000001e0: d6c1 a8be 4c29 bfbe 3e41 e1be 1977 acbe
000001f0: f627 62be 3550 a0bd 7f87 e83d cebf 7f3e
00000200: a3aa d43d 4fce 1ebe a9f5 34be b46c 0f3e
00000210: 20f9 893e bcb5 f53c 2e67 b4be 668a 32be
00000220: ed31 333e 9cc7 923e 8a3c a03c 0df2 95be
00000230: 8604 27be 2b4a 8e3d d0a8 623e 51a4 303d
00000240: 5553 45be df91 ddbd b0df 893d 6209 443e
00000250: d96c 193e 3296 bdbd b68d 3ebe d441 4dbe
00000260: 6e9e 6bbe a34b 16be 7ce3 113e 76c8 3fbe
00000270: 88d3 43be a7bb 1ebe eb63 c43d 87c6 913e
00000280: 3fee 28be c85a 29be 81b9 19bd 757f 723e
00000290: 1fdf 3c3e 3839 61be 7036 42be 0e1d 0a3d
000002a0: 901e 7f3e ba70 0c3e cc77 5dbe 0499 0cbe
000002b0: 6ac2 d93d e68f 863e 2f28 813d 7a6b b63e
000002c0: c489 e03e 8283 c13e 7db9 7e3e 4c6b 493d
000002d0: 9c06 023e 6fc9 623e 01de 13bc f3a9 0abe
000002e0: e31b ccbe adff 6ebe a33c 30be b4eb 90be
000002f0: a262 abbe d577 cbbe 2dca e6be db95 9cbe
00000300: efd5 b3be e98c 82be 0477 47be 2bf7 d0be
00000310: c3b0 8ebe ef8c 71be 2549 14bd cb6d 963d
00000320: 9468 d5bc e8c0 8cbc c3f5 f8bc af8d 2abc
00000330: 87a8 1d3e 78bb e4bd 230c cfbd 1694 d1bd
00000340: 47fa 09bb cefa 353e a7b7 f3bd 1e43 19be
00000350: c768 3cbe 6880 863d b5d8 823e fb57 1ebe
00000360: 90c0 56be b67f 5dbd 041a 753e a0bf 823e
00000370: 7d81 2bbe 363f 28be afcf cc3d 6433 933e
00000380: a1c7 863d fbea 983e 2327 343e b7ba 1bbd
00000390: 7639 66be b8b1 c7be 53d1 61be d246 debe
000003a0: 89c4 edbe b8ce b6be efcd 03be eef1 eabe
000003b0: e7f4 0ebf feec 83be 675f 203c 4a27 a43e
000003c0: 2a18 03bd b015 253e 7d7e d63e 9b05 e93e
000003d0: 4d09 5b3e 9134 083f 3b69 223f ccb2 cf3e
000003e0: fd34 c73d 7bca 01bd 7d66 b33b 07ac 4a3b
000003f0: f4ea 173c b4d6 49bd 365a 03be 8d72 d93d

conv1.bias f4 [32]
-0.13147311 0.09581749 -0.21910706 -0.0025246735 -0.0024139707 -0.16030842 -0.056968745 0.3484404
-0.07185873 -9.442901e-05 -0.09839386 -0.26197895 0.11613328 -0.0013124086 -0.05348262 -0.005301226
-0.3132846 -0.09505457 -0.22372162 0.1300089 -0.22026427 -0.16400582 0.060353007 -0.11251923
-0.22075433 -0.18576352 -0.013825288 -0.1979704 -0.2851494 -0.0012284728 -0.001036591 -0.045324124
00000000: e3a0 06be f63b c43d 9a5d 60be fe74 25bb
00000010: b533 1ebb e427 24be 0f58 69bd c866 b23e
00000020: ab2a 93bd 3008 c6b8 b882 c9bd 1b22 86be
00000030: 49d7 ed3d 2005 acba 9710 5bbd e8b5 adbb
00000040: d766 a0be f8ab c2bd 4817 65be 0e21 053e
00000050: f58c 61be 24f1 27be b734 773d 7b70 e6bd
00000060: 6c0d 62be cb38 3ebe 7683 62bc c1b8 4abe
00000070: 1aff 91be b504 a1ba 39de 87ba caa5 39bd

fc1.weight f4 [10, 1152]
-2.05221e-14 -3.505709e-05 -0.0012877615 -0.002638082 -0.02977298 0.0034373477 -1.5508716e-07 -0.0080666365
-0.0076027215 -0.024067339 -0.054127276 -0.045370243 2.4063174e-06 0.018870823 -0.02216778 -0.0014853347
-0.070076495 0.0012591304 -6.915172e-05 0.06623599 0.07792744 0.06536257 0.047040872 0.0055111586
0.0004996164 0.05140492 0.06948247 0.0043416545 0.0663693 0.063322574 -0.009160981 0.025669627
-0.019942537 -0.013092277 -0.030679194 -0.0082734525 -0.0055515175 -0.011707479 0.012715813 0.0034376073
0.040123146 0.0053046774 -0.005812997 0.007978214 -0.04510677 0.05172733 0.00049765164 0.0016638146
-0.012643934 0.028706532 0.019077769 0.023744483 -0.053549062 0.010923501 0.014386919 0.049197525
0.04695526 -0.03367071 -0.017244 0.03208055 0.027258007 -0.06362452 -0.016060926 0.05115463
0.029322963 0.021131389 -0.015140015 -0.023019124 -0.12746294 -0.036281846 -0.03493701 0.0020657687
-8.304212e-09 -0.001056309 -0.010339859 -0.003562109 -0.044350483 -0.0065713567 1.5313684e-06 0.00014332958
0.027781658 -0.07737231 -0.086946726 -0.039501727 -0.0037855816 0.030183125 -0.021600747 0.02540234
-0.14509721 -0.038425762 -0.0058857934 0.061592404 0.082596414 -0.0028337373 -0.044521283 0.0066317036
-0.006384992 0.011213016 0.016004702 -0.027999222 0.089474745 0.063232414 -0.008422444 -0.025367118
-0.016664827 0.035639543 -0.0044573913 -0.0005442422 5.5322716e-06 0.007489916 -0.007809085 -0.008731806
-0.0030393142 -0.00094630197 0.008069201 -0.027353056 -0.07020178 0.036895115 0.046204913 0.006291266
0.00054818083 -0.038777936 -0.08790071 0.024027027 -0.0094502065 -0.036569208 -0.003060729 -0.10259859
-0.13250421 -0.06440824 -0.08828198 0.043274105 -0.001102343 -0.02948816 -0.055972513 -0.030092634
-0.007234565 -0.011438344 0.007900201 -0.019581938 0.07566608 0.10086496 -0.017321298 -0.02231339
1.2253134e-06 -1.6143886e-05 0.0011581768 0.0015973154 -0.0018842709 -0.00050467515 0.007888589 -0.026247375
-0.09851975 0.022722991 0.0061244657 -0.025020914 0.007019707 -0.040678564 -0.030101918 0.053373586
0.016280953 -0.0789058 -0.012928791 -0.12583655 -0.12379999 -0.051573906 -0.13885584 0.01793176
-0.01726907 -0.08048106 -0.044878863 -0.017524624 -0.012014153 0.02789754 -0.009439083 -0.041312218
0.06275174 0.11930341 0.013630453 0.0021614307 5.7633955e-09 -0.0046967827 -0.010624536 -0.0038441287
-0.0059777703 0.0007049008 -7.016225e-07 -0.011990252 -0.019366086 -0.06542953 -0.007201488 0.026626842
-0.0003468372 0.013395544 -0.031769127 -0.027832467 0.04320487 0.060582686 0.00063149934 0.032084458
0.1038979 -0.005517079 0.044175476 0.07904239 0.0037335362 0.068904 0.122241065 -0.062664606
-0.0046785134 0.04543481 -0.008363909 0.070688814 0.050246768 -0.10113709 -0.12026181 -0.046608
-0.0055309786 -0.0074221264 -0.0048694205 -0.013442935 0.021070614 0.0041977945 -0.013531864 -0.0064573945
-0.050742574 0.013587381 -0.0063342163 -0.010791587 -0.03506222 0.012905536 0.03028664 0.00064375636
-0.029995525 0.02958844 0.0067094592 0.09164579 0.077173054 -0.027167572 0.063965514 0.080389224
0.05341886 0.021074548 0.034561634 0.031542465 0.0068536284 0.0407158 0.0013084337 -0.008943544
-0.07952944 -0.10076784 -0.10079849 -0.010247321 0.008831557 0.00645599 0.02032274 0.024794005
00000000: bed8 b8a8 440a 13b8 1bca a8ba ace3 2cbb
00000010: 77e6 f3bc 2045 613b 0986 26b4 ed29 04bc
00000020: 4020 f9bb de28 c5bc 90b4 5dbd 26d6 39bd
00000030: 387c 2136 fc96 9a3c 3499 b5bc 90af c2ba
00000040: 4484 8fbd 6809 a53a 8c05 91b8 bca6 873d
00000050: 6c98 9f3d d0dc 853d eead 403d f396 b43b
00000060: b0f8 023a f78d 523d d34c 8e3d 7044 8e3b
00000070: a1ec 873d 44af 813d f017 16bc 1c49 d23c
00000080: 885e a3bc fd80 56bc ef52 fbbc 608d 07bc
00000090: 81e9 b5bb bad0 3fbc fc55 503c 7b49 613b
000000a0: 2b58 243d dcd2 ad3b f47a bebb 0eb7 023c
000000b0: e0c1 38bd 09e0 533d d674 023a 5b14 da3a
000000c0: 8128 4fbc f629 eb3c fb48 9c3c ca83 c23c
000000d0: 4356 5bbd 7cf8 323c 1db7 6b3c 5883 493d
000000e0: 2954 403d 4cea 09bd 4a43 8dbc e566 033d
000000f0: 2f4c df3c 934d 82bd 3492 83bc 8487 513d
00000100: b636 f03c bc1b ad3c d30d 78bc 9a92 bcbc
00000110: a585 02be 469c 14bd 1c1a 0fbd d961 073b
00000120: 50aa 0eb2 d973 8aba 8368 29bc 4672 69bb
00000130: daa8 35bd 8954 d7bb 6b89 cd35 be4a 1639
00000140: 5c96 e33c 6075 9ebd 2011 b2bd 90cc 21bd
00000150: 8517 78bb 9a42 f73c 0df4 b0bc 9118 d03c
00000160: 5d94 14be 5564 1dbd 9ddd c0bb 5148 7c3d
00000170: 4f28 a93d 39b6 39bb f35b 36bd c34e d93b
00000180: 3239 d1bb ccb6 373c 4b1c 833c a05e e5bc
00000190: 893e b73d ff7f 813d 4afe 09bc b4ce cfbc
000001a0: ad84 88bc c5fa 113d 4f0f 92bb 7aab 0eba
000001b0: daa1 b936 f86d f53b 5ae3 ffbb d90f 0fbc
000001c0: 3b2f 47bb 4011 78ba af34 043c 8413 e0bc
000001d0: f3c5 8fbd 551f 173d 5d41 3d3d f726 ce3b
000001e0: cbb3 0f3a 9dd5 1ebd 4a05 b4bd 54d4 c43c
000001f0: 0ad5 1abc 98c9 15bd 8396 48bb 361f d2bd
00000200: 2faf 07be 78e8 83bd 2fcd b4bd 3040 313d
00000210: 7e7c 90ba 2791 f1bc 6f43 65bd d484 f6bc
00000220: ee0f edbb e467 3bbc d86f 013c 4d6a a0bc
00000230: d1f6 9a3d 4a92 ce3d 65e5 8dbc 92ca b6bc
00000240: 7375 a435 bb6c 87b7 f7cd 973a 035d d13a
00000250: a4f9 f6ba 2d4c 04ba 243f 013c bc04 d7bc
00000260: b9c4 c9bd 9125 ba3c beaf c83b a9f8 ccbc
00000270: 9205 e63b 919e 26bd 4c98 f6bc 439e 5a3d
00000280: a25f 853c 5d99 a1bd 48d3 53bc 4cdb 00be
00000290: d98a fdbd 293f 53bd 3a30 0ebe a0e5 923c
000002a0: dd77 8dbc 41d3 a4bd e6d2 37bd cd8f 8fbc
000002b0: 03d7 44bc 6289 e43c 62a6 1abc 0037 29bd
000002c0: fc83 803d 5955 f43d 4352 5f3c caa6 0d3b
000002d0: 5d07 c631 78e7 99bb 8912 2ebc c7ed 7bbb
000002e0: 2ce1 c3bb 18c9 383a 2257 3cb5 c372 44bc
000002f0: a0a5 9ebc ebff 85bd 76fa ebbb 8920 da3c
00000300: b3d7 b5b9 fc78 5b3c 5820 02bd ea00 e4bc
00000310: 97f7 303d 8d25 783d 348b 253a fe6a 033d
00000320: 6cc8 d43d 9dc8 b4bb 58f1 343d fae0 a13d
00000330: 58ae 743b 8a1d 8d3d 8659 fa3d 4d56 80bd
00000340: 374e 99bb da19 3a3d c708 09bc 4cc5 903d
00000350: 8ecf 4d3d f620 cfbd d34b f6bd 08e8 3ebd
00000360: 363d b5bb 4f35 f3bb a98f 9fbb c23f 5cbc
00000370: 489c ac3c a78d 893b c0b4 5dbc 8d98 d3bb
00000380: 72d7 4fbd 9b9d 5e3c 428f cfbb 32cf 30bc
00000390: 679d 0fbd be71 533c b01b f83c c2c1 283a
000003a0: 2db9 f5bc 7563 f23c 06db db3b cab0 bb3d
000003b0: e80c 9e3d 878e debc 5a00 833d 1ba3 a43d
000003c0: bccd 5a3d 88a4 ac3c 8090 0d3d ac32 013d
000003d0: 6794 e03b 9cc5 263d c07f ab3a f187 12bc
000003e0: 55e0 a2bd 5f5f cebd 706f cebd 61e4 27bc
000003f0: 3cb2 103c c58c d33b e07b a63c cc1c cb3c

fc1.bias f4 [10]
0.023991134 0.11740611 0.019660318 -0.074584424 -0.056484565 0.082243145 -0.040543497 0.03349449
-0.09336829 -0.018092314
00000000: 0e89 c43c 9d72 f03d ad0e a13c b8bf 98bd
00000010: 5c5c 67bd 186f a83d f010 26bd 8531 093d
00000020: e037 bfbd 5536 94bc
