checkpoints/epoch=14.checkpoint.pth.tar (torch, 54992 bytes, 4 tensors)

conv1.weight f4 [32, 1, 5, 5]
00000000: be27 8abe 3f9f 56bd d54e 773e c7c5 093e
00000010: 9519 08bd 92a2 8fbe db39 653e 77b5 b93e
00000020: 8984 88bd 6723 5ebe f82a a8bd d5de af3e
00000030: d90c 273e 48ec 5cbe 3b6a 4bbe 65fa c23d
00000040: 0971 2d3e 6223 a1bd 6868 30be 0907 babd
00000050: 65a1 e53d ef03 83bb e621 bebd 5725 c5bc
00000060: 743d d33c 4621 40be 8f5c 18be 3463 7ebe
00000070: 190c b9be e9b8 51be a0f5 1cbe a294 4cbe
00000080: 3b6e 80be bba7 c9bd 49c4 093e b0fd 5cbe
00000090: 9bb3 31be c634 6cbd 99ad 1e3e 2e67 8d3e
000000a0: ebd6 9cbe 6944 13be 9072 133e 1155 7f3e
000000b0: 21b4 193e 4610 96be 08e0 27be a9b3 253e
000000c0: 93c2 373e 26c7 2f3e 2ca5 0cbe b9d9 b6bd
000000d0: 39c6 c03d 6567 773e 47ce 673e b9e4 42be
000000e0: ec8f cf3d aff6 7a3e c646 5b3e 8a25 e8bc
000000f0: b6ba 2d3e 9bc0 c43e 933c a13e d82d 28bd
00000100: 0cb8 57be 3455 e13e 2257 503e 5c49 bdbd
00000110: 5b9d 1dbe 2573 b2bd bb58 263e a1f7 87be
00000120: a809 8bbe f5fd dfbd 1a6d 56bd 29e1 ae3d
00000130: 68e6 ac3d 104d 24bc 4033 17bd 6eaf acbd
00000140: 4078 4b3e 4933 8b3e ee39 983e b401 a33e
00000150: a504 9f3e 8b58 8f3d 7285 533e 6f93 9a3e
00000160: 929b 8a3e f184 a03e 153d 56be 421b 24be
00000170: 925b 30be 3895 f2bd d3cd e93d 1e32 b7be
00000180: c1a3 b6be 4199 ddbe 1191 dabe 8c59 83be
00000190: cf98 6d3e f395 6b3e a6cc 7b3e e877 933e
000001a0: c847 9f3e a2bc 873e e3a9 aa3e 1ad4 803e
000001b0: 2b37 713e 0173 aa3e ad19 30bd 6faf a23d
000001c0: 3165 493e 5b62 883d 6c49 643d 229a a2be
000001d0: 214b 60be 7e76 67be ea01 68be 66a0 57be
000001e0: 38c2 a7be 2c02 bfbe 4d36 e0be 70dd adbe
000001f0: c22e 66be 045c a0bd ead0 ee3d 8a60 803e
00000200: 4de3 cf3d 2c4b 24be c4af 34be 16f2 0c3e
00000210: c42d 8c3e 2de3 d83c 4e33 b5be 92f1 3cbe
00000220: c097 2e3e 5fdd 953e 5041 b13c 9834 97be
00000230: 2f8b 2ebe 26a3 963d 768e 673e 4ac0 343d
00000240: 05de 4cbe 483d f0bd c33c 8d3d 5e0f 483e
00000250: 2c61 153e 8145 ccbd 29f4 3dbe 750f 4dbe
00000260: 6db1 68be e0e8 13be 318a 113e 91c1 3ebe
00000270: 3798 44be 302c 19be 0788 b73d 1993 8f3e
00000280: a6ee 2cbe 7d62 27be 487b 0ebd 52ce 6c3e
00000290: 0f98 3d3e 9e0e 5dbe 1d67 3cbe d8df 2d3d
000002a0: f543 7c3e 634a 0e3e e7e9 4ebe 25b5 09be
000002b0: 7de2 de3d 70da 853e 44e9 873d 6815 b53e
000002c0: d23a e03e f9a8 bf3e 0133 803e 5a43 393d
000002d0: a737 f13d 5ed0 5b3e 7a74 54bc b13a 0ebe
000002e0: 5620 cebe fd2a 77be 3ced 33be b713 8dbe
000002f0: 9658 a5be 2d3a c5be 6088 e4be 6a75 93be
00000300: 542e acbe e969 76be cf7c 40be 4d22 ccbe
00000310: d335 88be 7435 69be 3d8d 19bd a3a6 883d
00000320: 4520 b0bc 62e2 85bc d6dc eebc c646 d7bb
00000330: 7780 1d3e cf86 ebbd ccb8 d8bd 4e7f cebd
00000340: c0cd b5bb 2ed7 333e 9f1c ffbd 4929 1dbe
00000350: 9719 35be 0d84 793d fea0 7d3e be27 25be
00000360: 0876 58be e411 75bd bb5b 6d3e 1616 7d3e
00000370: 1fbc 24be fd7d 21be 494a c83d fdb9 903e
00000380: 4546 8b3d 10fa 963e 4b41 3a3e 1511 0abd
00000390: 1030 61be 8250 c8be 7354 5dbe 0561 dabe
000003a0: 5aaf edbe b41e b7be 622e 10be 1f76 ecbe
000003b0: 60ab 0ebf b85f 84be 26b4 de3b a46e a13e
000003c0: 8090 31bd 6f5f 1c3e bb03 d53e d92b e73e
000003d0: ee09 5d3e fb6b 063f ef62 213f d455 ce3e
000003e0: 91b5 bf3d 77b0 11bd 38c5 ff3b 8e52 983b
000003f0: 8103 b13b 27c2 48bd f736 febd 9815 e13d
-0.26983446 -0.052397963 0.24151166 0.13454352 -0.033227522 -0.2805372 0.22385351 0.3627126
-0.06665904 -0.21693192 -0.08211321 0.34349695 0.16313495 -0.21574509 -0.19864742 0.09520415
0.1693765 -0.07868077 -0.17227328 -0.09083373 0.11212424 -0.0039982717 -0.09283809 -0.024065657
0.02578614 -0.18762693 -0.14879058 -0.2484253 -0.36142042 -0.20480694 -0.15328074 -0.19978574
-0.250841 -0.09846445 0.13453783 -0.21581149 -0.1735367 -0.057667516 0.1549591 0.27617782
-0.3063272 -0.14381565 0.14399171 0.24934794 0.1501012 -0.2930929 -0.16394055 0.16181816
0.17945318 0.17165813 -0.13734883 -0.08928246 0.09412808 0.24160536 0.22637282 -0.19032563
0.10134873 0.24508165 0.21413717 -0.028338213 0.16965756 0.38428196 0.31491527 -0.041059345
-0.21066302 0.44010317 0.20345739 -0.09242508 -0.15392058 -0.08713368 0.16244785 -0.26556113
-0.27155805 -0.1093711 -0.05235014 0.0853904 0.08442384 -0.010028139 -0.03691411 -0.08431898
0.1987009 0.27187565 0.29731697 0.31837237 0.3105823 0.0699931 0.20656374 0.30190608
0.27071816 0.31351426 -0.20921738 -0.16026023 -0.17222431 -0.118448675 0.11416211 -0.35780424
-0.3567181 -0.43280986 -0.42688802 -0.25654256 0.23202823 0.2300642 0.24589786 0.2880242
0.31109452 0.26511103 0.33332738 0.2516182 0.23556201 0.33290866 -0.042993236 0.079436176
0.19667508 0.06659385 0.055734083 -0.3175822 -0.2190366 -0.22603795 -0.2265698 -0.21057281
-0.32765365 -0.37306345 -0.43791428 -0.33958006 -0.22478774 -0.078300506 0.11660941 0.25073653
0.10150776 -0.16044301 -0.17645174 0.13764223 0.27378666 0.026475513 -0.35390705 -0.18451527
0.17050076 0.29270455 0.021637589 -0.29532313 -0.17045282 0.07355337 0.22612938 0.044128694
-0.20006569 -0.117304385 0.06896355 0.19537112 0.1458785 -0.09974194 -0.18550171 -0.20025428
-0.22723933 -0.14444304 0.14212872 -0.18628527 -0.1919869 -0.14958262 0.08961492 0.28041914
-0.16887912 -0.16346164 -0.03478554 0.2312558 0.18515037 -0.21587607 -0.1839871 0.042449802
0.24635299 0.13895564 -0.20206414 -0.13448007 0.10883043 0.26143217 0.06636289 0.35367894
0.43794876 0.37433603 0.25038913 0.045230247 0.11778193 0.21466205 -0.012967223 -0.13889576
-0.40259045 -0.24137492 -0.17570966 -0.27554104 -0.32294148 -0.38520947 -0.44635296 -0.28800517
-0.33629096 -0.24063839 -0.1879761 -0.3986992 -0.26603565 -0.22774297 -0.03748821 0.066724084
-0.021499762 -0.0163433 -0.029158037 -0.006569716 0.15381037 -0.11500322 -0.10582122 -0.10082875
-0.005548209 0.17562553 -0.12456631 -0.1534778 -0.17685543 0.06091695 0.24768445 -0.16128442
-0.21138775 -0.059831515 0.23179524 0.24715456 -0.16087388 -0.15770717 0.09779794 0.28266898
0.06800512 0.29487658 0.1818897 -0.033707697 -0.2199099 -0.39123923 -0.21614246 -0.42652145
-0.46422845 -0.35765612 -0.14080194 -0.4618387 -0.5573025 -0.25854278 0.0067963777 0.31529725
-0.043350697 0.1527078 0.4160441 0.4515064 0.21585819 0.52508515 0.63041586 0.40299857
0.09360803 -0.03556868 0.0078054927 0.004648513 0.005402029 -0.049013283 -0.124128275 0.10990447

conv1.bias f4 [32]
00000000: 375d 0ebe 6446 c73d 5d55 6dbe da69 21bb
00000010: eaf8 7dbb 09ab 23be 969d 71bd fbbd b53e
00000020: 40dd 9cbd bef0 11bb f29a cbbd 3c83 8abe
00000030: 372f e53d f552 adba 3981 85bd 3593 81bb
00000040: b087 9ebe 687e c8bd 1f9b 6bbe f0ee 033e
00000050: 50b9 66be 00e3 2fbe 202c 393d b120 f5bd
00000060: 5f36 64be d25c 3fbe 4e26 dcbc e239 54be
00000070: 1a2a 95be 9660 14bb 56f3 213b 7bce 4dbd
-0.13902746 0.09730223 -0.23177095 -0.0024629743 -0.00387531 -0.15983213 -0.058988176 0.35496506
-0.076593876 -0.0022268738 -0.09941663 -0.2705325 0.11190646 -0.0013223576 -0.06518788 -0.003954316
-0.30962896 -0.09789735 -0.23008393 0.12884116 -0.22531629 -0.17176437 0.045208097 -0.11969126
-0.22286366 -0.18687752 -0.026873734 -0.20725206 -0.29133683 -0.0022640578 0.002471169 -0.050245743

fc1.weight f4 [10, 1152]
00000000: b216 8193 0e9e aab8 18ee e3bb 90d6 e5bb
00000010: 7626 05bd 8192 2d3b 495a 1638 f062 e1bb
00000020: ea3d afbb ae8a e2bc bb91 76bd a7b8 47bd
00000030: fb49 6fb6 6e26 db3c 7543 bfbc ac86 00bc
00000040: 62ec 88bd 60c5 f73b 32ce 0bb8 d395 9c3d
00000050: 1b4c 973d 3574 a13d 9d03 423d 42c5 e63b
00000060: 2cbf a63b 0b7b 4c3d 2a7a 8a3d 3d99 e83b
00000070: 4ec2 843d a7f8 943d abd9 013b 0012 0a3d
00000080: 6991 a1bc a3ed 9bbc 6a58 02bd f0cb 41b8
00000090: 795e a2bb 77fa 81bc 80ff 1c3c 6252 ff39
000000a0: 4e0f 073d a842 1e3a aa2b 56bb 57c8 6a3c
000000b0: 8df8 3ebd 1c74 443d 5ab7 9dba f2de e7ba
000000c0: 8ef4 64bb f6d8 033d de4c 2b3c 29e9 f93c
000000d0: 9b49 64bd 78ad 123c 6449 d73c faa1 353d
000000e0: b63a 3d3d 690e 05bd e3db a3bc 04aa d63c
000000f0: 27f8 083d 5ae8 93bd f162 3ebc f960 383d
00000100: 4552 023d b249 6c3c 326a 71bc 511c c6bc
00000110: a19e 06be 2f59 13bd e390 f5bc 1f5e 89bb
00000120: 0b6d 87b4 2878 05b9 c9df 69bc 1b30 f4bb
00000130: 2aae 35bd 7e07 efbb d72e 4db8 b4f2 e3bb
00000140: 4316 fb3c cddc a3bd ba0f c2bd 05a9 30bd
00000150: becc f3ba 0851 253d c955 acbc 620d cc3c
00000160: 0837 10be ecb8 1bbd c4f3 1e3a 3b0f 963d
00000170: e030 9f3d 3d12 e43b e792 2bbd 4b22 c63b
00000180: 428e 90bb 3855 7e3c 9364 8e3c 8581 c7bc
00000190: 956d b63d 3ff3 913d bc29 4cbb 23eb b8bc
000001a0: 4686 7abc 10e9 fa3c 7b83 8dbb 44d1 083c
000001b0: 5637 1f3a bbc9 053a 0a6d 50bc ce5c 4abc
000001c0: e5b7 2dbb bd31 bfba 08ed b438 9c8f 12bd
000001d0: 9d03 9cbd 6ab6 023d bcb6 313d bf75 8939
000001e0: 018a 363c eac1 e3bc fb2a a5bd 3b50 c63c
000001f0: df49 28bc 40e5 edbc 1c64 f03b b6ff c5bd
00000200: 990a 06be 7bfd 6cbd 3579 9ebd d5e3 2c3d
00000210: 8066 f43b 97bd e9bc 4ad2 67bd 0483 c7bc
00000220: cc6b 98bb e35f 3abc 6bf1 693c 6152 88bc
00000230: 1d7b 9a3d fa72 d13d d0b0 5cbc 9985 78bc
00000240: 26d1 ab38 aa7e 51b9 d81d 0038 9787 0cba
00000250: ab4e 6aba b62c 69ba 7f70 07bb 73de 15bd
00000260: 4822 d2bd ec48 923c c49b 633b bd8e 04bd
00000270: c505 133c 1bd4 eebc 6900 babc 4d34 5e3d
00000280: 7a0f 823c 98df 97bd c538 79b8 55e7 e8bd
00000290: e114 fbbd 91c0 2fbd 2894 01be e006 853c
000002a0: 427d a8bb 5d84 9fbd d288 31bd c3d8 58bc
000002b0: a198 20bc 9c6d f73c 8b51 bfba 5f76 21bd
000002c0: 41db 813d f5af f83d 7b8a 8a3c a457 0f3c
000002d0: 16a3 0eb2 db74 21bb d0b3 60bc 4842 bfbb
000002e0: c406 2bbc bac0 14bc 5463 0333 4bd1 30bc
000002f0: ee5a c2bc 3577 99bd c9e0 30bc 34af c43c
00000300: 9dbe 4239 85ee a13c 77a0 16bd 23e9 0ebd
00000310: 8870 2e3d 2d5b 853d 602c 96b9 601a 183d
00000320: e5f7 bf3d e183 a73a 40fe 363d d18a b63d
00000330: a4ce 1d3c b2f6 913d f749 ec3d 9bda 88bd
00000340: e2f3 3fbc 4c30 6b3d ba5a 503b c83f 973d
00000350: b087 3e3d 8cb6 f1bd 6fc8 f9bd 9c91 19bd
00000360: 84bd cdba 8e46 3ebc 305b 01bc fcf0 8fbc
00000370: 028a 693c 2097 02ba 3d12 fabb 7ee1 3abb
00000380: 8b5b 5ebd 0ca4 173c e81c 18bc c914 4ebc
00000390: e33f 93bc e434 8e3c 30bd aa3c 28fd 773b
000003a0: e459 00bd da3c fb3c e002 a93c 20d2 b43d
000003b0: 0b0e 9c3d d955 b6bc 36a4 823d d9a9 9a3d
000003c0: c5f6 803d 362e 793c 1f5a 0a3d 3b5f bb3c
000003d0: 6a9b 523c 5793 2b3d f4e2 243c 5d69 13bc
000003e0: 2ab8 b2bd 726a ddbd 31cc babd f14c 9cbc
000003f0: 0155 043c d68d be3b eeaa 993c 9132 bf3c
-3.2586557e-27 -8.135672e-05 -0.006955873 -0.0070141032 -0.032507382 0.0026485028 3.584687e-05 -0.0068782493
-0.005347957 -0.027654018 -0.060197573 -0.048760083 -3.5656838e-06 0.026751723 -0.023347596 -0.007844608
-0.066857114 0.0075613707 -3.3332217e-05 0.07645764 0.07387563 0.07883493 0.047366727 0.007042558
0.0050887074 0.04992203 0.06761582 0.0070983456 0.06482373 0.07273989 0.0019813578 0.033708572
-0.019722657 -0.019034212 -0.0318226 -4.6204717e-05 -0.0049551097 -0.015866501 0.0095824 0.0004869877
0.03297358 0.0006037154 -0.0032679834 0.014329991 -0.046623755 0.047962293 -0.0012032792 -0.0017690344
-0.0034935805 0.032189332 0.010455338 0.030506687 -0.05573426 0.008952491 0.026280113 0.044343926
0.04619857 -0.032484446 -0.020002311 0.026204117 0.03343978 -0.07222052 -0.011620269 0.045014355
0.03181674 0.014421867 -0.014734792 -0.024183424 -0.1314645 -0.035973724 -0.029976314 -0.0041921283
-2.522505e-07 -0.0001272863 -0.014274546 -0.0074520237 -0.04435555 -0.0072945943 -4.891943e-05 -0.0069564227
0.030650264 -0.08001099 -0.09475656 -0.04312994 -0.0018600447 0.04036048 -0.021037 0.024908725
-0.14083493 -0.038018152 0.00060635456 0.07327124 0.07772994 0.006960182 -0.041888144 0.0060465685
-0.0044114897 0.015523247 0.017381942 -0.024353752 0.0890762 0.07126474 -0.0031152805 -0.02257306
-0.015290802 0.030628711 -0.004318652 0.008350674 0.00060736143 0.00051036075 -0.012721309 -0.012351228
-0.0026507315 -0.0014586967 8.627219e-05 -0.035781488 -0.07617877 0.031912245 0.04338716 0.00026218404
0.011141301 -0.027802426 -0.080648385 0.024208179 -0.0102715185 -0.029039979 0.0073361527 -0.096679136
-0.1308998 -0.057858925 -0.07737962 0.042209465 0.007458508 -0.028532786 -0.05659703 -0.024354465
-0.0046515223 -0.0113754 0.01427875 -0.016640844 0.07543013 0.10227008 -0.01346989 -0.015168571
8.192872e-05 -0.00019978979 3.0545372e-05 -0.00053607806 -0.0008938114 -0.0008894907 -0.0020666418 -0.036589097
-0.10260445 0.017857037 0.0034730295 -0.03236269 0.0089735435 -0.029153874 -0.022705274 0.054249097
0.01587652 -0.07415694 -5.9419097e-05 -0.11372248 -0.12259842 -0.042908255 -0.12654173 0.01623863
-0.005141885 -0.07788918 -0.043343373 -0.013235274 -0.009802015 0.030203633 -0.0014596445 -0.039419528
0.063406475 0.12142936 0.016911736 0.0087489225 -8.302569e-09 -0.0024636302 -0.013714746 -0.0058367588
-0.010438625 -0.009079153 3.0591153e-08 -0.010792087 -0.023725 -0.0749344 -0.01079578 0.024009325
0.0001857229 0.019767055 -0.036774125 -0.034890305 0.042587787 0.06511531 -0.0002864329 0.03713453
0.09373454 0.0012780392 0.044676065 0.08913196 0.0096317865 0.071271315 0.11537545 -0.06682321
-0.011715861 0.057419106 0.0031792358 0.07385212 0.04651612 -0.11802396 -0.12196433 -0.03749238
-0.0015696739 -0.011613501 -0.007895276 -0.017570965 0.014254095 -0.0004981626 -0.0076315687 -0.0028515751
-0.05428652 0.00925542 -0.009284236 -0.012578198 -0.0179748 0.017359205 0.020842165 0.0037840102
-0.031335726 0.030668665 0.020631254 0.08829141 0.07619866 -0.022257732 0.06378977 0.07551927
0.062970676 0.015208771 0.033777352 0.022872558 0.012854436 0.04188856 0.0100638755 -0.0089972885
-0.08726533 -0.108113185 -0.09120978 -0.019079657 0.008076907 0.005815248 0.018758263 0.023339542

fc1.bias f4 [10]
00000000: 124f c23c 4302 f83d 6e6a 943c 679e 99bd
00000010: c48d 68bd a41f ab3d 453f 2dbd 99b9 0b3d
00000020: e4cd c1bd 033f 8fbc
0.023719344 0.121098064 0.018117156 -0.07500916 -0.056775823 0.08355644 -0.042296667 0.034112547
-0.09463099 -0.017486101
