checkpoints/epoch=9.checkpoint.pth.tar (torch, 75230 bytes, 6 tensors)

conv1.weight f4 [8, 1, 3, 3]
0	0x3eaaa762	0.33330828
1	0x3ee6751f	0.4501123
2	0x3ee53d6f	0.44773433
3	0x3e039769	0.12850727
4	0x3db48140	0.08813715
5	0x3ea03f08	0.3129809
6	0xbf3c9f94	-0.73680997
7	0x3ac49371	0.0014997554
8	0xbe3cb81b	-0.18429606
9	0xbdcf8d51	-0.10134376
10	0x3e90de07	0.28294393
11	0x3b9cf61d	0.004790081
12	0xbe3e9995	-0.18613274
13	0x3f0a94a2	0.54133046
14	0x3c982688	0.01857306
15	0x3eda49e9	0.42634514
16	0x3eabdb29	0.33565643
17	0x3dc64e89	0.09682948
18	0x3ee28a49	0.44246128
19	0x3d10e47d	0.035374153
20	0xbee582e0	-0.44826412
21	0x3eba7cec	0.36423433
22	0x3ecc1197	0.3985717
23	0xbe6253a4	-0.22102219
24	0xbe0a54a1	-0.13508846
25	0x3eef0038	0.46679854
26	0x3f02006c	0.50781894
27	0xbefb6ad4	-0.4910494
28	0xbea11b7b	-0.31466278
29	0x3ee47b60	0.44625378
30	0x3e9aeaf0	0.30257368
31	0x3f14cca1	0.5812474
32	0x3ede6ae0	0.43440914
33	0x3d7b80dd	0.06140219
34	0x3e1945fc	0.14968103
35	0x3e792967	0.243322
36	0x3e47efac	0.19525021
37	0xbeec2071	-0.461185
38	0xbf63d435	-0.8899568
39	0x3f51af36	0.81907976
40	0x3ce49d29	0.027906971
41	0xbe2d4f69	-0.16924824
42	0x3ed84b07	0.4224474
43	0x3f1a440a	0.6026007
44	0x3caaf8b8	0.020870551
45	0xbde5eb96	-0.11226575
46	0x3cf5c090	0.029999048
47	0x3eccc81d	0.39996424
48	0x3f493351	0.7859393
49	0x3f128294	0.57230496
50	0xbe34cf62	-0.17657235
51	0x3eb3993c	0.35077846
52	0xbee3d1c7	-0.44495985
53	0xbf37f472	-0.7185737
54	0x3ee05f97	0.4382293
55	0x3f0b4f30	0.54417706
56	0x3f0d9b3f	0.5531501
57	0x3efece18	0.49766612
58	0xbd0df35b	-0.03465591
59	0xbe082dfa	-0.13298789
60	0xbf31e04a	-0.6948286
61	0xbf6566dd	-0.8961008
62	0xbefdab31	-0.4954467
63	0xbedef5e9	-0.4354699
64	0xbe3333bf	-0.17500208
65	0x3f0e536f	0.5559606
66	0xbf0ed3da	-0.5579201
67	0xbdfad1a0	-0.12247014
68	0x3eac26a1	0.33623222
69	0xbee401d6	-0.4453265
70	0x3e093eeb	0.13402908
71	0x3f25ef72	0.6481849

conv1.bias f4 [8]
0	0xbd3c5e7b	-0.04598854
1	0xbe547d99	-0.20751037
2	0xbeec34db	-0.46134076
3	0xbe478c6b	-0.19487159
4	0x3ce924e2	0.02845997
5	0xbd261c90	-0.040554583
6	0x3e2fc1b9	0.17163743
7	0xbb66de2c	-0.003522764

conv2.weight f4 [32, 8, 3, 3]
0	0xbefebbee	-0.49752754
1	0xbe517bce	-0.20457384
2	0xbebd3f2f	-0.36962268
3	0xbe93369d	-0.28752604
4	0xbd1b5b14	-0.037928656
5	0x3e6a3a85	0.22873886
6	0x3bd03f6b	0.0063552163
7	0x3e85f700	0.2616501
8	0x3e67bc94	0.2263053
9	0xbef81b78	-0.48458457
10	0xbe93f579	-0.28898218
11	0xbc47e240	-0.012199938
12	0xbe04d26f	-0.12970899
13	0x3e44094c	0.19144171
14	0x3e7f9523	0.24959235
15	0x3e1f1482	0.15535167
16	0x3cb70166	0.022339534
17	0xbe5acc5b	-0.21367018
18	0xbed2f989	-0.41206005
19	0xbd361361	-0.044452075
20	0xbd76f870	-0.060295522
21	0xbd714e58	-0.058912605
22	0xbc7aa95e	-0.015299169
23	0xbddb8225	-0.107181825
24	0xbe56edaa	-0.20989099
25	0x3d0e5985	0.03475334
26	0xbd88ed24	-0.06685856
27	0xbe6c7e9c	-0.23095173
28	0xbe732ddc	-0.23747963
29	0x3dd8c9dd	0.10585377
30	0xbe7ea83d	-0.24868865
31	0x3e176bc4	0.14787203
32	0x3e993d62	0.29929644
33	0x3e468be7	0.19389306
34	0x3d942162	0.0723293
35	0xbc037de9	-0.008025625
36	0xbdf53829	-0.11973602
37	0xbe1c9ee1	-0.15294982
38	0xbc477b4a	-0.0121753905
39	0xbe9efe3c	-0.3105334
40	0x3b848676	0.0040443493
41	0xbe19db46	-0.15025052
42	0x3d4d2041	0.050079588
43	0xbe31e34f	-0.17371868
44	0xbebd1da5	-0.3693668
45	0xbefe6aa0	-0.49690723
46	0xbebfb4f6	-0.3744275
47	0xbeab651f	-0.33475587
48	0xbe993566	-0.29923552
49	0x3dbc9f9d	0.09210131
50	0x3e999555	0.29996744
51	0x3ebfd89f	0.37469956
52	0x3ee0ab29	0.43880585
53	0x3e1a9ce9	0.15098919
54	0xbdbb9fa5	-0.09161309
55	0x3d62b137	0.055344786
56	0xbec84515	-0.39115205
57	0xbe4b364c	-0.19844931
58	0xbed35568	-0.41276097
59	0x3e85dc92	0.26144844
60	0x3c9095f7	0.017649634
61	0x3ec08484	0.376011
62	0x3ea62829	0.32452515
63	0xbea43c30	-0.3207717
64	0xbe3b8ebb	-0.18316166
65	0xbd8b8ac3	-0.06813576
66	0x3ec37a32	0.38179165
67	0x3e6b9358	0.23005426
68	0xbeb4d967	-0.35322115
69	0xbd86458c	-0.06556234
70	0xbe2272bc	-0.1586408
71	0xbe59c3fe	-0.21266171
72	0xbe278535	-0.16359408
73	0xbe73e0c4	-0.2381621
74	0xbd6e97e1	-0.05825031
75	0x3e22581a	0.1585392
76	0x3ddee068	0.10882646
77	0xbe8f3955	-0.27973428
78	0x3e11ff05	0.14257438
79	0x3e590ee7	0.21197091
80	0x3dca7f32	0.09887542
81	0x3d1b3999	0.037896726
82	0xbe5e7944	-0.21725947
83	0xbea98f99	-0.3311737
84	0xbe07cf25	-0.13262613
85	0x3d917df4	0.07104102
86	0xbe41130b	-0.1885492
87	0xbdcd658b	-0.100291334
88	0x3e13115c	0.14362091
89	0x3dae9294	0.08524051
90	0xbe6b070d	-0.22951908
91	0xbe64795c	-0.2231192
92	0xbea062e2	-0.31325442
93	0x3e23e621	0.16005756
94	0x3e6c2a2e	0.23062965
95	0x3cf53e3f	0.029936908
96	0xbe79d3ec	-0.24397248
97	0x3e340329	0.1757933
98	0x3e1d8415	0.15382417
99	0xbd9b240b	-0.07575234
100	0xbe73c44f	-0.23805355
101	0xbed58524	-0.4170314
102	0x3ddc9d2f	0.10772168
103	0x3e1bc1e6	0.15210685
104	0xbe19cf35	-0.1502045
105	0xbd430ca1	-0.047619466
106	0x3e0d77aa	0.1381518
107	0xbdb2feea	-0.08740027
108	0x3ce4c6a8	0.027926758
109	0xbd476ef2	-0.04868979
110	0xbe088c3f	-0.1333475
111	0x3eb78ab8	0.35848022
112	0x3ec503df	0.38479516
113	0x3ee3789b	0.44427952
114	0xbee97379	-0.4559591
115	0x3e28432d	0.16431876
116	0x3ecfd580	0.40592575
117	0xbe94fc40	-0.290987
118	0xbed55c8a	-0.41672164
119	0xbdd2faf6	-0.10301773
120	0x3e5dc9ad	0.21658964
121	0x3cc6ef0b	0.024283906
122	0xbe893b04	-0.26802838
123	0x3e29dcf3	0.16588192
124	0x3e02a826	0.12759456
125	0xbdd6ae97	-0.10482519
126	0x3e0e88e5	0.13919409
127	0x3e040f5b	0.12896483
128	0x3d84a354	0.06476465
129	0xbd62b042	-0.055343874
130	0xbc901df7	-0.017592413
131	0xbd8b3cba	-0.06798692
132	0x3eba4ca3	0.36386594
133	0x3e54f69a	0.20797196
134	0xbe83e412	-0.2575994
135	0xbf397b36	-0.7245363
136	0xbe732e50	-0.23748136
137	0xbec4939e	-0.38393873
138	0xbedbd761	-0.4293776
139	0xbd37516a	-0.044755377
140	0xbf106b29	-0.56413513
141	0xbc9d6bf8	-0.019216523
142	0xbd227e7e	-0.039671414
143	0xbcdb48c0	-0.026768088
144	0xbe38d990	-0.18051744
145	0xbdc55ba0	-0.09636617
146	0x3d22d3f2	0.039752908
147	0x3d848468	0.06470567
148	0xbe02c78f	-0.12771438
149	0x3d20e856	0.039284073
150	0xbd901963	-0.07036092
151	0x3e29de64	0.16588742
152	0xbe170fbc	-0.14752096
153	0xbc977732	-0.018489454
154	0x3dd5e216	0.10443513
155	0x3df63821	0.120224245
156	0xbc51f7fb	-0.012815471
157	0x3e0a28d9	0.13492145
158	0xbdfec7e9	-0.124404736
159	0xbdecece7	-0.11568623
160	0xbdcd70b4	-0.10031262
161	0xbc32a693	-0.010903972
162	0x3c02364b	0.007947515
163	0xbe442e1d	-0.19158216
164	0xbd0e31cd	-0.034715462
165	0x3e04506a	0.129213
166	0x3d85231a	0.06500836
167	0x3ce26bba	0.027639259
168	0xbe27c299	-0.16382827
169	0x3e231c0f	0.15928672
170	0x3e89bfb5	0.26904073
171	0x3cb3e3e2	0.021959249
172	0x3cfb6aee	0.030690636
173	0x3d196d03	0.037457477
174	0x3c9679c6	0.018368613
175	0x3d947f36	0.07250826
176	0xbe36d7d6	-0.17855772
177	0xbde4d2ef	-0.11173045
178	0xbe7b6eac	-0.24553937
179	0x3e15d643	0.14632516
180	0x3e30bb9a	0.17259064
181	0xbe81834e	-0.2529549
182	0xbe8febbf	-0.28109547
183	0xbdb0f903	-0.08641245
184	0x3c06c604	0.008225922
185	0x3e1f0e0d	0.15532704
186	0xbeaf0f44	-0.34191334
187	0x3da77e64	0.08178404
188	0x3e803f6e	0.25048393
189	0x3e38bcb5	0.18040736
190	0x3e8bc8ee	0.27301735
191	0x3ec6b6a0	0.38811207
192	0xbb75d003	-0.0037508018
193	0x3d843013	0.06454482
194	0x3ba19285	0.0049307966
195	0x3dea2ac2	0.11433937
196	0xbebdc42f	-0.3706374
197	0x3d26b37d	0.040698517
198	0xbdcffe36	-0.10155909
199	0xbebb462d	-0.36576977
200	0x3e890401	0.26760867
201	0xbe6a1c5e	-0.22862384
202	0x3c8d65f7	0.017260535
203	0xbdd33fa9	-0.103148766
204	0x3e47269a	0.19448319
205	0x3dc10d02	0.09426309
206	0xbea853c6	-0.32876414
207	0x3db45d24	0.08806828
208	0x3d2409e9	0.040048514
209	0xbeef0633	-0.46684417
210	0xbe30cdda	-0.17266026
211	0xbeca2c84	-0.39487088
212	0xbe98cab2	-0.29842144
213	0xbde1bd8d	-0.11022482
214	0x3d8b3e46	0.06798987
215	0xbded2282	-0.115788475
216	0xbd9a109a	-0.07522698
217	0x3dbe8307	0.09302335
218	0x3d98b853	0.07457032
219	0x3e161a45	0.14658459
220	0xbc1c990e	-0.009557975
221	0xbc55bc97	-0.013045452
222	0xbe243f26	-0.16039714
223	0xbe96f0b1	-0.29480508
224	0x3bc5dac1	0.0060380404
225	0xbcfd5dde	-0.030928548
226	0x3db430be	0.08798359
227	0x3dbefef3	0.093259715
228	0xbda4043b	-0.080086194
229	0xbe94a8d4	-0.29035056
230	0xbc9966d7	-0.018725796
231	0xbda5d113	-0.08096518
232	0xbd5cf360	-0.053943038
233	0xbdd0af4a	-0.10189684
234	0x3e38e9e7	0.18057977
235	0x3dea6f18	0.11446971
236	0x3ea071f5	0.31336942
237	0xbe556512	-0.20839337
238	0xbe43984c	-0.19101065
239	0x3eb7e78a	0.35918838
240	0x3d882ede	0.06649564
241	0x3cfc26ce	0.030780222
242	0xbe9c0be2	-0.30477816
243	0x3d972fa4	0.073821336
244	0x3e1e1236	0.15436634
245	0x3e128115	0.14307053
246	0xbda8d69e	-0.0824406
247	0xbe8769f0	-0.2644801
248	0x3d1d1cee	0.038357668
249	0x3d11460e	0.0354672
250	0xbdbc42ec	-0.09192452
251	0xbd584814	-0.052803114
252	0x3ecf9dfc	0.4055022
253	0x3e675148	0.225896
254	0x3ed386d6	0.4131381
255	0xbe81569c	-0.2526139

conv2.bias f4 [32]
0	0xbd61f37f	-0.055163857
1	0xbdc80833	-0.09767189
2	0xbea635da	-0.3246296
3	0xbe48b512	-0.19600323
4	0xbd6f8499	-0.058476064
5	0xbda267c9	-0.07929952
6	0xbe912ea0	-0.28355885
7	0xbe963676	-0.29338425
8	0x3cc337ea	0.023830373
9	0xbd23ea13	-0.040018152
10	0xbe1d039c	-0.15333408
11	0xbe2ebf7d	-0.17065234
12	0xbe0801e2	-0.13281968
13	0xbdeaac1c	-0.114586085
14	0xbe125d4f	-0.14293407
15	0xbd6ea90b	-0.05826668
16	0xbe1142f8	-0.14185703
17	0xbdbf20c3	-0.09332421
18	0xbe8a4b68	-0.27010655
19	0xbe59d268	-0.2127167
20	0xbd3b540a	-0.045734443
21	0xbe88da7a	-0.26729184
22	0xbe17c5ab	-0.14821498
23	0xbe647861	-0.22311546
24	0xbeb66bc8	-0.35629106
25	0x3d9038f4	0.07042113
26	0xbe3d204f	-0.18469356
27	0x3d1f724f	0.038927373
28	0xbe805474	-0.25064433
29	0x3ddb2976	0.107012674
30	0xbe0ebcd5	-0.13939221
31	0xbdbdca79	-0.09267134

fc1.weight f4 [10, 1568]
0	0x3dc8712f	0.09787213
1	0x3d0321ba	0.032014586
2	0xbd8d856e	-0.06910215
3	0xbda5bc6e	-0.08092581
4	0xbe43b46f	-0.19111799
5	0xbd92ce80	-0.07168293
6	0xbaa004ee	-0.00122085
7	0x3d89ea4e	0.06734143
8	0xbbb0c03a	-0.005394009
9	0xbc5f5d6b	-0.013633112
10	0xbd8dc64e	-0.06922589
11	0xbde217e7	-0.11039715
12	0x3dd2fce1	0.10302139
13	0x3cbc9b2e	0.023023214
14	0xbe0d4377	-0.13795267
15	0x3d1c2771	0.03812355
16	0x3e1936b4	0.14962274
17	0x3d85b5e1	0.06528831
18	0xbe48bd7b	-0.19603531
19	0xbedceb7f	-0.4314842
20	0xbeaf5abf	-0.3424892
21	0xba015407	-0.00049334805
22	0x3e3f448b	0.18678491
23	0x3daf3b1c	0.08556196
24	0xbe891290	-0.26771975
25	0xbd927080	-0.07150364
26	0x3c25fb21	0.010130675
27	0xbe33bac9	-0.17551722
28	0x3dfd73c6	0.12375598
29	0xbdf32c1c	-0.118736476
30	0xbd2df51d	-0.042470086
31	0xbdabaff8	-0.08383173
32	0x3d97aed9	0.074063964
33	0x3d0b55e7	0.03401747
34	0xbeda05c6	-0.4258253
35	0xbd8ed1ee	-0.06973635
36	0xbe76216a	-0.24036184
37	0xbe031942	-0.12802604
38	0xbe2c49a8	-0.16824973
39	0x3d5ab5a2	0.053395875
40	0x3e9e5598	0.30924678
41	0x3e6c6691	0.23086001
42	0x3ddc728e	0.10764037
43	0xbeecd58a	-0.46256667
44	0xbf4a8ef6	-0.7912439
45	0xbeb4e686	-0.35332125
46	0xbdf3691e	-0.11885284
47	0x3d292169	0.041291628
48	0x3d21c431	0.039493743
49	0xbd163bba	-0.036678053
50	0xbddb256b	-0.10700496
51	0x3cb0cf46	0.02158321
52	0xbdd986cd	-0.10621414
53	0x3cf6cadd	0.03012603
54	0xbd5456f2	-0.05184073
55	0xbdaa9928	-0.083299935
56	0xbde3cf98	-0.1112358
57	0x3e05eec8	0.13079369
58	0xbd91ce27	-0.071193986
59	0x3d76325c	0.06010662
60	0x3dbef739	0.09324498
61	0x3d0d820e	0.034547858
62	0x3db0dcb6	0.08635847
63	0x3e5d79bd	0.2162847
64	0xbe03ee56	-0.12883887
65	0xbd5339c6	-0.05156877
66	0x3dfc0c3c	0.12307021
67	0x3e081d82	0.13292506
68	0x3d568585	0.052373428
69	0x3df389ba	0.11891504
70	0xbcc2a1df	-0.023758827
71	0xbef45815	-0.4772345
72	0xbdabbd76	-0.08385746
73	0xbec38454	-0.38186896
74	0xbe8dffaf	-0.27734134
75	0xbe1a12b6	-0.150462
76	0x3c82362e	0.015894976
77	0xbecf9b72	-0.40548283
78	0xbe251553	-0.16121416
79	0xbc6b902f	-0.014377638
80	0x3c6d103b	0.014469202
81	0x3df09c12	0.11748518
82	0xbe6250b1	-0.22101094
83	0xbe0163b1	-0.12635686
84	0xbe6ac36a	-0.22926107
85	0x3d2e6100	0.042572975
86	0xbd194a8f	-0.03742462
87	0x38e74d1f	0.00011029303
88	0xbebd97b9	-0.37029818
89	0xbe2412dd	-0.16022821
90	0x3d2de700	0.042456627
91	0x3d44dbe3	0.048061263
92	0x3db5bd51	0.08874
93	0x3d053e9a	0.032530405
94	0xbeb03e91	-0.34422734
95	0xbf03f402	-0.515442
96	0xbe7492ce	-0.23884127
97	0x3d973962	0.07383992
98	0xbddc61d8	-0.1076085
99	0xbe570874	-0.20999318
100	0xbcaed038	-0.02133952
101	0x3e178cd3	0.14799814
102	0xbd68b921	-0.056817178
103	0x3d34167d	0.04396676
104	0x3a99641b	0.0011702807
105	0xbd998587	-0.074961714
106	0xbca37a82	-0.019955877
107	0xbde267c7	-0.1105495
108	0x3dfd19af	0.123584144
109	0x3da16f49	0.07882554
110	0x3e52ea96	0.205973
111	0xbe010dd5	-0.12602933
112	0x3da8186d	0.08207784
113	0x3ca9a468	0.020708278
114	0xbd9a6e41	-0.075405605
115	0xbd91637a	-0.07099052
116	0xbc16a2ed	-0.009194118
117	0x3e291bca	0.16514507
118	0xbdbbd789	-0.091719694
119	0x3d527bea	0.051387705
120	0x3e93a718	0.2883842
121	0xbcbe42e2	-0.023225252
122	0x3e100e62	0.14067987
123	0xbedf06bd	-0.43559828
124	0x3cd7a490	0.026323587
125	0xbdf40ee0	-0.119169
126	0x3e2ad3e6	0.16682395
127	0x3ddf15ef	0.108928554
128	0xbd35e286	-0.044405483
129	0xbe070db6	-0.13188824
130	0xbd2e8b06	-0.04261305
131	0x3e32881c	0.17434734
132	0xbe27253b	-0.16322796
133	0xbe090aea	-0.1338307
134	0x3d18a96e	0.037270956
135	0x3e32f1c1	0.17475034
136	0x3e0f0714	0.13967544
137	0x3ce27e80	0.02764821
138	0x3cc6bb0d	0.024259115
139	0xbd0d579d	-0.034507383
140	0x3dc0fd86	0.09423356
141	0x3df2ddb0	0.1185869
142	0xbe490679	-0.19631375
143	0x3dfb9a17	0.1228525
144	0x3d94ec6a	0.07271655
145	0x3d52a95c	0.051431045
146	0xbd1f8c94	-0.038952425
147	0xbdac9b36	-0.08428042
148	0xbc87030e	-0.016480949
149	0x3ddbf83d	0.10740707
150	0x3d8a7b0b	0.0676175
151	0x3e34b618	0.17647588
152	0xbcb34a03	-0.021885877
153	0x3cf96674	0.030444361
154	0xbc120897	-0.008913181
155	0xbe3083c6	-0.17237768
156	0xbec863d1	-0.39138654
157	0x3c742557	0.014901481
158	0xbce1b425	-0.02755172
159	0x39eb0452	0.00044825912
160	0xbdca7b01	-0.098867424
161	0x3d580c9f	0.05274641
162	0xbceeed44	-0.029165871
163	0xbc09bf02	-0.008407356
164	0x3e3426ab	0.17592876
165	0xbcba7ddd	-0.022765094
166	0xbc5da728	-0.013528623
167	0xbe6e7115	-0.23285325
168	0x3d1b8a09	0.037973437
169	0xbe379644	-0.17928416
170	0xbe393a14	-0.18088561
171	0xbc166ec5	-0.009181683
172	0xbd8b9705	-0.06815914
173	0xbdeb43e8	-0.114875615
174	0xbe66a354	-0.22523242
175	0x3cecdaa7	0.028912855
176	0x3d810210	0.062992215
177	0x3da47d12	0.08031668
178	0xbe4ee96d	-0.20206232
179	0x3dad7b78	0.084708154
180	0xbd98f714	-0.074690014
181	0xbdbf0e35	-0.09328882
182	0x3d43b28e	0.047777705
183	0xbd5afc5d	-0.05346333
184	0x3d3b1eb2	0.04568357
185	0xbd4d4385	-0.05011322
186	0xbd9cbb7d	-0.07652948
187	0x3d072f3c	0.03300403
188	0xbe42f99f	-0.19040535
189	0xbd016edb	-0.03159986
190	0x3d67fa47	0.056635167
191	0x3cb3105e	0.02185839
192	0x3ba06043	0.004894288
193	0x3d8fe990	0.070269704
194	0xbe0a3446	-0.13496503
195	0xbe1a47c5	-0.1506644
196	0x3d71b136	0.059006892
197	0xbcae101b	-0.021247914
198	0x3e199fdb	0.15002386
199	0xbda177d4	-0.078841835
200	0x3c5e8e10	0.013583675
201	0x3e1e6776	0.15469155
202	0x3d182b36	0.037150584
203	0xbc83a19f	-0.016068278
204	0x3d8c074c	0.06837329
205	0x3db2df19	0.08733959
206	0x3e8435ad	0.258222
207	0x3d2bf79f	0.041984197
208	0x3ceb870b	0.028750917
209	0xbc876afe	-0.01653051
210	0x3daf1324	0.08548573
211	0xbdbd56b2	-0.092450514
212	0x3dd1b538	0.10239643
213	0xbdf4a999	-0.11946411
214	0xbd28fa1d	-0.04125415
215	0xbe7cee18	-0.247002
216	0xbe0f5692	-0.13997868
217	0xbd99c2a8	-0.07507831
218	0xbe820821	-0.25396827
219	0xbdd3a24a	-0.103336886
220	0xbd0c7b01	-0.034296993
221	0xbd3f3cc9	-0.04668883
222	0xbe9a5f2c	-0.30150735
223	0xbdd78ed2	-0.10525288
224	0xbbc0294e	-0.005864299
225	0xbeb224a4	-0.3479358
226	0xbef1032c	-0.47072732
227	0xbdc0151e	-0.09379028
228	0x3ca7a445	0.020464072
229	0x3e51be18	0.20482671
230	0x3d4a707e	0.049423687
231	0x3d9797eb	0.07402023
232	0xbdcfd4c2	-0.10148002
233	0xbc0a30ef	-0.008434518
234	0x3e2befa6	0.16790637
235	0x3d5e7d17	0.054318514
236	0x3ddae885	0.10688881
237	0xbda666d5	-0.081250824
238	0x3dd5ecff	0.10445594
239	0xbd4e5641	-0.050375227
240	0xbc789440	-0.015172064
241	0x3d2845c4	0.04108216
242	0x3d47a5b6	0.04874202
243	0xbc4976c1	-0.01229638
244	0xbdac80b6	-0.08422987
245	0xbd2371b5	-0.03990336
246	0x3c99af23	0.01876027
247	0x3c88524d	0.016640807
248	0x3c482ae2	0.012217255
249	0xbd07807a	-0.03308151
250	0xbe5b0cc6	-0.21391591
251	0x3c0c9e03	0.008582595
252	0x3d1b8ef2	0.03797812
253	0x3d06db75	0.032924134
254	0xbe30d85a	-0.17270032
255	0xbbe9db9a	-0.0071367742

fc1.bias f4 [10]
0	0x3d96cae9	0.07362921
1	0x3e1736fb	0.14767067
2	0xbb8c5caf	-0.0042835097
3	0xbd70dc41	-0.0588038
4	0xbdaf5007	-0.08560186
5	0xbc1281e5	-0.008942102
6	0xbca262f7	-0.01982258
7	0xbce39d5e	-0.027785
8	0x3ce9abf2	0.028524373
9	0x3be3011c	0.0069276225
