checkpoints/epoch=3.checkpoint.pth.tar (torch, 52552 bytes, 4 tensors)

conv1.weight f4 [32, 1, 5, 5]
-0.18967107 0.054160766 0.18783237 0.08435657 -0.03261566 -0.18164736 0.18778491 0.24272239
-0.019963015 -0.19270906 -0.07576134 0.2582995 0.1255435 -0.0002011143 -0.2515132 0.09846361
0.10734031 -0.0139198275 -0.06733323 -0.1681291 0.022950556 0.011931208 0.057879914 0.11996623
0.03446519 -0.20512669 -0.24162482 -0.23784553 -0.13826686 -0.012778984 -0.14673206 -0.14699747
-0.14374188 0.049412016 0.06232149 -0.20250136 -0.16407117 -0.0017659459 0.1274451 0.14713055
-0.23195778 -0.11315734 0.16859587 0.17741476 0.009173732 -0.27320102 -0.17811555 0.16521263
0.063121654 0.14958285 -0.092082374 -0.018534184 0.10573991 0.10822598 0.06067051 -0.05297434
0.03122458 0.089486 0.21173504 0.07484216 0.21369883 0.26047313 0.26596707 -0.051704798
-0.16172992 0.30748212 0.06455473 -0.0064943708 -0.10892263 -0.019968748 0.14253984 -0.19774327
-0.12531091 -0.058770206 -0.092055455 0.047594972 0.15367453 0.019236322 0.113070436 0.09174811
0.10178514 0.22852571 0.27069563 0.26051134 0.3556614 0.10128311 0.18817993 0.3119438
0.15863672 0.32947677 -0.10632572 -0.19119821 -0.17521493 -0.14399704 0.2102797 -0.3973714
-0.39302668 -0.4996519 -0.46618646 -0.2710534 0.30161205 0.26138115 0.3577904 0.37725112
0.30647248 0.22487982 0.36202773 0.1883552 0.1280391 0.28775853 -0.036873918 -0.02328402
0.20383722 0.064459346 0.1567519 -0.4114209 -0.2061091 -0.27092764 -0.24393827 -0.22359085
-0.45284832 -0.33729473 -0.47896898 -0.29556927 -0.23073079 -0.054590102 0.111649044 0.26968467
0.1091585 -0.06773616 -0.18994792 0.1787392 0.19442971 0.050883997 -0.29368296 0.00818648
0.26909027 0.21976653 0.0031993513 -0.2955831 -0.03327307 0.03469477 0.16446514 -0.012873782
-0.12541637 0.016819432 0.08798845 0.19973935 0.21404745 -0.09787118 -0.09450936 -0.2576311
-0.19460279 -0.07038488 0.1617437 -0.15791267 -0.26657894 -0.20925917 0.1971079 0.3048223
-0.2432069 -0.25696367 0.016653111 0.287093 0.10478697 -0.28601822 -0.15223643 -0.029087605
0.26977798 0.15302059 -0.28452706 0.043333173 0.13892269 0.3026052 0.070427634 0.3666265
0.42811114 0.39376804 0.20136353 0.101429634 0.16221812 0.2879182 0.029228054 -0.0955588
-0.28821853 -0.15449908 -0.07708029 -0.25856626 -0.28853875 -0.5038811 -0.43700314 -0.33939633
-0.42531618 -0.3671315 -0.24400732 -0.49266142 -0.4011798 -0.25776833 -0.05499912 0.100992575
-0.03761302 -0.043862183 -0.1330807 -0.03018936 0.21536781 -0.086901 -0.18422697 -0.081680335
0.11306138 0.116346344 -0.14717557 -0.25392652 -0.2061826 0.12516865 0.24360399 -0.2650137
-0.243449 0.044837996 0.1984932 0.2880862 -0.20934182 -0.1395531 0.15746184 0.28400657
0.054992136 0.28111935 0.054171454 -0.059316922 -0.24141692 -0.37985954 -0.2561929 -0.43113294
-0.33689395 -0.35043636 -0.029795073 -0.35265335 -0.46328288 -0.23068021 0.015101322 0.3124065
0.02773007 0.21409647 0.3763039 0.4517809 0.13803662 0.44866952 0.57790816 0.38290572
0.15552804 0.037331834 0.055705447 -0.019225739 0.096866325 -0.058360644 -0.15747818 0.044528108
00000000: 2239 42be aed7 5d3d 2157 403e 23c3 ac3d
00000010: 0098 05bd c401 3abe b04a 403e 388c 783e
00000020: 7a89 a3bc 8655 45be c328 9bbd d53f 843e
00000030: 7a8e 003e 35e2 52b9 57c6 80be 4aa7 c93d
00000040: 3dd5 db3d fd0f 64bc 01e6 89bd 092a 2cbe
00000050: ce02 bc3c 1d7b 433c 7d13 6d3d dbb0 f53d
00000060: 5f2b 0d3d bb0c 52be 7f6c 77be c78d 73be
00000070: d495 0dbe f25e 51bc ee40 16be 8186 16be
00000080: 1231 13be 4164 4a3d d244 7f3d 845c 4fbe
00000090: 4602 28be 5077 e7ba f880 023e 64a9 163e
000000a0: 5786 6dbe 09bf e7bd 65a4 2c3e 37ac 353e
000000b0: 6c4d 163c 01e1 8bbe ec63 36be 802d 293e
000000c0: ed45 813d 3f2c 193e af95 bcbd 00d5 97bc
000000d0: 2a8e d83d 95a5 dd3d a481 783d 9ffb 58bd
000000e0: b1ca ff3c 7044 b73d 12d1 583e d946 993d
000000f0: ded3 5a3e bc5c 853e d62c 883e 69c8 53bd
00000100: 879c 25be 4c6e 9d3e 4535 843d bbce d4bb
00000110: d412 dfbd 8095 a3bc f7f5 113e 367d 4abe
00000120: 8151 00be 07b9 70bd 9287 bcbd f2f2 423d
00000130: db5c 1d3e 7e95 9d3c 7991 e73d 6fe6 bb3d
00000140: ba74 d03d a502 6a3e 9e98 8a3e be61 853e
00000150: 4019 b63e 856d cf3d 3db2 403e 19b7 9f3e
00000160: aa71 223e 2eb1 a83e 4dc1 d9bd 77c9 43be
00000170: 8b6b 33be f673 13be 9053 573e 4474 cbbe
00000180: cb3a c9be 60d2 ffbe feaf eebe 83c7 8abe
00000190: e56c 9a3e c0d3 853e 4e30 b73e 0f27 c13e
000001a0: f6e9 9c3e e546 663e b35b b93e 30e0 403e
000001b0: af1c 033e 1655 933e 1b09 17bd 21be bebc
000001c0: b4ba 503e 4303 843d 9283 203e c3a5 d2be
000001d0: 440e 53be 07b7 8abe f4ca 79be 00f5 64be
000001e0: bcdb e7be e5b1 acbe 6c3b f5be db54 97be
000001f0: b144 6cbe df99 5fbd 41a8 e43d 1c14 8a3e
00000200: 7e8e df3d 41b9 8abd b581 42be 6907 373e
00000210: 9518 473e bd6b 503d 9d5d 96be 9620 063c
00000220: 33c6 893e 7a0a 613e 35ac 513b ab56 97be
00000230: 5849 08bd 1a1c 0e3d 8d69 283e 8eec 52bc
00000240: 266d 00be e8c8 893c 4a33 b43d 7988 4c3e
00000250: 412f 5b3e af70 c8bd 208e c1bd 39e8 83be
00000260: f445 47be f325 90bd 24a0 253e dcb3 21be
00000270: 097d 88be 0948 56be a7d6 493e ab11 9c3e
00000280: 3b0b 79be be90 83be 1b6c 883c dbfd 923e
00000290: 8d9a d63d fb70 92be dee3 1bbe 2149 eebc
000002a0: 5720 8a3e 6eb1 1c3e 88ad 91be 207e 313d
000002b0: c041 0e3e 12ef 9a3e 5d3c 903d 78b6 bb3e
000002c0: 6231 db3e f79b c93e 3e32 4e3e 57ba cf3d
000002d0: 821c 263e 046a 933e ac6f ef3c 55b4 c3bd
000002e0: 6191 93be 0235 1ebe 45dc 9dbd cc62 84be
000002f0: 5abb 93be 5afe 00bf e0be dfbe 5bc5 adbe
00000300: 0bc3 d9be a9f8 bbbe 0edd 79be 1e3e fcbe
00000310: 7067 cdbe 36fa 83be c246 61bd 32d5 ce3d
00000320: 1c10 1abd d5a8 33bd 4f46 08be ad4f f7bc
00000330: 6189 5c3e 27f9 b1bd ffa5 3cbe 0548 a7bd
00000340: ba8c e73d fe46 ee3d 31b5 16be a802 82be
00000350: 8821 53be 362c 003e 5373 793e e0af 87be
00000360: b24a 79be 0ca8 373d cd41 4b3e 0980 933e
00000370: b45d 56be 02e7 0ebe ad3d 213e 4f69 913e
00000380: 6f3f 613d e0ee 8f3e e3e2 5d3d 4df6 72bd
00000390: ff35 77be f37c c2be b72b 83be 75bd dcbe
000003a0: 5d7d acbe 656c b3be cc14 f4bc fb8e b4be
000003b0: 6a33 edbe 6f37 6cbe 896b 773c bff3 9f3e
000003c0: 2c2a e33c 1b3c 5b3e e8aa c03e d34f e73e
000003d0: 7959 0d3e 03b8 e53e caf1 133f 380c c43e
000003e0: be42 1f3e 44e9 183d 652b 643d 4c7f 9dbc
000003f0: da61 c63d 920b 6fbd f641 21be 1b63 363d

conv1.bias f4 [32]
-0.040341098 0.11388867 -0.050432086 0.057085846 -0.00025097802 -0.08661382 -0.028739115 0.2761105
-0.01387223 0.0012506417 -0.058316696 -0.13231516 0.13553621 -0.00061473687 0.11002882 -0.0005694723
-0.24532028 -0.017256293 -0.13806282 0.14068048 -0.13249575 -0.072558835 0.18363735 -0.02393592
-0.1510083 -0.10257509 0.111773975 -0.1147113 -0.19162959 -0.0015771486 0.088875756 -0.0009621433
00000000: b53c 25bd 773e e93d e091 4ebd d9d2 693d
00000010: b395 83b9 9662 b1bd 4b6e ebbc 5b5e 8d3e
00000020: 5a48 63bc 92ec a33a 7ddd 6ebd a07d 07be
00000030: 01ca 0a3e 4b26 21ba ca56 e13d a448 15ba
00000040: 3d35 7bbe 125d 8dbc 5760 0dbe 8b0e 103e
00000050: f7ac 07be ba99 94bd 6e0b 3c3e 4315 c4bc
00000060: eba1 1abe e412 d2bd c1e9 e43d c2ed eabd
00000070: 8c3a 44be 53b8 ceba 7e04 b63d 5838 7cba

fc1.weight f4 [10, 1152]
-0.00054391456 -0.008780271 0.0044524968 0.009308501 -0.0020964774 -0.0015580854 -0.00031810103 -0.025120981
0.01145133 -0.009227712 0.027010946 -0.01013152 -0.002042585 0.026234634 -0.001832125 -0.024396079
0.008243779 0.030370548 -0.0073809056 0.02366526 0.07278161 -0.03789368 -0.0101078935 0.007792989
0.0077707907 0.043536734 0.07915293 -0.037344187 0.007336389 0.015881998 0.006238895 0.013342933
0.04370664 -0.024663953 -0.020158855 -0.026004728 -0.0011426561 -0.008904382 0.023745067 -0.007479657
0.020915823 0.007907671 -0.0005306007 0.016475338 -0.03882986 0.020061752 0.020411607 -0.012806268
-0.011545816 0.027568381 0.009053155 0.009322232 -0.026858158 0.010905708 -0.0048348447 0.034138747
0.029139059 -0.027557956 0.013708096 0.04707057 0.016117025 -0.026357226 0.013101716 0.0057028458
0.032198306 0.023768792 -0.003836 -0.016325748 -0.077332236 -0.059943408 -0.047172837 -0.0014422262
5.373211e-13 -0.0011298622 -0.013360034 -0.006127507 -0.039704777 -0.017234437 7.078466e-05 -0.011089373
0.020669859 -0.065523475 -0.05858235 -0.0033133042 -0.0008292675 -0.001204382 -0.005760105 0.013008102
-0.0523938 0.016024986 -0.012939961 0.034539085 0.08978085 -0.023715757 -0.08903866 0.012462209
-0.0011946644 0.0083229905 0.019841183 -0.058183346 0.031644005 0.03477102 0.012317813 -0.030326793
0.020469334 0.02689533 -0.0058679497 -0.016699174 0.0016288428 0.000873408 -0.001843678 0.008330546
0.01504599 0.002195307 0.0034333847 -0.034518562 -0.053263158 0.021647943 -0.012327934 -0.016491884
0.0015617812 -0.046235844 -0.0865781 0.040124808 0.012112907 -0.05587775 0.024171412 -0.08969648
-0.12500493 -0.08487276 -0.059218388 0.029853934 0.0056327977 0.0039057904 -0.030124638 -0.045784805
0.017266579 -0.0053321104 0.030964872 -0.01554343 0.06650534 0.07483831 -0.010738278 -0.014898451
0.00046379174 0.0006599853 0.0068808384 0.017458681 0.0048459535 0.00051053695 -0.0025851585 -0.05661914
-0.092875324 0.0033727454 -0.026555866 -0.034645516 0.0039181253 -0.050352614 -0.06343587 0.025110913
0.026199546 -0.06797146 -0.02276567 -0.13373257 -0.09773754 -0.114577465 -0.15631247 0.019106068
-0.038316615 -0.061864838 -0.062499896 -0.051390924 -0.014628296 0.016484339 0.0041975877 -0.013968882
0.055594783 0.09251052 0.024820006 0.0021174937 -1.1363677e-05 -0.016478688 -0.007942171 0.0045713615
0.012610629 0.007404065 4.002305e-05 -0.017769212 0.00120607 0.004652107 0.0102905845 0.018132946
-0.005775014 0.01680224 -0.000710604 -0.020337014 0.030469941 0.038832236 -0.008924489 0.025479669
0.09861058 -0.070976146 -0.013180899 0.042225614 0.0112512885 0.020663166 0.08961373 -0.069454014
0.011603894 0.013936104 0.010168676 0.039798703 0.03127762 -0.02178231 -0.077542186 -0.044606537
-0.0047393725 -0.014655154 0.010183165 -0.026539423 -0.005682277 0.0019188238 -0.013982777 -0.0010399275
-0.027524117 -0.0023516254 -0.001628989 -0.039851345 -0.051133487 0.009091888 0.043927483 -0.023029305
-0.007905552 0.030881364 0.007653039 0.07987493 0.041416094 -0.015603805 0.07253369 0.09608866
0.05677644 0.035964046 0.069634475 0.009925388 -0.009100329 0.06318651 0.017518876 -0.045044526
-0.038608953 -0.11284342 -0.10452384 -0.031057872 0.0032677166 -0.0073641525 0.005621038 0.020314498
00000000: 7d95 0eba 20db 0fbc 40e6 913b af82 183c
00000010: 0e65 09bb ac38 ccba ccc6 a6b9 84ca cdbc
00000020: 5c9e 3b3c d42f 17bc 0f46 dd3c adfe 25bc
00000030: e4dc 05bb 04ea d63c ea23 f0ba 49da c7bc
00000040: ea10 073c a8cb f83c 86db f1bb a6dd c13c
00000050: 860e 953d 6736 1bbd 949b 25bc 545c ff3b
00000060: 1ea2 fe3b 9353 323d ee1a a23d 38f6 18bd
00000070: 1766 f03b f71a 823c a56f cc3b 519c 5a3c
00000080: bc05 333d 0f0c cabc 2f24 a5bc de07 d5bc
00000090: 2dc5 95ba afe3 11bc 0485 c23c e917 f5bb
000000a0: a957 ab3c 2d8f 013c 0318 0bba 4af7 863c
000000b0: 0f0c 1fbd 8b58 a43c 3e36 a73c 62d1 51bc
000000c0: aa2a 3dbc 16d7 e13c af53 143c 46bc 183c
000000d0: a405 dcbc dbad 323c 9e6d 9ebb 12d5 0b3d
000000e0: 09b5 ee3c 39c1 e1bc ec97 603c 12cd 403d
000000f0: da07 843c 1ceb d7bc 94a8 563c f0de ba3b
00000100: 5fe2 033d c5b6 c23c 6765 7bbb 93bd 85bc
00000110: 5d60 9ebd 3887 75bd 4e38 41bd 1509 bdba
00000120: 113e 172b e217 94ba 0be4 5abc 41c9 c8bb
00000130: 7aa1 22bd 3c2f 8dbc 3a72 9438 34b0 35bc
00000140: d653 a93c 2c31 86bd 0cf4 6fbd 0524 59bb
00000150: 3363 59ba 5bdc 9dba 43bf bcbb ef1f 553c
00000160: e29a 56bd d546 833c 2102 54bc db78 0d3d
00000170: 06df b73d 8c47 c2bc e759 b6bd 4b2e 4c3c
00000180: 4996 9cba 275d 083c fa89 a23c a951 6ebd
00000190: 259d 013d 0f6c 0e3d a7d0 493c e56f f8bc
000001a0: 4eaf a73c 9853 dc3c ee47 c0bb b5cc 88bc
000001b0: e57e d53a 6bf5 643a 91a7 f1ba d87c 083c
000001c0: 7583 763c 24df 0f3b a302 613b 5663 0dbd
000001d0: 782a 5abd 0757 b13c 1afb 49bc fd19 87bc
000001e0: aeb4 cc3a cc61 3dbd dc4f b1bd e959 243d
000001f0: 3775 463c 11e0 64bd 2003 c63c cab2 b7bd
00000200: 4b01 00be c5d1 adbd fb8e 72bd 3d90 f43c
00000210: 5593 b83b 4af8 7f3b f2c7 f6bc d988 3bbd
00000220: a472 8d3c fcb8 aebb 0baa fd3c dfa9 7ebc
00000230: f433 883d d444 993d 9aef 2fbc a218 74bc
00000240: 1329 f339 dd02 2d3a a878 e13b 8205 8f3c
00000250: ceca 9e3b 8ed5 053a c36b 29bb 79e9 67bd
00000260: 6b35 bebd 4709 5d3b b08b d9bc 75e8 0dbd
00000270: 9e63 803b 8b3e 4ebd aaea 81bd 67b5 cd3c
00000280: 6ea0 d63c 9f34 8bbd 127f babc 31f1 08be
00000290: 9f2a c8bd 97a7 eabd 6010 20be 5484 9c3c
000002a0: e2f1 1cbd fc65 7dbd e4ff 7fbd 4a7f 52bd
000002b0: 85ab 6fbc 2a0a 873c eb8b 893b bddd 64bc
000002c0: 5bb7 633d 2876 bd3d 5353 cb3c a6c5 0a3b
000002d0: 9fa6 3eb7 50fe 86bc e11f 02bc 5ccb 953b
000002e0: d09c 4e3c cd9d f23b 6cde 2738 bd90 91bc
000002f0: fe14 9e3a b470 983b d799 283c 8b8b 943c
00000300: 543c bdbb daa4 893c d447 3aba cf99 a6bc
00000310: 199c f93c 8d0e 1f3d 0538 12bc bdba d03c
00000320: 58f4 c93d f15b 91bd b3f4 57bc c4f4 2c3d
00000330: 5357 383c cd45 a93c 6787 b73d e83d 8ebd
00000340: 421e 3e3c 4254 643c 859a 263c f703 233d
00000350: f61c 003d d170 b2bc 70ce 9ebd 58b5 36bd
00000360: bd4c 9bbb 2c1c 70bc 4ad7 263c 3469 d9bc
00000370: 6532 babb 0b81 fb3a 0418 65bc 2d4e 88ba
00000380: 427a e1bc ba1d 1abb cd83 d5ba 2a3b 23bd
00000390: 5971 51bd 24f6 143c 4eed 333d f4a7 bcbc
000003a0: 4a86 01bc eafa fc3c 58c6 fa3b 7895 a33d
000003b0: eca3 293d 1aa7 7fbc 8b8c 943d 22ca c43d
000003c0: 6a8e 683d 094f 133d 859c 8e3d 189e 223c
000003d0: 8c19 15bc ee67 813d bf83 8f3c 9c80 38bd
000003e0: 6c24 1ebd 731a e7bd 9810 d6bd 146d febc
000003f0: 3027 563b fd4e f1bb af30 b83b 976a a63c

fc1.bias f4 [10]
0.018768698 0.036611933 0.006145469 -0.044951443 -0.02851582 0.06499286 -0.040056866 0.0046398747
-0.053883076 -0.009997143
00000000: d0c0 993c 65f6 153d ee5f c93b 011f 38bd
00000010: 029a e9bc fa1a 853d ab12 24bd 170a 983b
00000020: 80b4 5cbd 0fcb 23bc
