checkpoints/epoch=21.checkpoint.pth.tar (torch, 75240 bytes, 6 tensors)

conv1.weight f4 [8, 1, 3, 3]
000000 60 27 99 3e 0c 70 4f bf 90 c0 c9 bf 79 58 75 3f
       0.29912853 -0.81030345 -1.576189 0.95838124
000010 79 52 d7 3e e7 f2 89 bd f4 e6 e1 3d 31 d1 2a 3f
       0.4205511 -0.06735783 0.11030379 0.6672545
000020 1d ca 05 3e db a7 f7 3d ce af 3c be c6 93 3b be
       0.13065381 0.12092563 -0.18426439 -0.1831809
000030 d8 4a 2e be 00 1a 97 bd 9b 48 c0 bd 66 98 b5 bd
       -0.17020738 -0.07378006 -0.093888484 -0.08866958
000040 d6 e7 3c bc 60 0e 91 be b9 b9 24 bf 04 46 7a 3e
       -0.011529883 -0.2833128 -0.6434589 0.24440771
000050 a2 ba 4c 3f bd d1 6b 3e f8 7d 4c 3f 41 17 f0 3e
       0.7997228 0.23029228 0.79879713 0.4689274
000060 a2 ea f5 3e b7 80 81 3e 75 7b 20 bf 2f ce b0 3e
       0.48030573 0.25293514 -0.6268838 0.34532306
000070 78 81 fc 3e b0 2c 55 3f 6c 48 ef be 9c c4 9d 3d
       0.49317527 0.8327131 -0.4673494 0.07703516
000080 c3 19 1f 3f 4c 60 53 bf 9d f0 a9 bf 21 74 5a bf
       0.62148684 -0.8256881 -1.3276554 -0.8533345
000090 67 24 aa 3e b9 75 ef 3e 4e 2e 4d 3e 33 3d 2a 3e
       0.33230898 0.46769503 0.20037195 0.16624908
0000a0 b8 52 02 be 29 dc 33 bd be 3b 19 3f 00 4e c0 3c
       -0.12726867 -0.043911133 0.59856784 0.023474693
0000b0 0a 64 1e 3e 1e b6 25 3f 0a fd 82 bd c3 f4 d9 3d
       0.1546785 0.64731014 -0.063959196 0.10642388
0000c0 5e 00 1e 3e df ce 12 3f 84 41 88 3e 05 42 d3 be
       0.15429828 0.5734691 0.26612484 -0.41261306
0000d0 d3 d6 eb be ec 20 94 bc 75 57 46 be ff ca 42 3e
       -0.46062335 -0.018082105 -0.193693 0.1902275
0000e0 02 e6 9e 3e 28 ec 7e be 26 21 ea 3e f1 d4 0a 3f
       0.31034857 -0.24894774 0.45728415 0.5423117
0000f0 91 0b b7 3e 22 85 e4 3e 3d ea b3 3e 44 f5 90 3e
       0.35751012 0.44632822 0.35139647 0.28312123
000100 af 20 3f 3f 8f 77 c1 3d b4 11 12 bf 26 0c 58 3f
       0.74659246 0.09446632 -0.5705826 0.8439354
000110 81 55 0d 3f df 20 bb bf e5 e0 b9 be 3e 7c 2a 3f
       0.55208594 -1.4619406 -0.36304393 0.6659583

conv1.bias f4 [8]
000000 87 2b d4 3c 9e 8c 16 be 3b 08 bb bd 5d 9a 1a 3c
       0.025899662 -0.14702079 -0.09132429 0.009436217
000010 49 db dd be 4d 0e 56 be f4 1b ad be 4b d3 72 be
       -0.43331364 -0.20903893 -0.3381039 -0.23713414

conv2.weight f4 [32, 8, 3, 3]
000000 d4 ae c7 be bb 48 a4 be 4c 4d d9 be b4 d9 e1 3e
       -0.3900057 -0.3208674 -0.42441785 0.44111407
000010 c5 9d 35 3d 26 bd 37 be 88 46 40 3d 03 ff 05 3f
       0.044339914 -0.17943248 0.046942264 0.5234224
000020 57 90 ee 3e e9 72 53 3b 95 d0 db bd cd 09 59 bc
       0.46594498 0.0032264537 -0.10733143 -0.013246966
000030 3a cc 3e 3c ab c0 e7 3d 5c 33 1c 3b 1a 7f 27 bd
       0.011645371 0.113160454 0.0023834324 -0.040892698
000040 66 66 50 3d 83 82 da bd c3 17 dd bd 11 17 5d bf
       0.050878905 -0.106694244 -0.10795548 -0.8636332
000050 6f 7e 66 3d 2c 7c d4 bb 3c 7d 9a be ee b8 26 bf
       0.05627292 -0.006484529 -0.3017367 -0.6512593
000060 72 75 24 3d 9f 38 59 3d 7d 40 89 be c3 c5 93 3e
       0.040151067 0.053032514 -0.26807013 0.28861818
000070 9e d5 67 be 2f 5f f8 3e 2c 06 51 bf 2a 16 42 be
       -0.22640082 0.4851012 -0.8165004 -0.18953767
000080 a1 54 be 3e 45 ef f9 3d 2a 17 91 be 2a 6f 3f be
       0.37173942 0.1220384 -0.28337985 -0.1869475
000090 77 8d f5 be de a7 0b bf 7e 3d 21 bf 8c 94 d2 3d
       -0.47959492 -0.5455302 -0.62984455 0.10282239
0000a0 62 b3 19 be c6 03 fa be 62 03 98 3e d1 77 81 3e
       -0.15009835 -0.48831004 0.2969008 0.25286725
0000b0 6e 72 3d 3e af ee 12 bf e1 3d b1 bd d4 79 0f be
       0.18500683 -0.5739545 -0.086543806 -0.14011317
0000c0 5a 6f ba 3e 95 f9 20 bf b0 50 41 bf 67 9f 10 3f
       0.3641308 -0.6288083 -0.75513744 0.5649323
0000d0 33 b3 82 3e b3 83 f4 3d fd 4f 70 be 3e 1a 0c bf
       0.25527343 0.11939182 -0.23468013 -0.5472754
0000e0 5d bb 3b 3c e6 c2 f0 3d aa cf 3f be 15 fb 02 bf
       0.011458245 0.11755924 -0.18731561 -0.5116437
0000f0 90 11 ed 3d f0 db 8f 3e e4 88 34 3d 81 f2 76 bf
       0.115756154 0.28097486 0.04407586 -0.9646378
000100 2d 17 9d bd 49 0b 45 3d d2 02 9f be 2a 35 33 bf
       -0.07670436 0.048106465 -0.3105684 -0.70002997
000110 65 95 f4 be 26 86 1d 3f 3a a6 11 3f 08 b5 37 3d
       -0.4777023 0.6153282 0.56894267 0.04485038
000120 ea 72 5d be 16 99 27 3f af b8 0d 3f 16 e1 f7 be
       -0.21625867 0.65467966 0.5535993 -0.48413914
000130 b3 c6 95 bd 67 1d 49 3e c4 98 40 bf 45 b3 a9 be
       -0.073132895 0.19640122 -0.752331 -0.33144584
000140 66 4c b7 be 88 25 78 3b a2 e1 fe bc 82 f8 ee bd
       -0.35800475 0.0037864167 -0.03111345 -0.11668493
000150 d3 ae b1 bd 91 a7 82 3d 71 09 64 bd 6b 08 c6 3d
       -0.08675923 0.06379617 -0.055673067 0.09669574
000160 eb 84 2d 3d 55 b1 a4 3c e9 79 64 bc 52 b0 99 be
       0.04236309 0.02010409 -0.013945081 -0.30017334
000170 c7 14 e9 bd 27 d0 59 3d 20 cc 43 be df 82 13 3e
       -0.11380916 0.053177025 -0.19120836 0.14405392
000180 02 fa 9f 3e 10 e3 c3 3d 5f 34 7f bd 69 3a dc 3c
       0.31245428 0.09564793 -0.062305804 0.02688332
000190 82 4a d6 3d 45 5e fe be cf 90 34 be c4 d5 a6 bd
       0.1046343 -0.49681297 -0.17633365 -0.08146241
0001a0 96 ce 39 3e fb e5 c1 be be 57 b2 be c5 f9 8f 3d
       0.18145213 -0.37870774 -0.34832567 0.07030062
0001b0 47 f1 79 3d b0 25 d9 3c 37 65 4f be 0b 8a f7 bd
       0.061021116 0.026507229 -0.20253454 -0.120868765
0001c0 a5 9c b5 3d 7d 15 3f 3e 84 72 00 3e 0c db a6 3d
       0.08867768 0.18660541 0.12543684 0.081472486
0001d0 64 ed c2 3c d9 1e 9d 3e b8 67 d5 3d 33 e6 a6 be
       0.023794837 0.30687597 0.104201734 -0.32597503
0001e0 ba 32 c3 be de ae 9a 3c 66 e5 59 3e 8d 47 f8 bd
       -0.3812464 0.018882211 0.21278915 -0.12123022
0001f0 7b 0a 08 3d 43 4b 5c 3e 69 e9 9d 3d 6e c2 bf bd
       0.03321312 0.21513085 0.07710535 -0.093632564
000200 5f e1 19 be b2 93 14 3c c0 d4 41 bd 0b 80 f2 3d
       -0.15027378 0.009068416 -0.047322035 0.118408285
000210 55 47 10 3e e8 50 90 bd f1 d2 99 be f2 c0 cc 3e
       0.14089711 -0.07046682 -0.30043748 0.39990956
000220 be 59 0c 3f 53 ad 95 be 9a 86 a6 bd 43 73 1f 3c
       0.54824436 -0.29233798 -0.08131142 0.00973207
000230 0e 88 41 3e 73 81 ee be d2 57 cc be 23 5b ab be
       0.18899557 -0.46583137 -0.39910752 -0.3346797
000240 e1 64 b9 3e 2c b4 ff bc c1 47 05 be 3a 8e 1e 3e
       0.36209777 -0.031213842 -0.13015653 0.15483943
000250 25 6b 90 be bd 6c b5 be 23 05 72 be 17 4f 6d be
       -0.28206745 -0.35434523 -0.23634772 -0.23174702
000260 69 be 6e be ea d6 9f 3c 12 4f e1 3d 37 cc ff bb
       -0.23314823 0.019511659 0.110014096 -0.0078063267
000270 3d e1 71 3d 7a f9 8f 3d de f3 6f 3d 06 5f d7 bd
       0.059052695 0.07030006 0.05858218 -0.10516171
000280 b9 fe e7 bd bd c4 ec 3d c3 57 33 be f5 08 0a 3e
       -0.11327881 0.11560962 -0.17513947 0.1347998
000290 f5 e0 3d 3e ab 43 08 3e f7 6e 6e 3e d7 3d 01 3e
       0.18542846 0.13307063 0.23284517 0.12621246
0002a0 bb 79 06 be 26 75 a7 be e0 9a 92 be 15 5a 4f bf
       -0.13132374 -0.32706565 -0.28633785 -0.8099683
0002b0 ee 6e 2c bf dd a7 4d bf 54 99 14 bf 35 3f 65 3e
       -0.67356765 -0.80334264 -0.5804646 0.22387393
0002c0 4d d5 21 3e b9 7c 11 3f bc 3c 4a 3e 5c 41 7b be
       0.15804024 0.56830937 0.19749731 -0.24536651
0002d0 f9 a3 6f be be e7 c6 bd 57 0b 00 3e 06 2b e6 3d
       -0.23402394 -0.0971217 0.12504326 0.11238675
0002e0 03 ea 5c 3e 72 f3 36 3e de f1 02 be a4 6f df bd
       0.21573643 0.17866305 -0.12787578 -0.10909966
0002f0 fc fc 8d be b9 a8 1b bf 26 05 90 be 74 7b 3c bc
       -0.27732074 -0.60804325 -0.28128928 -0.011504043
000300 c2 1d 66 3e 3c 88 21 3e ed 59 2c 3e e6 a7 bd 3e
       0.22472289 0.15774626 0.16831179 0.3704216
000310 95 b0 82 bb 83 f2 9a be 2e 61 35 be 40 a5 8b 3e
       -0.0039883354 -0.30263147 -0.17712852 0.27274513
000320 2f 9c 73 3e 92 40 20 bd 70 86 4c 3d d7 8c 92 3d
       0.23790048 -0.03912408 0.049932897 0.07155769
000330 5d b8 8c bd 39 40 fb be 89 33 ab be 34 66 0b 3c
       -0.06871102 -0.49072435 -0.33437756 0.008508254
000340 42 9d 01 be d5 ac c2 be f2 08 c3 3b 3f ac 92 3d
       -0.12657645 -0.38022485 0.005951994 0.071617596
000350 48 5a 29 3e 3b 4c a0 3e d2 23 a5 bc 1f 47 1d 3d
       0.16538346 0.3130816 -0.020158682 0.038397904
000360 fb 6a 40 bf 7c b4 2a be 4a 74 a2 bd 43 4f 5f bf
       -0.7516324 -0.16670412 -0.07932337 -0.8723032
000370 12 f2 4d 3d 49 d4 ea 3e 5d 05 82 bf 81 67 7e bd
       0.050279684 0.45865086 -1.0157887 -0.062110428
000380 84 7a 24 3f 42 88 7e bd 6e 26 9e 3d 69 e8 d4 bd
       0.64249444 -0.062141664 0.07722174 -0.10395891
000390 3d da 5b 3d 71 0f 9b 3c 38 d6 86 3d 05 2b 6e 3d
       0.053674925 0.018928261 0.06583828 0.058146495
0003a0 2c dd b5 3d f6 fc 54 3d a8 5d d7 3d f0 df 79 3e
       0.08880076 0.051999055 0.105159104 0.24401832
0003b0 b6 db 2d 3e c3 ab 4e be d6 d0 8f 3c 18 8d 53 be
       0.16978344 -0.2018271 0.017555635 -0.20659292
0003c0 be 38 c9 be 6a 2d b4 3d b5 c4 d7 bc a1 71 fa be
       -0.39301103 0.087977245 -0.026338914 -0.48914817
0003d0 26 4e 8a bf 61 c3 08 bf 2a 0d cd be bf 45 7f be
       -1.0805099 -0.53423125 -0.40049106 -0.2492895
0003e0 19 f1 21 bf 8a 27 b9 3d 3c 2a 08 3e 08 08 a1 3e
       -0.6325851 0.090407446 0.13297361 0.3145144
0003f0 41 a4 09 be c6 55 5d 3d 17 b4 cd 3d bd 62 1b be
       -0.13441564 0.054036878 0.10044115 -0.15174384

conv2.bias f4 [32]
000000 0b b0 1c 3b 62 a7 ea be c9 46 b4 bc ab 8d aa be
       0.002390864 -0.45830828 -0.02200641 -0.3331121
000010 92 61 8e bb 95 58 05 be 5e 2e ec be 0f dc 95 bd
       -0.0043451274 -0.13022073 -0.46129125 -0.073173635
000020 48 69 80 be 30 6e e2 be 3d 33 92 bd bd 7c 53 be
       -0.25080323 -0.4422469 -0.07138679 -0.20653053
000030 20 f7 f1 bb b5 ab 02 bf d6 b5 e2 be 44 30 cf be
       -0.007384196 -0.51043254 -0.44279355 -0.4046651
000040 94 ef c5 be 37 fe df bd 2f dd 23 be 0b c0 ca bd
       -0.38659346 -0.109371595 -0.16002344 -0.098999105
000050 38 52 13 be 9e c8 12 bd ad 81 8d be fe 6d a7 bc
       -0.14386833 -0.035835855 -0.27637997 -0.02043819
000060 15 b0 9a 3c 75 bb be bd db c3 d4 bd ac 06 6c be
       0.01888279 -0.09313098 -0.10388919 -0.2304942
000070 fb cd 38 bd 79 77 2d bd d5 7d a8 be b5 82 dd bd
       -0.045118313 -0.042350266 -0.32908502 -0.10815946

fc1.weight f4 [10, 1568]
000000 15 ac b4 3d 87 ea 06 be b4 d4 8a bc de de 52 bd
       0.088218845 -0.13175403 -0.016947128 -0.051482074
000010 fa 04 ed 3c ff 19 76 3d 44 ba 8f 3a e0 90 8b bd
       0.028933037 0.060083386 0.0010965546 -0.06814742
000020 a4 de 84 3e 41 f9 15 3e 35 0f 80 3e a4 ea 16 3e
       0.2595111 0.14645864 0.25011602 0.14737946
000030 11 ff 87 3c 66 f1 bf 3d e9 1b 2c 3e 37 43 e7 bd
       0.016601117 0.09372215 0.16807522 -0.11292117
000040 bf 46 60 3e 1d 9d ff 3d 36 96 07 3d 5a a6 3a 3d
       0.21901987 0.12481139 0.033102237 0.0455688
000050 24 51 8a 3d ce 55 8e be 00 d7 4f bf f2 95 0a bf
       0.067537576 -0.2779984 -0.8118744 -0.5413505
000060 2b 3b 9a be 54 c8 0f bf 9a 15 d1 be ca c1 dc bd
       -0.30123267 -0.5616505 -0.40836793 -0.1077915
000070 1c 77 2a be 03 34 b6 be e7 bd 48 be f1 62 59 3e
       -0.16646999 -0.35586557 -0.19603692 0.2122915
000080 58 7b a1 3d 01 01 c2 be 25 28 b0 be 05 83 fc bd
       0.07884854 -0.3789139 -0.34405628 -0.123296775
000090 d0 2e 4a be 74 ef 0d 3d 71 1d b5 bc ed 0d f1 be
       -0.1974442 0.03465219 -0.022108765 -0.47080937
0000a0 da 0c e9 be 65 cc fa bd c6 30 bb 3d e4 23 33 bd
       -0.45517617 -0.122460164 0.09140162 -0.0437354
0000b0 0b 59 8e 3d d5 36 29 bf b7 8a 1b be 46 68 03 bd
       0.06950577 -0.6609929 -0.15189634 -0.032081865
0000c0 a3 92 80 3d 78 88 f3 bc 57 07 6d bb 63 75 1e 3e
       0.06277969 -0.02972816 -0.0036167705 0.15474467
0000d0 be 71 59 bd ba 98 c5 bc 3a 90 e1 bd 83 f5 04 bd
       -0.05308699 -0.024120677 -0.11013837 -0.0324607
0000e0 32 3e 1a 3d 6c bb 6e bd a3 bd eb 3a 8c 4d 00 bc
       0.03765697 -0.05828421 0.0017985593 -0.007830989
0000f0 97 7c 1d bd 1b 8d 18 be 98 f3 06 be 25 df d0 3c
       -0.038448896 -0.14897577 -0.13178861 0.025497029
000100 dd fc c2 bc 1f d0 9c be a4 0f d5 bd 65 90 a1 bd
       -0.023802215 -0.30627534 -0.10403374 -0.07888869
000110 f8 aa e2 3d 58 b1 70 3d f5 aa 6c 3e cb a2 99 be
       0.11067766 0.05876288 0.2311209 -0.30007014
000120 08 87 db bd c4 04 db 3c fa 89 b1 3d 78 59 96 3c
       -0.107191145 0.02673567 0.08668895 0.018353209
000130 34 0f 35 bb 96 31 12 be 08 9d dd 3d 34 4f 9c be
       -0.002762747 -0.14276728 0.10820967 -0.30529177
000140 28 aa 1d be a2 34 26 bd b4 07 de 3d e3 95 0d be
       -0.1539694 -0.04057754 0.10841313 -0.13826708
000150 17 73 92 3e 9f 23 c3 bd 38 a7 da 3c f5 30 09 3e
       0.28603432 -0.095282786 0.026691064 0.13397582
000160 d7 4a 1c 3e 96 01 dc bd 50 2e bd be c3 c9 94 be
       0.15262924 -0.1074249 -0.36949396 -0.29060182
000170 2b c6 d1 3e 93 48 2f 3e 4e 89 e1 bd 85 4e a7 be
       0.40971503 0.17117529 -0.11012517 -0.32677093
000180 65 a3 93 be 40 a3 65 be 44 c8 c5 3d f4 de 82 bd
       -0.28835598 -0.22425556 0.09657338 -0.06390181
000190 b8 41 52 3e 55 15 21 be 74 10 8b be 1f 06 22 be
       0.20532882 -0.15730794 -0.2716099 -0.15822648
0001a0 46 83 b8 be fd 83 ac 3e a5 51 2e bd b4 31 b4 be
       -0.36037654 0.3369445 -0.04255833 -0.3519417
0001b0 39 9f ed 3c 3c 47 52 bc 06 23 9c be 48 09 7c 3d
       0.029006587 -0.012834366 -0.3049547 0.06153229
0001c0 88 33 82 bd 6c 19 04 be 0b 03 52 bd 65 02 13 be
       -0.06357485 -0.12900323 -0.051272433 -0.14356382
0001d0 78 ec 87 be 95 6c cc be 2d 6a d0 3d fe f9 e8 be
       -0.265476 -0.39926592 0.101765014 -0.4550323
0001e0 77 20 08 be 0d 7f f6 bd 3f 13 fb bd f4 ec 0b bf
       -0.13293634 -0.12035952 -0.1225953 -0.54658437
0001f0 11 ee 16 3e 12 a1 aa 3c c5 59 15 3e c0 46 5f bd
       0.14739253 0.020828757 0.14585026 -0.05451083
000200 1f 01 d8 3d c8 42 9c 3c 88 26 f1 bb d0 b9 08 3e
       0.10547089 0.019074813 -0.0073593296 0.13352132
000210 05 aa b2 be 88 f8 9c be 2e bf e5 3d 5a d7 76 3c
       -0.3489534 -0.30658364 0.11218105 0.015065992
000220 60 ef 32 3e 5c af 64 3d b1 ee fd bd 6c 0e b6 bd
       0.17474127 0.0558313 -0.123990424 -0.088894695
000230 c8 2b a5 3e 5d 6e 4b bd c3 e3 ae be 7e b6 71 bd
       0.32259965 -0.049665798 -0.34158143 -0.05901193
000240 d0 a5 b1 3e 7c 89 2c be df 7f 12 3e c5 4d 20 be
       0.34696817 -0.16849321 0.14306591 -0.15654667
000250 c8 ec 92 be 11 59 1f be 8b fa bb 3d 22 93 29 3e
       -0.28696275 -0.1556132 0.09178647 0.16560033
000260 0f 5b d7 bd bc c1 d2 bb e9 c8 58 be ed 6f 83 3b
       -0.10515415 -0.0064317863 -0.21170391 0.0040111453
000270 17 66 91 be 1e a9 0d 3e a7 03 2f be c4 8e 34 3e
       -0.283982 0.13834044 -0.17091237 0.17632586
000280 07 8a e4 bc 07 14 11 3e 94 81 93 3d f0 17 32 bd
       -0.027897848 0.14167796 0.072024494 -0.04347986
000290 89 ea 1b be 65 fd eb 3d fb 1c 4d 3e 73 12 19 be
       -0.15226187 0.115229405 0.20030586 -0.14948444
0002a0 b4 d8 ed bd 6b b0 d6 3d d0 ec aa 3d 3d 43 33 bd
       -0.116135985 0.10482868 0.0834595 -0.043765295
0002b0 2b f4 dd bd 69 7b a9 3d ea e9 26 3d 9b 57 ae be
       -0.10837587 0.08275492 0.04075042 -0.34051213
0002c0 d3 7e 4d 3d 75 6f 0c 3e 69 3d 64 be 30 b8 c7 bd
       0.050169777 0.13714392 -0.22289051 -0.09751928
0002d0 d9 f0 45 be 22 fc 17 3d 85 83 2b 3d 79 a9 2d 3e
       -0.19330157 0.037105687 0.041873474 0.1695918
0002e0 21 ee 3e 3e 95 e2 9f be 38 99 e0 be 9e a0 6a be
       0.18645526 -0.31227556 -0.43866897 -0.22912833
0002f0 ae 72 5a be 1c dd 24 bd 14 e4 0b be 40 3d 7c be
       -0.2133281 -0.04024993 -0.13661224 -0.2463274
000300 6a 51 ec be 5f 15 2b be 47 79 06 bd 23 9b bc bc
       -0.46155864 -0.16707371 -0.032830503 -0.023023194
000310 f6 e0 20 3d 4b d0 96 be 76 56 61 be a8 a9 9c 3d
       0.03927704 -0.2945579 -0.22005638 0.07649547
000320 d6 b9 dd be 4d 49 df bd 91 52 6a bc 57 9c 99 3d
       -0.43305844 -0.10902653 -0.014301912 0.075005226
000330 92 a5 48 be f1 0f 2b be 85 85 86 be 9f 34 80 be
       -0.1959441 -0.167053 -0.26273742 -0.25040147
000340 e2 2e d5 be c5 68 02 3e 70 27 b0 3a 32 2d 09 3d
       -0.4163733 0.12735279 0.0013439488 0.033490367
000350 32 d4 8c be 46 9d 08 be 03 9f 0c bc 47 3f 87 bd
       -0.27505642 -0.13341245 -0.008582833 -0.06603866
000360 42 69 29 bd 87 19 a5 3c 64 b2 63 3d 0e b6 af 3e
       -0.041360147 0.020153774 0.05559005 0.34318584
000370 2e b3 be 3e 7b fc b0 3e 8d 7c 4a 3c 0e 54 b2 bc
       0.37246078 0.34567627 0.012358797 -0.021768596
000380 3a c7 22 3c 08 9c 57 bd d4 af 96 3e d1 b7 55 be
       0.009935195 -0.052639037 0.2943102 -0.20870902
000390 0f dc 54 3e a4 33 00 3d 4d 50 3f 3d a2 f8 07 3e
       0.2078707 0.03129925 0.04670744 0.1327844
0003a0 e9 d0 22 bd 23 fe 4a be c3 95 b9 be 5a 0c 02 3e
       -0.039750014 -0.19823508 -0.36247072 0.12700024
0003b0 47 b2 d8 bc 81 f3 4a be 26 4b a5 3c bf e0 07 be
       -0.026452197 -0.19819452 0.020177435 -0.13269328
0003c0 3e c2 4f be 85 b3 84 bf 50 b3 13 bf 71 7a aa be
       -0.20288941 -1.0367285 -0.57695484 -0.3329654
0003d0 18 7b 58 be a9 ed 57 be 33 1a 7a bd c9 2c 80 be
       -0.21140707 -0.21086754 -0.06106014 -0.25034168
0003e0 2b c9 96 3e 02 4d 99 be 68 89 c6 bd d7 a6 9e 3e
       0.29450354 -0.29941565 -0.09694177 0.30986664
0003f0 01 44 34 3b 4a 4a 1c bd 59 b1 60 be 96 e5 e6 bd
       0.0027506354 -0.038156785 -0.21942653 -0.11274259

fc1.bias f4 [10]
000000 95 55 c2 3d 20 28 25 3e 91 8c 00 3d a5 34 e0 bd
       0.0948898 0.16128588 0.031384055 -0.10947541
000010 c5 fb 26 bd 5e 15 41 bc b0 9f 04 bd a4 7b 3b bd
       -0.04076745 -0.0117848795 -0.032378852 -0.04577221
000020 a9 7c 91 bb 76 0f 3f bc
       -0.0044399095 -0.011661401
