checkpoints/epoch=14.checkpoint.pth.tar (torch, 75240 bytes, 6 tensors)

conv1.weight f4 [8, 1, 3, 3]
0.35253635 0.46626502 0.4090546 0.12914129 0.1334711 0.37415326 -0.83056366 -0.0148119675
-0.20216829 -0.086935654 0.29918385 0.0042524817 -0.16013652 0.561621 0.0028458817 0.4334111
0.34739712 0.076817214 0.4503156 0.032020405 -0.5083853 0.37812635 0.45307738 -0.25932053
-0.13281044 0.5385693 0.53086036 -0.5343701 -0.31140122 0.46487904 0.3600427 0.597702
0.4551112 0.076509304 0.113122605 0.21154946 0.24108034 -0.54103374 -1.0504192 0.925398
0.024339413 -0.25007272 0.48725635 0.63498414 -0.012850672 -0.118009 0.06391637 0.39330313
0.85099787 0.6454371 -0.1875754 0.364044 -0.49572605 -0.8183869 0.5080874 0.5772854
0.6277575 0.54724264 -0.036507107 -0.14778124 -0.7153747 -1.0359839 -0.48371416 -0.39817044
-0.19332974 0.621145 -0.6058461 -0.16047214 0.41911498 -0.4811792 0.15429218 0.71431464
00000000: a57f b43e 4aba ee3e 9b6f d13e 9d3d 043e
00000010: a6ac 083e 0491 bf3e d29f 54bf e5ad 72bc
00000020: 3405 4fbe 520b b2bd a02e 993e 6758 8b3b
00000030: d4fa 23be 65c6 0f3f f981 3a3b 0fe8 dd3e
00000040: 09de b13e 5852 9d3d c48f e63e d427 033d
00000050: 8a25 02bf c799 c13e c2f9 e73e a9c5 84be
00000060: 76ff 07be addf 093f 77e6 073f 7bcc 08bf
00000070: fb6f 9fbe a004 ee3e 8457 b83e 0003 193f
00000080: 5604 e93e e9b0 9c3d d3ac e73d 6ca0 583e
00000090: c4dd 763e 3081 0abf 2374 86bf e2e6 6c3f
000000a0: 7363 c73c 8809 80be aa79 f93e 528e 223f
000000b0: a08b 52bc b4ae f1bd 96e6 823d 075f c93e
000000c0: ffda 593f 5e3b 253f c413 40be fa63 ba3e
000000d0: cecf fdbe ce81 51bf 0412 023f fac8 133f
000000e0: b7b4 203f 1818 0c3f 7a88 15bd f753 17be
000000f0: cc22 37bf 1f9b 84bf 62a9 f7be ffdc cbbe
00000100: 3bf8 45be 5c03 1f3f bb18 1bbf cf52 24be
00000110: 3d96 d63e 1f5d f6be c5fe 1d3e 53dd 363f

conv1.bias f4 [8]
-0.048037764 -0.20726003 -0.51422876 -0.21686295 -0.020336583 -0.050795242 0.18631618 -0.0006998406
00000000: 3fc3 44bd f93b 54be 7fa4 03bf 5211 5ebe
00000010: e898 a6bc ac0e 50bd abc9 3e3e 8275 37ba

conv2.weight f4 [32, 8, 3, 3]
-0.5554007 -0.1225755 -0.36264977 -0.34598026 -0.09444528 0.25944367 0.04683629 0.29566848
0.25775206 -0.5523456 -0.34879243 -0.059057724 -0.15460137 0.20068832 0.24068184 0.16047366
-0.0022297283 -0.23355405 -0.50264883 -0.085477024 -0.040077746 -0.077706054 -0.038370088 -0.04509781
-0.2266515 0.035043098 -0.050618686 -0.21615112 -0.27136797 0.08611131 -0.3191401 0.12850642
0.33578268 0.22807875 0.05846144 -0.017526196 -0.13556008 -0.14069742 0.05237958 -0.29956168
0.010890136 -0.12958916 0.10573743 -0.16687083 -0.4623284 -0.5596203 -0.38564008 -0.3287523
-0.36392817 0.08891382 0.2621909 0.42778668 0.47042772 0.10359812 -0.070047855 0.24031891
-0.27960902 -0.18753257 -0.51306695 0.26419082 0.06423558 0.42354742 0.30853707 -0.40894145
-0.2187764 -0.044573165 0.39668325 0.20644768 -0.4139645 -0.024313454 -0.16302676 -0.22118053
-0.18003625 -0.28050697 -0.06611172 0.2206235 0.11901825 -0.3822235 0.18316111 0.21173981
0.14074293 0.040292215 -0.27114335 -0.39777368 -0.14823093 0.07705009 -0.15601896 -0.112269536
0.15558314 0.103311494 -0.24625985 -0.2857725 -0.4289457 0.1617358 0.24312213 0.038934488
-0.3154118 0.19310822 0.17472386 -0.058711912 -0.20701426 -0.5609126 0.06204274 0.13257088
-0.1442146 -0.04887045 0.13050394 -0.14013751 0.045978423 -0.062211297 -0.20853338 0.32065868
0.42060152 0.493402 -0.5971105 0.17444955 0.41307947 -0.31898788 -0.44688106 -0.05900625
0.251329 0.09370985 -0.34144947 0.12137134 0.15061262 -0.11950457 0.07319718 0.13388032
0.13062917 -0.018343337 0.04353672 -0.053527445 0.39334822 0.20660199 -0.29493678 -0.8796866
-0.31928843 -0.41778025 -0.44734675 -0.0021729597 -0.551738 0.074903 -0.031224214 -0.06096106
-0.24518865 -0.11174528 0.016758027 0.07377826 -0.15619746 0.013829441 -0.031266697 0.21581866
-0.13635652 -0.03072386 0.11685515 0.110817194 -0.021982037 0.1291715 -0.22014593 -0.16169676
-0.15949674 -0.025516616 -0.04421392 -0.26765853 -0.08227722 0.14751685 0.07119401 0.05182107
-0.18503398 0.16155095 0.33824924 0.026626777 0.05832831 -0.0031652122 0.018808836 0.09289708
-0.257022 -0.16904691 -0.28408772 0.1685879 0.21357778 -0.32526547 -0.2906221 -0.04539789
0.028378684 0.18446897 -0.46342123 0.078599885 0.31866583 0.21046084 0.31687003 0.41349483
-0.043514382 0.075730346 -0.031585574 0.071147926 -0.4736512 -0.008497053 -0.072624914 -0.39359522
0.33849725 -0.2837066 0.013886438 -0.09852955 0.24736246 0.10683558 -0.36485633 0.12558366
0.1084164 -0.5964968 -0.2397627 -0.45111778 -0.39438352 -0.16289228 0.06633637 -0.122448325
-0.1038462 0.090207785 0.11322183 0.13917354 0.010167078 -0.00057538593 -0.20564593 -0.27891523
0.018151991 -0.08857105 0.07531166 0.102139995 -0.09634695 -0.30678558 -0.05182 -0.031125117
-0.07554698 -0.14473589 0.15480126 0.08678846 0.35713607 -0.27554873 -0.21950586 0.41974577
0.091218196 0.05765975 -0.3380817 0.071897015 0.1950972 0.19053775 -0.09787527 -0.25068364
0.03838148 0.14355023 -0.068306886 -0.046312463 0.4272487 0.25114042 0.47140318 -0.29496673
00000000: be2e 0ebf dd08 fbbd 3bad b9be 5324 b1be
00000010: 876c c1bd cdd5 843e 69d7 3f3d dc61 973e
00000020: 14f8 833e 8566 0dbf ec94 b2be 83e6 71bd
00000030: d24f 1ebe 3d81 4d3e 4d75 763e 3553 243e
00000040: a220 12bb cb28 6fbe 98ad 00bf 940e afbd
00000050: 9028 24bd 5a24 9fbd f429 1dbd 7bb8 38bd
00000060: 5517 68be 5a89 0f3d 8a55 4fbd b856 5dbe
00000070: bef0 8abe 205b b03d 5566 a3be 3097 033e
00000080: b5eb ab3e 7a8d 693e 4375 6f3d 1993 8fbc
00000090: 43d0 0abe fc12 10be f88b 563d 2660 99be
000000a0: 8a6c 323c 05b3 04be de8c d83d 30e0 2abe
000000b0: 4fb6 ecbe 4743 0fbf 9e72 c5be 3952 a8be
000000c0: cb54 babe 7318 b63d e33d 863e db06 db3e
000000d0: e7db f03e 402b d43d 4075 8fbd 2916 763e
000000e0: ea28 8fbe 8a08 40be 5b58 03bf 0544 873e
000000f0: f28d 833d 35db d83e 92f8 9d3e c660 d1be
00000100: ec06 60be 5a92 36bd 111a cb3e 0567 533e
00000110: 28f3 d3be 022d c7bc 7df0 26be 267d 62be
00000120: 6c5b 38be 9c9e 8fbe 9565 87bd 20eb 613e
00000130: d7bf f33d ccb2 c3be 968e 3b3e 52d2 583e
00000140: ea1e 103e 7309 253d 4dd3 8abe fea8 cbbe
00000150: d9c9 17be 70cc 9d3d 6fc3 1fbe 92ed e5bd
00000160: 3051 1f3e fa94 d33d 8b2b 7cbe c650 92be
00000170: c59e dbbe 129e 253e 02f5 783e c579 1f3d
00000180: a87d a1be 29be 453e d0ea 323e e77b 70bd
00000190: 8cfb 53be f897 0fbf 8720 7e3d a9c0 073e
000001a0: feac 13be 622c 48bd d3a2 053e 3580 0fbe
000001b0: df53 3c3d 46d1 7ebd c689 55be 602d a43e
000001c0: 1559 d73e 309f fc3e 3cdc 18bf e7a2 323e
000001d0: 277f d33e 6152 a3be 98cd e4be 8ab0 71bd
000001e0: 32ae 803e f3ea bf3d 77d2 aebe 8991 f83d
000001f0: 323a 1a3e d0be f4bd 67e8 953d ec17 093e
00000200: a7c3 053e c444 96bc 8f53 323d 983f 5bbd
00000210: f064 c93e 798f 533e f401 97be 2433 61bf
00000220: c679 a3be 4be7 d5be a20a e5be 3768 0ebb
00000230: b43e 0dbf be66 993d ecc9 ffbc 4eb2 79bd
00000240: bc12 7bbe b6da e4bd 2148 893c 0e19 973d
00000250: 3af2 1fbe e194 623c 8211 00bd 91ff 5c3e
00000260: 0ba1 0bbe 9bb0 fbbc c151 ef3d 20f4 e23d
00000270: ac13 b4bc 8945 043e ef6d 61be d693 25be
00000280: 1d53 23be 3908 d1bc a819 35bd 8a0a 89be
00000290: f680 a8bd a80e 173e 2ace 913d 5542 543d
000002a0: 8c79 3dbe 9d6d 253e 012f ad3e 6620 da3c
000002b0: aae9 6e3d 736f 4fbb fd14 9a3c d340 be3d
000002c0: 6398 83be a21a 2dbe f273 91be 4ea2 2c3e
000002d0: 22b4 5a3e 3289 a6be 6bcc 94be 23f3 39bd
000002e0: 6a7a e83c 6fe5 3c3e 8c45 edbe faf8 a03d
000002f0: 2b28 a33e 0c83 573e ca3c a23e 98b5 d33e
00000300: 233c 32bd 8318 9b3d e05f 01bd 01b6 913d
00000310: 6982 f2be 3937 0bbc 5fbc 94bd 5085 c9be
00000320: 834f ad3e fe41 91be f183 633c dcc9 c9bd
00000330: 964c 7d3e 9dcc da3d 73ce babe 0199 003e
00000340: 6b09 de3d 04b4 18bf 5a84 75be e9f8 e6be
00000350: a3ec c9be 3ccd 26be 5ddb 873d 30c6 fabd
00000360: 51ad d4bd dcbe b83d d9e0 e73d 8283 0e3e
00000370: d193 263c 7fd5 16ba d994 52be facd 8ebe
00000380: 7cb3 943c bd64 b5bd 003d 9a3d c62e d13d
00000390: 8d51 c5bd 0013 9dbe 3541 54bd 1afa febc
000003a0: 60b8 9abd a535 14be 3984 1e3e 26be b13d
000003b0: 8ada b63e b914 8dbe 25c6 60be ebe8 d63e
000003c0: 9bd0 ba3d a12c 6c3d 0b19 adbe be3e 933d
000003d0: 8fc7 473e 541c 433e d472 c8bd 9b59 80be
000003e0: e635 1d3d d5fe 123e 7be4 8bbd 23b2 3dbd
000003f0: 57c0 da3e 7a95 803e c25b f13e e105 97be

conv2.bias f4 [32]
-0.08398647 -0.1120685 -0.350743 -0.26373953 -0.09414045 -0.13352983 -0.3495647 -0.31080562
0.011835445 -0.050068423 -0.20951147 -0.17469828 -0.14213012 -0.12915605 -0.16813745 -0.049417935
-0.1567892 -0.10918857 -0.28850853 -0.21416026 -0.03057741 -0.2599217 -0.14821498 -0.26426148
-0.44099706 0.067630194 -0.21360129 0.0090816915 -0.3204871 0.16516836 -0.16742574 -0.12003677
00000000: 1901 acbd 2b84 e5bd 9694 b3be de08 87be
00000010: b5cc c0bd 0bbc 08be 25fa b2be ea21 9fbe
00000020: 74e9 413c 8c14 4dbd 2d8a 56be 1be4 32be
00000030: 8f8a 11be 7c41 04be 392c 2cbe 766a 4abd
00000040: 598d 20be 429e dfbd 64b7 93be d44c 5bbe
00000050: 7a7d fabc 7514 85be abc5 17be 484d 87be
00000060: 5eca e1be b381 8a3d 4cba 5abe 60cb 143c
00000070: e316 a4be e521 293e a771 2bbe d7d5 f5bd

fc1.weight f4 [10, 1568]
0.10739347 0.058997337 -0.08492962 -0.05839313 -0.19536167 -0.06265007 0.007054943 0.08812521
0.032355525 0.03497988 -0.061371945 -0.10796089 0.20541069 0.0071305498 -0.20833722 0.012056393
0.17935894 0.06981956 -0.24334976 -0.47815567 -0.39196196 -0.052418582 0.23298952 0.065021664
-0.29841316 -0.06790144 0.059709825 -0.23384856 0.19418715 -0.1073398 -0.12425009 -0.10430972
0.10835329 0.08203939 -0.45844558 -0.09570066 -0.28965884 -0.13526157 -0.20437168 0.06400082
0.3966345 0.3348605 0.15484627 -0.5345383 -0.9432288 -0.4612496 -0.18412355 0.11011795
0.12466509 -0.11756043 -0.12508792 0.03731301 -0.07801615 0.040621024 -0.032809164 -0.086433925
-0.18299353 0.17794235 -0.14570853 0.09380148 0.105798304 0.029652724 0.1025839 0.25827706
-0.18634906 -0.024250535 0.1453813 0.14074282 0.06506813 0.10803774 -0.065611735 -0.56010395
-0.13608815 -0.50473243 -0.30329332 -0.15196528 0.035259213 -0.5827578 -0.172658 0.020118536
0.025178228 0.14886409 -0.35142905 -0.17982343 -0.34143475 0.008428159 -0.075648524 0.02922771
-0.43487474 -0.26225746 0.030122707 -0.0034079885 0.19506282 0.014440958 -0.45591298 -0.6307739
-0.2921614 0.08570754 -0.20019196 -0.21255021 -0.07574691 0.16403697 -0.1029464 0.10638896
0.0009351149 -0.18611832 -0.014254075 -0.09941872 0.21099511 0.083589144 0.25345778 -0.1432239
0.033570632 -0.030460415 -0.07383479 -0.036461562 -0.05525418 0.24329308 -0.07337625 0.028390838
0.22606373 0.0034525373 0.22345948 -0.5767374 0.035019558 -0.19466421 0.227866 0.1450129
-0.08767869 -0.20564978 -0.014492241 0.2544697 -0.19781725 -0.16692469 0.06089213 0.24428388
0.23962352 0.04025531 0.07795614 -0.031933192 0.137282 0.1628603 -0.28132382 0.15491618
0.13072644 0.0890807 -0.06392716 -0.08462714 -0.011528247 0.14381818 0.0064393193 0.26288977
-0.041838747 0.032825474 -0.024045598 -0.2461853 -0.51576483 0.022014447 -0.10237218 0.049546823
-0.016528947 0.06917181 -0.06479658 -0.012663305 0.16498351 -0.09383365 0.039888825 -0.3239738
0.045341324 -0.21879937 -0.31333485 0.057787586 -0.06820133 -0.10710049 -0.2828875 0.03247335
0.10271091 0.106721886 -0.15706648 0.14275852 -0.1450926 -0.12702775 0.07157798 -0.062193003
0.040241703 -0.08254356 -0.0873483 0.058214147 -0.3078342 -0.106439635 0.07999658 0.02042588
0.0011107081 0.06990852 -0.19572362 -0.22399345 0.09542729 -0.039215248 0.17751242 -0.12859201
-0.04697982 0.24165097 -0.023952477 -0.018956095 0.0600726 0.16276573 0.33865523 0.14720213
0.09143649 0.015534814 0.0720799 -0.10139743 0.09994167 -0.16555999 0.003870748 -0.22315009
-0.23152182 -0.077657044 -0.33106023 -0.23416287 0.03668033 0.07759402 -0.38430867 -0.08346324
-0.024993166 -0.56813204 -0.6100176 -0.11081317 0.020646127 0.30830133 0.056156456 0.06143426
-0.11415542 -0.011353385 0.19709697 0.07664477 0.122611366 -0.15020351 0.058524087 -0.07750425
-0.0060407417 0.06768323 0.00034657613 -0.004211168 -0.15061617 -0.030740501 0.014410325 0.058049005
-0.0034679861 -0.06420109 -0.2441339 0.034725085 0.10914188 0.013864313 -0.20755854 0.020105038
00000000: 1cf1 db3d 31a7 713d 95ef adbd a22d 6fbd
00000010: e40c 48be ae4e 80bd 272d e73b fd7a b43d
00000020: 3a87 043d 1047 0f3d 2661 7bbd 991a ddbd
00000030: 2e57 523e 63a7 e93b 5a56 55be 2d88 453c
00000040: dfa9 373e 8ffd 8e3d ae30 79be d2d0 f4be
00000050: 3daf c8be deb4 56bd ce94 6e3e 142a 853d
00000060: 9cc9 98be e90f 8bbd 4a92 743d ff75 6fbe
00000070: ffd8 463e f8d4 dbbd d576 febd 56a0 d5bd
00000080: 54e8 dd3d 4504 a83d 61b9 eabe b5fe c3bd
00000090: 2a4e 94be 0282 0abe cf46 51be dd12 833d
000000a0: ad13 cb3e d672 ab3e 0590 1e3e 81d7 08bf
000000b0: 7177 71bf e828 ecbe e28a 3cbe 8585 e13d
000000c0: 6950 ff3d 86c3 f0bd 0c17 00be 87d5 183d
000000d0: eec6 9fbd 3b62 263d e762 06bd 4504 b1bd
000000e0: a862 3bbe 8536 363e 9e34 15be fe1a c03d
000000f0: c8ac d83d 45ea f23c 8217 d23d e43c 843e
00000100: 4ad2 3ebe 0fa9 c6bc d6de 143e e31e 103e
00000110: 7142 853d e442 dd3d 725f 86bd f962 0fbf
00000120: b15a 0bbe 2536 01bf 4349 9bbe c99c 1bbe
00000130: f76b 103d 9d2f 15bf 42cd 30be a1cf a43c
00000140: 9242 ce3c d46f 183e 82ee b3be a223 38be
00000150: 89d0 aebe 4316 0a3c 9ded 9abd f36e ef3c
00000160: e7a7 debe 9c46 86be e5c3 f63c 8f58 5fbb
00000170: 8cbe 473e c599 6c3c 6d6d e9be 667a 21bf
00000180: 2e96 95be 6f87 af3d 1fff 4cbe c3a6 59be
00000190: 3221 9bbd 4ff9 273e 90d5 d2bd 74e2 d93d
000001a0: 8022 753a cd95 3ebe ec89 69bc 0b9c cbbd
000001b0: 1a0f 583e c930 ab3d 38c5 813e 49a9 12be
000001c0: 5c81 093d 1f88 f9bc b236 97bd b858 15bd
000001d0: 3552 62bd d221 793e 4a46 96bd e793 e83c
000001e0: 407d 673e f743 623b 90d2 643e 10a5 13bf
000001f0: ab70 0f3d 0e56 47be b455 693e 437e 143e
00000200: e390 b3bd db95 52be dd70 6dbc da49 823e
00000210: 9b90 4abe 4eee 2abe 076a 793d 8e25 7a3e
00000220: de5f 753e c0e2 243d 78a7 9f3d 61cc 02bd
00000230: a793 0c3e dac4 263e ad09 90be 59a2 1e3e
00000240: 27dd 053e f16f b63d 3eec 82bd fe50 adbd
00000250: f9e0 3cbc 1345 133e ed00 d33b 7d99 863e
00000260: 1b5f 2bbd 0174 063d 46fb c4bc 0018 7cbe
00000270: 2a09 04bf a457 b43c 81a8 d1bd 9cf1 4a3d
00000280: b767 87bc f3a9 8d3d 12b4 84bd c079 4fbc
00000290: 70f1 283e db2b c0bd 7762 233d e5df a5be
000002a0: d3b7 393d f10c 60be 6d6d a0be adb2 6c3d
000002b0: 24ad 8bbd 8057 dbbd a1d6 90be c702 053d
000002c0: 195a d23d 0191 da3d 09d6 20be 4a2f 123e
000002d0: 2893 14be 9013 02be 7a97 923d 17be 7ebd
000002e0: 7cd4 243d 990c a9bd aae3 b2bd f571 6e3d
000002f0: 729c 9dbe 06fd d9bd 3fd5 a33d 2d54 a73c
00000300: 2e95 913a 332c 8f3d c66b 48be 8a5e 65be
00000310: 626f c33d 2ba0 20bd d1c5 353e a0ad 03be
00000320: e96d 40bd 5a73 773e fc37 c4bc d049 9bbc
00000330: b00e 763d 0fac 263e 3864 ad3e 28bc 163e
00000340: 0e43 bb3d bc85 7e3c a09e 933d 75a9 cfbd
00000350: 38ae cc3d 8f88 29be 60ac 7d3b 7581 64be
00000360: 0e14 6dbe a80a 9fbd ba80 a9be 64c8 6fbe
00000370: 1d3e 163d 9de9 9e3d 1bc4 c4be c6ee aabd
00000380: 78be ccbc 1a71 11bf 1d2a 1cbf 04f2 e2bd
00000390: 1122 a93c acd9 9d3e 5004 663d 7ea2 7b3d
000003a0: 51ca e9bd 8c03 3abc cad3 493e eff7 9c3d
000003b0: ab1b fb3d f3ce 19be f4b6 6f3d 8cba 9ebd
000003c0: 6af1 c5bb 819d 8a3d a9b4 b539 d6fd 89bb
000003d0: 203b 1abe 81d3 fbbc 4919 6c3c cbc4 6d3d
000003e0: 2747 63bb dc7b 83bd 3dfe 79be e43b 0e3d
000003f0: c785 df3d 2527 633c 3a8a 54be 52b3 a43c

fc1.bias f4 [10]
0.096080154 0.17620422 -0.0022801547 -0.08109863 -0.103327036 -0.011843636 -0.030221913 -0.040963095
0.043094423 0.01048776
00000000: acc5 c43d e16e 343e a66e 15bb 0a17 a6bd
00000010: 209d d3bd cf0b 42bc f293 f7bc ebc8 27bd
00000020: c783 303d dbd4 2b3c
