checkpoints/epoch=7.checkpoint.pth.tar (torch, 53320 bytes, 4 tensors)

conv1.weight f4 [32, 1, 5, 5]
0	0xbe77b272	-0.24189165
1	0xbccd42f4	-0.02505634
2	0x3e48368c	0.19552058
3	0x3de3e4af	0.11127602
4	0xbd248046	-0.040161394
5	0xbe7c2303	-0.24622731
6	0x3e43fa2c	0.19138402
7	0x3e99cc9a	0.3003891
8	0xbcdf28af	-0.02724108
9	0xbe5621f5	-0.20911391
10	0xbda6ccd5	-0.08144537
11	0x3e957b77	0.2919576
12	0x3e19f88e	0.15036222
13	0xbdda35d3	-0.106547974
14	0xbe5d11a1	-0.21588756
15	0x3da29e95	0.07940403
16	0x3df8e8fc	0.12153813
17	0xbd6a7612	-0.057241507
18	0xbe054ff1	-0.13018776
19	0xbdecc90c	-0.11561784
20	0x3d69b2e7	0.05705538
21	0x3ba6aeba	0.005086747
22	0xbd10f0c9	-0.03538588
23	0x3c8cfebe	0.017211314
24	0x3ca74a65	0.020421216
25	0xbe418bc3	-0.18900971
26	0xbe312f1a	-0.17303124
27	0xbe884694	-0.26616347
28	0xbe8c2212	-0.27369744
29	0xbdbe6efb	-0.092985116
30	0xbe1a21ac	-0.15051907
31	0xbe384f7b	-0.1799907
32	0xbe5a1c9c	-0.21299976
33	0xbc661b65	-0.014044617
34	0x3dede095	0.11615101
35	0xbe56ab87	-0.2096387
36	0xbe2f3169	-0.17108692
37	0xbd110857	-0.035408344
38	0x3e243e4e	0.16039392
39	0x3e6188fe	0.22024915
40	0xbe914314	-0.2837149
41	0xbe0a77f3	-0.1352232
42	0x3e271ace	0.16318819
43	0x3e699070	0.22809005
44	0x3dacdee4	0.084409505
45	0xbe92b7e9	-0.28655937
46	0xbe328f65	-0.17437513
47	0x3e2fc517	0.17165028
48	0x3e091da4	0.13390213
49	0x3e2bbf8f	0.16772293
50	0xbde4f968	-0.11180383
51	0xbd5d5289	-0.05403379
52	0x3dbb1a5c	0.09135887
53	0x3e29680c	0.16543597
54	0x3e182a02	0.14859775
55	0xbe122782	-0.14272884
56	0x3d8866db	0.06660243
57	0x3e37a4ca	0.17933956
58	0x3e56fd69	0.20995106
59	0x3c45a0fb	0.0120623065
60	0x3e33e471	0.17567612
61	0x3ea70672	0.32622105
62	0x3e990f67	0.29894564
63	0xbd245552	-0.04012043
64	0xbe4f5c81	-0.20250131
65	0x3ebe5d8a	0.3718074
66	0x3e11f642	0.14254096
67	0xbd43cea0	-0.047804475
68	0xbe148444	-0.1450358
69	0xbd9e1d78	-0.077204645
70	0x3e192c4c	0.14958304
71	0xbe6a5796	-0.22884974
72	0xbe60a3ab	-0.21937434
73	0xbde1da0f	-0.110279195
74	0xbd952693	-0.07282748
75	0x3d826bd5	0.063682236
76	0x3dfa28c0	0.12214804
77	0x3c5bf09d	0.013424066
78	0x3d1b337f	0.037890907
79	0xbb1365ec	-0.002249117
80	0x3e1a5cf3	0.1507452
81	0x3e841f72	0.2580524
82	0x3e972514	0.29520476
83	0x3e95dc83	0.292698
84	0x3eaa5c61	0.33273605
85	0x3de363ad	0.11102996
86	0x3e62b862	0.22140649
87	0x3ea61ccc	0.32443845
88	0x3e6a9d33	0.22911529
89	0x3eabbd61	0.33542922
90	0xbe05b4f2	-0.13057306
91	0xbe2ba00b	-0.1676027
92	0xbe288837	-0.16458212
93	0xbdfd4a5a	-0.12367697
94	0x3e31730b	0.17329042
95	0xbec02e35	-0.37535253
96	0xbec80583	-0.39066705
97	0xbef16a37	-0.47151348
98	0xbeeb3d40	-0.45945168
99	0xbe885c7e	-0.26633066
100	0x3e8c26cc	0.2737335
101	0x3e838e92	0.2569471
102	0x3ea01a89	0.31270245
103	0x3eaca551	0.33719876
104	0x3e9e12cc	0.30873716
105	0x3e80f92c	0.25190103
106	0x3eb97345	0.36220756
107	0x3e647676	0.22310814
108	0x3e331456	0.17488226
109	0x3ea282c6	0.31740397
110	0xbcf6706a	-0.0300829
111	0x3d295db7	0.04134914
112	0x3e5b7f97	0.2143539
113	0x3dabf694	0.083966404
114	0x3e054529	0.13014664
115	0xbeb78f36	-0.3585145
116	0xbe6231b8	-0.22089279
117	0xbe76864d	-0.24074669
118	0xbe64c5a1	-0.22341014
119	0xbe5955e2	-0.21224168
120	0xbec64579	-0.38724878
121	0xbec1d017	-0.37854072
122	0xbef3463c	-0.47514522
123	0xbea85702	-0.32878882
124	0xbe6e0009	-0.23242201
125	0xbdadace8	-0.08480245
126	0x3dc638e8	0.09678823
127	0x3e80f8ba	0.25189763
128	0x3df30bf8	0.11867517
129	0xbdd83cec	-0.10558495
130	0xbe3bd401	-0.18342592
131	0x3e228178	0.15869701
132	0x3e6e71c9	0.23285593
133	0x3d593cc4	0.053036466
134	0xbea4ddc8	-0.32200456
135	0xbdc4b45b	-0.096047126
136	0x3e5e7d5e	0.21727511
137	0x3e8012b9	0.25014284
138	0x3c8d2820	0.017231047
139	0xbe939eba	-0.28832036
140	0xbddcd031	-0.10781897
141	0x3d46b85c	0.048515663
142	0x3e39ba6f	0.18137525
143	0x3c87433e	0.016511556
144	0xbe2a3bda	-0.16624394
145	0xbd543849	-0.05181149
146	0x3d951c8c	0.072808355
147	0x3e3af650	0.18258023
148	0x3e32ad6f	0.17448972
149	0xbdb102f6	-0.08643143
150	0xbe190a53	-0.14945345
151	0xbe4a2dd1	-0.1974404
152	0xbe551e45	-0.20812328
153	0xbde8d700	-0.11369133
154	0x3e22edb7	0.15910994
155	0xbe31daa5	-0.17368563
156	0xbe40ad02	-0.18815997
157	0xbe2d5d4b	-0.1693012
158	0x3e14ccd0	0.14531255
159	0x3e9d38f7	0.30707523
160	0xbe31d31f	-0.17365693
161	0xbe42969c	-0.19002765
162	0xbc836304	-0.016038425
163	0x3e8d6a70	0.27620268
164	0x3e2e83fb	0.17042534
165	0xbe7b277e	-0.24526784
166	0xbe3accd0	-0.18242192
167	0x3c068f34	0.008212853
168	0x3e8bef5b	0.2733105
169	0x3e20f51b	0.157185
170	0xbe876913	-0.26447353
171	0xbd6e4f82	-0.058181293
172	0x3e0a1384	0.13484007
173	0x3e97df65	0.29662624
174	0x3d8b5982	0.06804182
175	0x3ebbcba6	0.3667881
176	0x3edef779	0.43548182
177	0x3eca3da3	0.3950015
178	0x3e6b7c7d	0.22996707
179	0x3d8fc57d	0.0702009
180	0x3e1cf27e	0.15326878
181	0x3e84335b	0.2582043
182	0x3c5f35b5	0.013623645
183	0xbde27050	-0.11056578
184	0xbebc33e2	-0.36758333
185	0xbe430eb7	-0.19048582
186	0xbdfa067e	-0.122082695
187	0xbe8c5585	-0.27408996
188	0xbea79b15	-0.32735506
189	0xbef08379	-0.46975306
190	0xbef156de	-0.47136587
191	0xbea85291	-0.32875493
192	0xbec8ab96	-0.3919341
193	0xbe992812	-0.29913384
194	0xbe664a1c	-0.22489208
195	0xbef35860	-0.47528362
196	0xbea81fcb	-0.32836756
197	0xbe8ab295	-0.27089372
198	0xbd0e4b1c	-0.0347396
199	0x3dd5ee46	0.10445838
200	0xbc8d6fa9	-0.017265158
201	0xbce1418c	-0.027497075
202	0xbd8e9b14	-0.069631726
203	0xbcc9b516	-0.024622481
204	0x3e426c05	0.18986519
205	0xbdc7281e	-0.097244486
206	0xbdfdcd6d	-0.123926975
207	0xbdd9f835	-0.10643045
208	0x3d312b9a	0.043254472
209	0x3e29e0b4	0.16589624
210	0xbdfada0a	-0.12248619
211	0xbe40c345	-0.1882449
212	0xbe51e53e	-0.20497605
213	0x3dd05145	0.10171751
214	0x3e887c4d	0.26657334
215	0xbe588f6d	-0.21148463
216	0xbe810108	-0.251961
217	0xbbacf226	-0.00527789
218	0x3e75e64e	0.24013636
219	0x3e8eeaa4	0.27913392
220	0xbe57b9ae	-0.21066925
221	0xbe1df0e7	-0.15423928
222	0x3e169fc4	0.14709383
223	0x3e9cba2a	0.30610782
224	0x3d6a9c7f	0.057278153
225	0x3ea2a1f7	0.31764194
226	0x3e13e2bb	0.1444196
227	0xbcdbf429	-0.026849823
228	0xbe70bea3	-0.23510222
229	0xbec7fc78	-0.39059806
230	0xbe7fa135	-0.2496384
231	0xbee71360	-0.4513197
232	0xbed56cae	-0.4168448
233	0xbeb91499	-0.36148527
234	0xbd994833	-0.07484474
235	0xbedb53bd	-0.42837325
236	0xbf0c104a	-0.54712355
237	0xbe81a75b	-0.25322995
238	0x3ca7b129	0.020470219
239	0x3ea842d9	0.328635
240	0xb931cb56	-0.00016955784
241	0x3e432f4b	0.1906101
242	0x3ed29dab	0.41135916
243	0x3eed569f	0.4635515
244	0x3e36839a	0.1782364
245	0x3f00aa95	0.5026029
246	0x3f1f8e5e	0.6232661
247	0x3ed09a53	0.4074274
248	0x3dfde1a0	0.1239655
249	0xbc5fee41	-0.013667644
250	0x3cc678dc	0.024227552
251	0xbc1b6317	-0.009484074
252	0x3d201aa2	0.0390879
253	0xbd6d5e6c	-0.057951376
254	0xbe0d917a	-0.13825026
255	0x3da77552	0.08176674

conv1.bias f4 [32]
0	0xbdc72bb5	-0.09725133
1	0x3dd6a2e5	0.104802884
2	0xbe13767a	-0.14400664
3	0xb96226e2	-0.00021567525
4	0xba7de9b6	-0.000968601
5	0xbe0f90d3	-0.1402009
6	0xbd2d2c3e	-0.04227852
7	0x3e9be80c	0.30450475
8	0xbd09b706	-0.03362181
9	0xb950a60d	-0.00019898285
10	0xbd9ee519	-0.07758541
11	0xbe4a73e2	-0.19770768
12	0x3df9a811	0.12190259
13	0xbafc698b	-0.0019257528
14	0x3d1eb2a7	0.038744595
15	0xbb0c5281	-0.002141148
16	0xbe8e6eae	-0.27818817
17	0xbd5092ed	-0.05092137
18	0xbe3ee566	-0.18642196
19	0x3e0d74a4	0.13814026
20	0xbe4bc347	-0.19898711
21	0xbdf9d94c	-0.12199649
22	0x3e117d57	0.1420797
23	0xbd8c2a12	-0.06843962
24	0xbe45d4e3	-0.19319491
25	0xbe18bcd4	-0.14915782
26	0x3d6c9d89	0.057767425
27	0xbe234b96	-0.15946802
28	0xbe7b2c39	-0.24528588
29	0xbb451efe	-0.0030078287
30	0x3d31d97e	0.043420307
31	0xbc8ae727	-0.016955925

fc1.weight f4 [10, 1152]
0	0x1dc91d27	5.32344e-21
1	0xbac5a842	-0.0015080052
2	0xb9b6e908	-0.00034887367
3	0xbb08c75b	-0.0020870778
4	0xbc781857	-0.015142522
5	0xbbbf96c4	-0.00584683
6	0xb7a1dcb8	-1.9295476e-05
7	0xbc9494d8	-0.01813738
8	0x3b652e1c	0.003497011
9	0xbcc79046	-0.024360787
10	0xbcf7ae61	-0.030234518
11	0xbcd6958d	-0.026194358
12	0x3aead78d	0.0017917022
13	0x3c9ba661	0.019000234
14	0xbc992155	-0.018692652
15	0xbc88891f	-0.016666947
16	0xbd254dc8	-0.04035738
17	0x3c37720b	0.011196624
18	0xbaba67e1	-0.0014221632
19	0x3d4482f4	0.04797645
20	0x3da6f37e	0.08151911
21	0x3cc4d23b	0.024026027
22	0x3caa5e5b	0.020796945
23	0x3c50914e	0.012729956
24	0x3c0821d3	0.008308846
25	0x3d70d39c	0.058795556
26	0x3d9b8269	0.07593233
27	0xbc722ae6	-0.014780736
28	0x3d1a1a2a	0.03762261
29	0x3d49aa31	0.049234573
30	0xbb915d13	-0.004436144
31	0x3ce3955a	0.027781177
32	0xbb4b1b8b	-0.0030991759
33	0xbd011ffc	-0.031524643
34	0xbccdf59c	-0.02514153
35	0xbc529174	-0.012852062
36	0xbbc45e30	-0.0059926733
37	0xbc5912ec	-0.01324914
38	0x3c8381ff	0.016053198
39	0xbaeaee2d	-0.0017923765
40	0x3d069924	0.03286089
41	0x3c2ccf9f	0.010547548
42	0xbbe14765	-0.006874966
43	0x3c86c02b	0.016449055
44	0xbd1b51ed	-0.037919927
45	0x3d2004e5	0.039067168
46	0xbb31c96e	-0.0027128118
47	0x3aede01c	0.0018148455
48	0xbc628cc5	-0.013827507
49	0x3cdd84b3	0.027040815
50	0x3c4ba3aa	0.012429157
51	0x3cbd69a8	0.02312167
52	0xbd701086	-0.058609508
53	0x3c34a527	0.0110257035
54	0x3c2dbc19	0.010603928
55	0x3d46e4a4	0.048557892
56	0x3d744dd3	0.05964453
57	0xbd0b60ba	-0.034027793
58	0xbbce4f2f	-0.0062960605
59	0x3d0488cb	0.03235702
60	0x3cdec3c7	0.027192963
61	0xbd2278a6	-0.03966584
62	0xbbc7a008	-0.0060920753
63	0x3ced2035	0.028946022
64	0x3d21dfc4	0.03952004
65	0x3ccff87e	0.025387045
66	0xbbc9a943	-0.006154211
67	0xbcac4782	-0.021030191
68	0xbdfcca7e	-0.1234331
69	0xbd0c4ac7	-0.034251
70	0xbd02c589	-0.031926665
71	0x390e6e5b	0.00013583286
72	0x9f7d6f99	-5.3667145e-20
73	0xbbe3b90d	-0.00694955
74	0xbc39e8bf	-0.011346995
75	0xbb2cf284	-0.0026389668
76	0xbd046635	-0.032324035
77	0xbc717643	-0.014737668
78	0xb8c788de	-9.514553e-05
79	0xbc5fee6a	-0.013667682
80	0x3cd40cdb	0.025885036
81	0xbd9e975a	-0.07743712
82	0xbdb0986d	-0.08622823
83	0xbd0d7a0f	-0.034540232
84	0x3b90f610	0.004423864
85	0x3ccde2b1	0.025132509
86	0xbc7b68b5	-0.015344788
87	0x3c8ac316	0.016938727
88	0xbdd531b4	-0.10409871
89	0xbc02fa4d	-0.007994247
90	0xbbb20d9b	-0.005433751
91	0x3d74f86c	0.059807226
92	0x3dc1149f	0.09427761
93	0xbb9c3a00	-0.0047676563
94	0xbd7560da	-0.059906818
95	0x3c0250a0	0.007953793
96	0xbb060b58	-0.0020453539
97	0x3c8dccea	0.017309625
98	0x3c83d8a6	0.016094517
99	0xbd1e5848	-0.03865841
100	0x3d814392	0.06311716
101	0x3d59deca	0.053190984
102	0xbbce7cfe	-0.0063015213
103	0xbccd515b	-0.025063207
104	0xbb73d224	-0.003720411
105	0x3cce5d06	0.025190841
106	0xbab9ecfd	-0.0014185008
107	0xbc210090	-0.009826794
108	0xb86c19ca	-5.6290803e-05
109	0xb90d4660	-0.00013473025
110	0xbb7ba21b	-0.0038396183
111	0x3bfa0a95	0.007630656
112	0x3c1aeb1f	0.009455471
113	0xbb3eac5e	-0.0029094438
114	0xbb0ad1ea	-0.0021182247
115	0xbd204e79	-0.039137337
116	0xbd8e3676	-0.06943981
117	0x3c76bc3c	0.015059527
118	0x3c8a3396	0.016870301
119	0xbb6ca64c	-0.0036109863
120	0xbb9dfeb5	-0.004821623
121	0xbd2a47a3	-0.041572224
122	0xbdbbee26	-0.091762826
123	0x3d3802c9	0.04492453
124	0x3abe6cdd	0.0014528293
125	0xbd464008	-0.04840091
126	0x3c525676	0.012837997
127	0xbdce04a3	-0.10059478
128	0xbe091498	-0.13386762
129	0xbd8b2e1b	-0.06795903
130	0xbd8d6b08	-0.0690518
131	0x3d23f81b	0.040031534
132	0x3c0161ec	0.007896882
133	0xbc644b7c	-0.0139340125
134	0xbd23c5a4	-0.039983407
135	0xbd07318a	-0.03300623
136	0x3bf01571	0.0073267748
137	0xbb830813	-0.0039987653
138	0x3cd375c1	0.025812985
139	0xbc8c5b98	-0.017133519
140	0x3d9b4b20	0.07582688
141	0x3db8bbbb	0.09020182
142	0xbc525517	-0.01283767
143	0xbc912a17	-0.017720265
144	0xb41d8b0b	-1.4672348e-07
145	0xb9ba8ead	-0.00035582986
146	0xba7963a2	-0.00095134426
147	0x3c43c40c	0.011948597
148	0x3c3505e5	0.011048769
149	0xba40b16d	-0.0007350657
150	0xbbb43c5d	-0.00550036
151	0xbd3ca5c5	-0.046056528
152	0xbde58bc8	-0.11208302
153	0x3b76eb6a	0.0037676939
154	0xbc18ff60	-0.00933823
155	0xbce317de	-0.027721342
156	0xbbc877ee	-0.0061178124
157	0xbd4d8bce	-0.050182156
158	0xbd1b959e	-0.037984483
159	0x3d2d514a	0.04231385
160	0x3c46fe27	0.012145556
161	0xbda67d32	-0.08129348
162	0xbc60f330	-0.013729855
163	0xbe0ba945	-0.1363879
164	0xbde0dc86	-0.109795615
165	0xbdac13cd	-0.08402214
166	0xbe13cb4f	-0.14433025
167	0x3ca07f98	0.019592091
168	0xbcc62486	-0.024187338
169	0xbd9588c0	-0.073014736
170	0xbd415a45	-0.04720523
171	0xbcd576f4	-0.026057698
172	0xbc45bd27	-0.012069023
173	0x3cb1f617	0.02172379
174	0xb9961220	-0.00028623734
175	0xbcee1f4a	-0.029067654
176	0x3d7edd54	0.062222794
177	0x3de19ffd	0.110168435
178	0x3c9e57cc	0.019328974
179	0x3bc56a02	0.0060246
180	0xb82bcece	-4.096218e-05
181	0xbc820ff4	-0.015876748
182	0xbc17deee	-0.009269459
183	0x39e6226b	0.00043894662
184	0xbc1aae81	-0.009441019
185	0x398b358b	0.0002655204
186	0xb8060edf	-3.196194e-05
187	0xbc99f6be	-0.018794414
188	0x3a0dd379	0.0005410235
189	0xbcd1ff11	-0.02563432
190	0xbbf5f1a9	-0.007505615
191	0x3c991df7	0.018691046
192	0xbaedf450	-0.0018154476
193	0x3c7c5516	0.015401145
194	0xbcca7bda	-0.02471726
195	0xbcadb0a2	-0.02120239
196	0x3d0f91f7	0.035051312
197	0x3d4e4dc8	0.050367147
198	0x3b4e4001	0.0031471255
199	0x3d0e172c	0.034690067
200	0x3de82d26	0.113367364
201	0xbd2d9489	-0.042377982
202	0x3cac5f41	0.021041514
203	0x3d78198b	0.060571235
204	0x3c0b84b3	0.008515525
205	0x3d4c209a	0.04983578
206	0x3dd75ee6	0.10516147
207	0xbd83d5bd	-0.06437252
208	0x3c86291d	0.016377026
209	0x3d325284	0.043535724
210	0xbb41ca80	-0.0029570162
211	0x3d81d05b	0.06338569
212	0x3cfb3df5	0.030669192
213	0xbd8fa874	-0.07014552
214	0xbdd116a9	-0.102094
215	0xbd3ee6e7	-0.046606924
216	0xbc49e16e	-0.012321813
217	0xbc561ba3	-0.013068113
218	0x39522a40	0.000200429
219	0xbc9ac91e	-0.018894728
220	0x3bcc4eaf	0.0062349658
221	0x3bbd31fa	0.00577378
222	0xbcb44300	-0.022004604
223	0x3b4eb358	0.0031540003
224	0xbd20e762	-0.039283164
225	0x3ba18a7c	0.0049298387
226	0xbc808c93	-0.015692031
227	0xbc6c29cc	-0.014414262
228	0xbd31c204	-0.04339792
229	0x3c29507f	0.010334133
230	0x3d3227aa	0.043494858
231	0xbc0f936b	-0.0087631745
232	0xbd07ea0b	-0.033182185
233	0x3cdf9740	0.027293801
234	0x3c2b617e	0.010460256
235	0x3dbf6c9e	0.09346889
236	0x3d8d48b8	0.068986356
237	0xbbdabef0	-0.0066755936
238	0x3d92d343	0.07169201
239	0x3db31b18	0.08745402
240	0x3d825218	0.063633144
241	0x3d05c71d	0.032660592
242	0x3d763c26	0.060115956
243	0x3cd766b5	0.026294092
244	0x3b12ce83	0.0022400923
245	0x3d38e0b4	0.04513617
246	0x3c83c1a5	0.016083548
247	0xbd08b438	-0.033374995
248	0xbda380db	-0.079835616
249	0xbdf54992	-0.11976923
250	0xbdc82e3f	-0.09774446
251	0xbcba2a36	-0.022725206
252	0x3be22699	0.006901574
253	0x3b23fcc5	0.0025022489
254	0x3c90c67f	0.017672775
255	0x3cd1c429	0.025606232

fc1.bias f4 [10]
0	0x3cae2256	0.021256607
1	0x3da3f309	0.0800534
2	0x3c3e685e	0.011621563
3	0xbd6b88ca	-0.0575035
4	0xbd3eb678	-0.046560735
5	0x3d9e844b	0.07740077
6	0xbd1f90b5	-0.038956363
7	0x3c966ecf	0.018363385
8	0xbd99eba1	-0.07515646
9	0xbc6024d5	-0.013680656
