checkpoints/epoch=6.checkpoint.pth.tar (torch, 75230 bytes, 6 tensors)

conv1.weight f4 [8, 1, 3, 3]
0.3262941 0.40944695 0.4702496 0.116807766 0.058822073 0.29149958 -0.6979718 0.03520742
-0.1684706 -0.066507764 0.30081502 0.022994108 -0.17119914 0.5465457 0.037485454 0.43911415
0.31086922 0.09736806 0.47054106 0.05969111 -0.3909246 0.35435632 0.34617138 -0.19345544
-0.12230585 0.42013472 0.4926321 -0.380802 -0.24267371 0.44707394 0.3082874 0.5862219
0.4221603 0.075699836 0.17999303 0.2557451 0.18012865 -0.41901115 -0.82809275 0.7215524
-0.014778164 -0.16549337 0.3480359 0.54702425 -0.0063334177 -0.11965254 -0.0024716195 0.39521042
0.7416198 0.5471092 -0.14495586 0.3116829 -0.41445422 -0.6537019 0.38413662 0.4946998
0.5023209 0.4568161 -0.057363294 -0.13148238 -0.6616229 -0.80705297 -0.50843316 -0.40110183
-0.13564087 0.52666366 -0.47160974 -0.10533636 0.29063067 -0.40700307 0.11875453 0.6172035
00000000: 0510 a73e 08a3 d13e 8ec4 f03e e938 ef3d
00000010: 6aef 703d 6f3f 953e 48ae 32bf a835 103d
00000020: 8f83 2cbe 3935 88bd 6d04 9a3e 245e bc3c
00000030: d44e 2fbe 6bea 0b3f 598a 193d 92d3 e03e
00000040: 402a 9f3e e868 c73d c2ea f03e aa7e 743d
00000050: 4527 c8be 316e b53e 603d b13e 2f19 46be
00000060: 7d7b fabd e61b d73e 463a fc3e 7bf8 c2be
00000070: 757f 78be e0e6 e43e d9d7 9d3e a312 163f
00000080: 6525 d83e 8408 9b3d 1850 383e 06f1 823e
00000090: a573 383e a188 d6be e3fd 53bf a8b7 383f
000000a0: 1d20 72bc 1877 29be c331 b23e c809 0c3f
000000b0: 8f88 cfbb 640c f5bd e5fa 21bb 0559 ca3e
000000c0: ccda 3d3f 590f 0c3f 4f6f 14be e794 9f3e
000000d0: 5833 d4be 0259 27bf 8ead c43e 4b49 fd3e
000000e0: 1a98 003f cde3 e93e c6f5 6abd 51a3 06be
000000f0: 1e60 29bf 069b 4ebf ad28 02bf 385d cdbe
00000100: 71e5 0abe 6ed3 063f d576 f1be 97ba d7bd
00000110: 8bcd 943e b562 d0be 9335 f33d 0c01 1e3f

conv1.bias f4 [8]
-0.031474613 -0.18081431 -0.3920905 -0.1454205 0.023181003 -0.060248554 0.1791692 0.017584894
00000000: 86eb 00bd 6327 39be 16c0 c8be 1de9 14be
00000010: 16e6 bd3c 30c7 76bd 2178 373e 320e 903c

conv2.weight f4 [32, 8, 3, 3]
-0.4047578 -0.24625207 -0.33491454 -0.27248123 -0.032219715 0.2181194 0.028356439 0.24100909
0.19861151 -0.44502616 -0.26928487 0.006874272 -0.0803437 0.1617593 0.23632352 0.14383747
0.00724669 -0.22823872 -0.4010183 -0.031736553 -0.076771945 -0.023152059 -0.03604928 -0.12505354
-0.18104765 0.009989491 -0.06493599 -0.23319225 -0.23243503 0.13013628 -0.17765057 0.14643018
0.27950725 0.17335828 0.0525691 -0.030395823 -0.12830627 -0.15155528 -0.054636847 -0.30406973
0.00016245365 -0.11707786 0.021798367 -0.18886662 -0.32728627 -0.38977763 -0.31111473 -0.2902342
-0.24351443 0.12982263 0.32823458 0.35852697 0.4426424 0.13241166 -0.029826034 0.086917855
-0.3372704 -0.24761958 -0.35344186 0.284483 0.061389286 0.37677315 0.30780086 -0.2866397
-0.19129774 -0.035115134 0.3435741 0.22065802 -0.28952944 -0.09082898 -0.16695021 -0.18819411
-0.16760014 -0.25406247 -0.060346086 0.101569265 0.037830036 -0.25164747 0.12628572 0.20662826
0.094725184 0.02120574 -0.24487855 -0.3096402 -0.10155101 0.047407776 -0.19136825 -0.10229563
0.120619 0.048463717 -0.20468469 -0.25299042 -0.29114792 0.18306042 0.21996266 0.034284666
-0.18726996 0.15006612 0.10883521 -0.093505435 -0.27201092 -0.3615881 0.105195805 0.13096797
-0.12563772 -0.05114149 0.12034407 -0.08356738 0.061897904 -0.07610584 -0.1281009 0.3971597
0.36546525 0.39807254 -0.3399879 0.15766603 0.3749629 -0.26612398 -0.41702774 -0.15479365
0.15369597 -0.05527876 -0.24248533 0.18578213 0.12465939 -0.06883939 0.11954011 0.13286696
0.01990647 -0.12251976 -0.117158145 -0.10629702 0.35370156 0.21444063 -0.17966162 -0.6006936
-0.20819233 -0.34829205 -0.37408477 -0.066024475 -0.54011476 -0.07565795 -0.0810112 -0.05822218
-0.15468568 -0.08018092 0.068654515 0.07815027 -0.08722047 0.03575079 -0.087117724 0.13456137
-0.118655734 -0.0061278935 0.1152113 0.107423745 -0.018052824 0.13544737 -0.053615868 -0.105470814
-0.076164536 -0.005569404 -0.00555255 -0.17353997 -0.026083658 0.10803994 0.05075224 0.03177056
-0.13457043 0.13544343 0.2301763 0.020546874 0.023057956 0.03979696 0.023562452 0.0725061
-0.13364229 -0.06644637 -0.21854348 0.13192111 0.14969268 -0.22041826 -0.25173348 -0.03795473
0.029226437 0.17493051 -0.20672807 0.050246503 0.19377677 0.17445175 0.25436503 0.37062424
0.029065046 0.06102219 0.015719473 0.121837825 -0.2918092 0.07391683 -0.057952795 -0.2955229
0.23880227 -0.17195874 0.037717506 -0.11314405 0.16939813 0.089116216 -0.26397267 0.09300719
0.016607454 -0.4347026 -0.10887669 -0.27512556 -0.23014241 -0.07116307 0.058098134 -0.0918593
-0.07753564 0.0962372 0.040591184 0.12526207 -0.025081353 -0.024706272 -0.121353 -0.23586315
0.021558791 -0.038094275 0.09520875 0.09957727 -0.10059908 -0.2580924 0.0056179943 -0.118700586
-0.049085688 -0.067929365 0.14799644 0.13298692 0.2699651 -0.16894239 -0.17052527 0.33024782
0.038464356 0.019604774 -0.22382098 0.06296804 0.11920519 0.13986866 -0.09697624 -0.24000466
0.06551577 -0.011160688 -0.11107757 -0.044437267 0.3130767 0.21018174 0.35815647 -0.24490654
00000000: 6a3c cfbe 8129 7cbe eb79 abbe a982 8bbe
00000010: d2f8 03bd b15a 5f3e c34b e83c 16cb 763e
00000020: d160 4b3e 78da e3be b5df 89be 9341 e13b
00000030: 3d8b a4bd 3ba4 253e cbfe 713e 214a 133e
00000040: a475 ed3b 69b7 69be 4552 cdbe 30fe 01bd
00000050: 9c3a 9dbd 63a9 bdbc 69a8 13bd 090e 00be
00000060: 8e64 39be f6aa 233c 29fd 84bd f3c9 6ebe
00000070: 7303 6ebe 7242 053e 08ea 35be cbf1 153e
00000080: 931b 8f3e d584 313e b252 573d a900 f9bc
00000090: b862 03be 4f31 1bbe e3ca 5fbd 07af 9bbe
000000a0: 5258 2a39 84c6 efbd 7d92 b23c 4066 41be
000000b0: 1192 a7be ef90 c7be 6e4a 9fbe 9499 94be
000000c0: d95b 79be 39f0 043e 5d0e a83e d990 b73e
000000d0: 06a2 e23e ec96 073e ba55 f4bc fd01 b23d
000000e0: b5ae acbe fd8f 7dbe 55f6 b4be c1a7 913e
000000f0: 5573 7b3d 69e8 c03e 1398 9d3e 70c2 92be
00000100: 8ee3 43be e3d4 0fbd f2e8 af3e 2df4 613e
00000110: 343d 94be 8b04 babd fff4 2abe f5b5 40be
00000120: 5f9f 2bbe 7a14 82be 752d 77bd 8c03 d03d
00000130: abf3 1a3d f0d7 80be 0b51 013e 5c96 533e
00000140: 47ff c13d a9b7 ad3c 71c1 7abe 2989 9ebe
00000150: faf9 cfbd a82e 423d 0af6 43be 5f80 d1bd
00000160: 1807 f73d e481 463d dd98 51be f687 81be
00000170: 5711 95be 3174 3b3e e43d 613e 146e 0c3d
00000180: b2c3 3fbe efaa 193e ffe4 de3d c77f bfbd
00000190: 0445 8bbe 1322 b9be e670 d73d 781c 063e
000001a0: 2da7 00be bd79 51bd f476 f63d 6025 abbd
000001b0: a888 7d3d 61dd 9bbd e22c 03be 8458 cb3e
000001c0: 431e bb3e 2ad0 cb3e e512 aebe 3473 213e
000001d0: 23fb bf3e 6741 88be a984 d5be 3a82 1ebe
000001e0: 7a62 1d3e fb6b 62bd 134e 78be ac3d 3e3e
000001f0: 6c4d ff3d abfb 8cbd 72d1 f43d 470e 083e
00000200: e512 a33c a4eb fabd 9cf0 efbd 41b2 d9bd
00000210: 5f18 b53e 5396 5b3e 37f9 37be 0ec7 19bf
00000220: 5f30 55be 5653 b2be 0a88 bfbe d737 87bd
00000230: f644 0abf 8ef2 9abd 33e9 a5bd 617a 6ebd
00000240: ec65 1ebe e535 a4bd bd9a 8c3d 400d a03d
00000250: a5a0 b2bd 6c6f 123d c76a b2bd 75ca 093e
00000260: c701 f3bd 7fcc c8bb e7f3 eb3d fb00 dc3d
00000270: 84e3 93bc b7b2 0a3e 509c 5bbd 1501 d8bd
00000280: 27fc 9bbd 8c7f b6bb 2af2 b5bb 76b4 31be
00000290: 65ad d5bc 0b44 dd3d 95e1 4f3d d921 023d
000002a0: d5cc 09be afb1 0a3e 56b3 6b3e eb51 a83c
000002b0: 0ae4 bc3c 2302 233d 0b06 c13c 147e 943d
000002c0: 86d9 08be 0915 88bd ddc9 5fbe 5416 073e
000002d0: 0a49 193e 53b5 61be 36e3 80be 6b76 1bbd
000002e0: 486c ef3c fc20 333e 86b0 53be 47cf 4d3d
000002f0: 6b6d 463e 7ba3 323e 223c 823e 76c2 bd3e
00000300: d219 ee3c 67f2 793d 20c6 803c 1c86 f93d
00000310: 0468 95be b561 973d e95f 6dbd c74e 97be
00000320: 9588 743e f415 30be ac7d 1a3d 11b8 e7bd
00000330: b476 2d3e 9082 b63d 6d27 87be 8e7a be3d
00000340: 5b0c 883c 5791 debe befa debd 42dd 8cbe
00000350: 74aa 6bbe f2bd 91bd 4ff8 6d3d bb20 bcbd
00000360: 01cb 9ebd 0218 c53d f142 263d b344 003e
00000370: 6977 cdbc cf64 cabc ec87 f8bd 1c86 71be
00000380: 109c b03c be08 1cbd cefc c23d 2bef cb3d
00000390: e406 cebd b024 84be 2717 b83b 4b19 f3bd
000003a0: 130e 49bd 8d1e 8bbd 618c 173e b92d 083e
000003b0: de38 8a3e 3cff 2cbe 2d9e 2ebe 3e16 a93e
000003c0: cd8c 1d3d 319a a03c 5431 65be 63f5 803d
000003d0: da21 f43d bb39 0f3e 7b9b c6bd c8c3 75be
000003e0: 222d 863d 51db 36bc a37c e3bd da03 36bd
000003f0: 974b a03e e239 573e 4960 b73e c8c8 7abe

conv2.bias f4 [32]
-0.018319203 -0.08120032 -0.27486452 -0.2063565 -0.036676865 -0.058065508 -0.23717602 -0.2786617
0.034871418 -0.03851101 -0.12285643 -0.16152528 -0.11768439 -0.10781964 -0.09668864 -0.061273392
-0.12091038 -0.09442246 -0.25365543 -0.21029516 -0.029038291 -0.24737778 -0.14821498 -0.21568082
-0.26750576 0.07619569 -0.17420256 0.052833203 -0.2322499 0.064703 -0.11778189 -0.08366088
00000000: 2712 96bc 5a4c a6bd 0bbb 8cbe 1e4f 53be
00000010: 7b3a 16bd 19d6 6dbd 45de 72be bfac 8ebe
00000020: 55d5 0e3d b9bd 1dbd 279c fbbd e266 25be
00000030: 8304 f1bd 8bd0 dcbd b204 c6bd cff9 7abd
00000040: dc9f f7bd 9060 c1bd 20df 81be 9d57 57be
00000050: b6e1 edbc 9a50 7dbe abc5 17be 6fdb 5cbe
00000060: 84f6 88be 7c0c 9c3d 2862 32be a167 583d
00000070: ebd2 6dbe 0283 843d a237 f1bd 6556 abbd

fc1.weight f4 [10, 1568]
0.08144311 -0.0075037507 -0.044144046 -0.026820375 -0.1420707 -0.05806632 0.006797564 0.05411935
0.007001612 -0.020231249 -0.054943558 -0.08315364 0.07441256 0.008619946 -0.10150439 0.02427866
0.12624331 0.07722163 -0.11493603 -0.32370576 -0.24095652 -0.037655707 0.15871464 0.08853706
-0.28792682 -0.09896294 0.0065757823 -0.14647995 0.094197184 -0.1161952 -0.0076681003 -0.027710682
0.09130197 0.0535486 -0.3126634 -0.038697828 -0.22731853 -0.090567134 -0.107361004 0.023377685
0.21088393 0.12341629 0.074659854 -0.4096876 -0.6651086 -0.24058135 -0.061205458 0.041474678
0.03949412 -0.025614722 -0.054968346 -0.012482466 -0.07613117 0.0153072355 -0.023026258 -0.07302478
-0.101669215 0.09898437 -0.07498577 0.027734699 0.063814096 0.04194242 0.07757111 0.13077831
-0.068182215 -0.01573406 0.10955059 0.12596852 0.06249902 0.114301905 -0.008589599 -0.34630266
-0.05799037 -0.31960094 -0.25209627 -0.11930799 0.03855024 -0.299611 -0.19295312 0.019082056
0.041822504 0.07468937 -0.18116374 -0.070808165 -0.20167138 -0.06841449 -0.025378484 0.010469372
-0.25642425 -0.16372965 0.026322596 0.056421116 0.05065898 0.02572061 -0.27045625 -0.4439726
-0.22214021 0.03414129 -0.04704076 -0.11278854 -0.013652215 0.11067709 -0.049634527 0.027418507
0.0015760899 -0.05089047 -0.025220212 -0.07836514 0.115772635 0.06743252 0.14781143 -0.0917107
0.06511267 0.03553085 -0.05975833 -0.052129988 0.0020948895 0.12234517 -0.041308697 0.07903775
0.20911203 -0.011185236 0.097671196 -0.30746254 0.028324682 -0.08370903 0.111163475 0.08454159
0.02665233 -0.114616856 -0.038937643 0.100423805 -0.10626985 -0.0966482 0.0020094446 0.1262543
0.09358215 0.00054867903 0.022538234 0.011135674 0.10179432 0.10501397 -0.14323278 0.09077201
0.0956185 0.026625553 -0.033479054 -0.057652853 0.0049791727 0.08927407 0.08002869 0.13981722
-0.01849966 0.03046549 0.030477425 -0.12269511 -0.3276764 0.0014208372 0.003633748 -0.001890575
-0.11663385 0.08020021 -0.016044745 0.016779142 0.12527099 -0.02595474 -0.0045717694 -0.16237555
0.036516987 -0.14011945 -0.18768235 -0.035522163 -0.0584101 -0.087432355 -0.18964142 0.024387285
0.078624226 0.051136043 -0.19390967 0.062374983 -0.04838987 -0.049476933 0.045007307 -0.025544524
0.073411316 0.010662271 -0.015629223 0.01353314 -0.045348916 0.016544335 0.009941326 0.014019049
0.016816936 0.047830135 -0.07458213 -0.06886326 0.054509323 0.017464273 0.104361296 -0.04407265
0.032272868 0.107831664 0.03717408 0.02045399 0.053947072 0.03691204 0.25524434 0.057077188
0.015331003 -0.006915442 0.05970329 -0.06668071 0.027683763 -0.10488682 -0.07631814 -0.17098467
-0.06433454 -0.06667575 -0.24991688 -0.15838058 -0.05585084 -0.08096516 -0.23653167 -0.07913016
0.009626753 -0.29770193 -0.4059052 -0.10967106 0.0644375 0.15952033 0.05158619 0.05748189
-0.08727008 -0.017253317 0.14747888 0.07281198 0.06266105 -0.028649587 0.102716185 -0.052531883
-0.057139613 0.0275252 0.015953802 0.03890763 -0.012142315 -0.04803961 -0.014684243 -0.02421984
-0.030354727 -0.0037269571 -0.18335173 0.019827245 0.06982725 0.027390566 -0.13940337 -0.022905305
00000000: a5cb a63d 06e2 f5bb 63d0 34bd 67b6 dbbc
00000010: fb7a 11be f3d6 6dbd 1abe de3b 40ac 5d3d
00000020: c76d e53b 01bc a5bc 7f0c 61bd 754c aabd
00000030: 9d65 983d ad3a 0d3c 89e1 cfbd 0ae4 c63c
00000040: ed45 013e 6026 9e3d 9563 ebbd c3bc a5be
00000050: 4ebd 76be df3c 1abd 1786 223e eb52 b53d
00000060: 256b 93be 15ad cabd a979 d73b d7fe 15be
00000070: 74ea c03d c0f7 edbd b044 fbbb 8301 e3bc
00000080: 87fc ba3d c755 5b3d 6b15 a0be 9d81 1ebd
00000090: 30c6 68be 437b b9bd 16e0 dbbd 8f82 bf3c
000000a0: f5f1 573e aec1 fc3d 44e7 983d 93c2 d1be
000000b0: 8f44 2abf f55a 76be 93b2 7abd 5ae1 293d
000000c0: 96c4 213d f7d5 d1bc 7d26 61bd 4283 4cbc
000000d0: a9ea 9bbd 33cb 7a3c 90a1 bcbc 048e 95bd
000000e0: f337 d0bd 51b8 ca3d 2492 99bd e133 e33c
000000f0: f7b0 823d d1cb 2b3d 9add 9e3d c0ea 053e
00000100: 1ea3 8bbd b7e4 80bc 0f5c e03d e4fd 003e
00000110: f9fe 7f3d 1e17 ea3d 64bb 0cbc 954e b1be
00000120: 4f87 6dbd bca2 a3be c312 81be bf57 f4bd
00000130: dbe6 1d3d 9d66 99be 8195 45be f951 9c3c
00000140: 134e 2b3d bef6 983d fd82 39be df03 91bd
00000150: f182 4ebe e51c 8cbd 8ae6 cfbc bb87 2b3c
00000160: 0a4a 83be bfa8 27be 7ca2 d73c d419 673d
00000170: ca7f 4f3d 07b4 d23c 3e79 8abe 6050 e3be
00000180: b978 63be bdd7 0b3d d0ad 40bd aefd e6bd
00000190: 8aad 5fbc acaa e23d 934d 4bbd c79c e03c
000001a0: cd94 ce3a 8772 50bd 9e9a cebc e77d a0bd
000001b0: 341a ed3d 101a 8a3d e15b 173e d2d2 bbbd
000001c0: cb59 853d cc88 113d 27c5 74bd 4186 55bd
000001d0: 6a4a 093b 1b90 fa3d 4f33 29bd 8bde a13d
000001e0: 7721 563e 4842 37bc d607 c83d bb6b 9dbe
000001f0: 2a09 e83c a46f abbd ada9 e33d 2424 ad3d
00000200: fd55 da3c 3ebc eabd 147d 1fbd ffaa cd3d
00000210: 02a4 d9bd 7eef c5bd e3b0 033b cf48 013e
00000220: 00a8 bf3d 3ad5 0f3a 1aa2 b83c 6772 363c
00000230: 8a79 d03d 9011 d73d 9dab 12be ade6 b93d
00000240: a2d3 c33d d51d da3c 5521 09bd 6625 6cbd
00000250: 5428 a33b 53d5 b63d 15e6 a33d 3f2c 0f3e
00000260: 998c 97bc c392 f93c cbab f93c 9347 fbbd
00000270: 33c5 a7be 633b ba3a 2d24 6e3b 2ccd f7ba
00000280: badd eebd 0240 a43d 4570 83bc 6974 893c
00000290: 0a47 003e 099f d4bc c8ce 95bb c745 26be
000002a0: d692 153d 797b 0fbe cd2f 40be b07f 11bd
000002b0: 6e3f 6fbd bc0f b3bd 5c31 42be d8c7 c73c
000002c0: bd05 a13d 0774 513d 4290 46be e97c 7f3d
000002d0: 7534 46bd 53a8 4abd 9559 383d c042 d1bc
000002e0: ac58 963d ceb0 2e3c db08 80bc 1aba 5d3c
000002f0: c9bf 39bd fc87 873c f2e0 223c 27b0 653c
00000300: acc3 893c 88e9 433d 84be 98bd 2e08 8dbd
00000310: 2b45 5f3d 3c11 8f3c 60bb d53d 8685 34bd
00000320: 8e30 043d d9d6 dc3d d943 183d 208f a73c
00000330: 9bf7 5c3d 1431 173d 63af 823e c5c9 693d
00000340: e32e 7b3c ef9a e2bb 708b 743d e58f 88bd
00000350: 0fc9 e23c e7ce d6bd af4c 9cbd 9b16 2fbe
00000360: d4c1 83bd 4c8d 88bd 36ea 7fbe 852e 22be
00000370: dac3 64bd 10d1 a5bd 5c35 72be fe0e a2bd
00000380: 87b9 1d3c 636c 98be ced2 cfbe 399b e0bd
00000390: cff7 833d 4c59 233e 0a4c 533d 2172 6b3d
000003a0: a8ba b2bd d456 8dbc b404 173e 731e 953d
000003b0: 7054 803d 8ab2 eabc dd5c d23d ac2b 57bd
000003c0: 3a0b 6abd 877c e13c 8cb1 823c 9b5d 1f3d
000003d0: 8ff0 46bc 2fc5 44bd 2e96 70bc b068 c6bc
000003e0: 7aaa f8bc f73f 74bb 8ec0 3bbe bf6c a23c
000003f0: 9701 8f3d 2e62 e03c c2bf 0ebe e8a3 bbbc

fc1.bias f4 [10]
0.056101825 0.12612647 -0.01398982 -0.0464009 -0.07281325 -0.0020537812 -0.024297362 -0.014282086
0.020309439 0.010800477
00000000: 07cb 653d 4c27 013e 8f35 65bc df0e 3ebd
00000010: 1d1f 95bd bb98 06bb 430b c7bc 69ff 69bc
00000020: fb5f a63c 7cf4 303c
