checkpoints/epoch=13.checkpoint.pth.tar (torch, 75240 bytes, 6 tensors)

conv1.weight f4 [8, 1, 3, 3]
000000 86 99 ad 3e 7a 46 ea 3e 70 c9 da 3e 00 60 f5 3d
       0.33906192 0.45756894 0.4273181 0.11981201
000010 e6 64 08 3e 20 e5 c3 3e ec ac 51 bf aa 8e 7b 3c
       0.1331974 0.38260746 -0.8190448 0.015353838
000020 fc 8e 3c be 23 30 e4 bd b8 35 91 3e 3b 0a 55 3b
       -0.18413919 -0.11141994 0.28361297 0.0032507319
000030 b7 5d 35 be 48 53 0c 3f 47 54 87 3c fb 8d e3 3e
       -0.1771153 0.5481458 0.016519679 0.4444426
000040 9d 36 b1 3e 94 b3 b9 3d c6 23 ec 3e c6 af 2c 3d
       0.3461198 0.09067455 0.46121043 0.042159818
000050 ba 01 fa be 5b df c3 3e f2 5b de 3e 13 cf 86 be
       -0.48829442 0.38256344 0.43429524 -0.2632986
000060 06 4f f6 bd e7 46 06 3f 76 50 07 3f ec ec 0b bf
       -0.12026791 0.5245194 0.5285715 -0.5465839
000070 ae da a5 be 27 a1 e6 3e 91 00 b0 3e 1a 8e 15 3f
       -0.32393402 0.45044824 0.34375432 0.58419955
000080 71 80 e4 3e 01 e9 94 3d 6e f9 fb 3d 7a c5 4e 3e
       0.44629243 0.072710045 0.12303434 0.20192519
000090 cf 58 77 3e 83 80 03 bf 54 a4 83 bf 49 ad 67 3f
       0.24154972 -0.5136797 -1.0284524 0.9049879
0000a0 d6 01 9d 3c 7a 7e 6f be e6 cd f2 3e c5 03 22 3f
       0.019165915 -0.2338809 0.47422713 0.63287
0000b0 48 bc 2d 3c 94 62 fe bd 0e ee 81 3d a6 c3 d3 3e
       0.010603972 -0.12421146 0.063442335 0.41360205
0000c0 d6 51 55 3f 98 af 22 3f 82 74 2d be 3a 0e b1 3e
       0.83327997 0.63549185 -0.16938975 0.34581167
0000d0 7b 4e fb be 63 0b 4d bf 55 a7 f9 3e ba 75 14 3f
       -0.49083313 -0.800955 0.48760477 0.57992136
0000e0 b6 c5 22 3f 28 da 05 3f 94 4b 28 bd da 49 06 be
       0.6358293 0.52286005 -0.041087702 -0.1311411
0000f0 27 4c 35 bf 80 52 81 bf b5 72 f3 be 27 bc ce be
       -0.70819324 -1.0103302 -0.47548452 -0.40377924
000100 f4 13 4d be 07 77 18 3f f7 66 1b bf ab 5c 2c be
       -0.20027143 0.5955662 -0.60703987 -0.16832225
000110 ed 65 c8 3e 13 79 f6 be 3b f1 13 3e 77 19 31 3f
       0.39140263 -0.48139247 0.14447491 0.6917948

conv1.bias f4 [8]
000000 4f 6d 09 bd 97 d0 50 be 61 0b 00 bf c7 aa 5f be
       -0.03355151 -0.2039207 -0.5001736 -0.2184249
000010 2a 54 97 ba a0 0c 5d bd 72 94 32 3e 12 cc 11 bc
       -0.0011545469 -0.05396712 0.1743944 -0.008898752

conv2.weight f4 [32, 8, 3, 3]
000000 6c 0c 05 bf 19 82 f8 bd 81 c0 b3 be 1f 82 9b be
       -0.5197208 -0.12134189 -0.35107806 -0.30372712
000010 9e 44 b2 bd 15 c2 82 3e ab 66 4a 3d 01 75 9b 3e
       -0.08704494 0.25538698 0.049414318 0.30362704
000020 d6 e6 80 3e af 94 06 bf 59 86 a6 be 50 77 27 bd
       0.25176114 -0.52570623 -0.32524374 -0.04088527
000030 ac f9 21 be 4f e0 5f 3e 78 3c 7d 3e 5f 5c 22 3e
       -0.15817899 0.2186291 0.24730098 0.1585555
000040 18 dd 4a 3c ec 16 67 be 8b 42 f2 be 5f 85 83 bd
       0.012381814 -0.22567338 -0.47316393 -0.06421923
000050 15 f7 17 bd dc 2e 9c bd 4e d9 5e bc da be 98 bd
       -0.03710087 -0.07626125 -0.013601614 -0.07458277
000060 6e fe 7c be 67 b5 e0 3c 42 a6 35 bd b3 0a 4c be
       -0.24706432 0.02743025 -0.04434801 -0.19925956
000070 83 eb 86 be 2f 21 c2 3d 7c 3f 9d be 43 30 12 3e
       -0.26351556 0.094789855 -0.30712497 0.14276223
000080 91 da a9 3e d6 32 67 3e ea 45 8e 3d 78 54 d4 bc
       0.33174565 0.22577986 0.06946929 -0.025919184
000090 d3 41 f0 bd 2e 68 06 be 11 5f 5c 3d 3a 04 9d be
       -0.11731305 -0.13125679 0.0538016 -0.30667287
0000a0 68 4d 86 3c 56 35 08 be fe ed ad 3d f6 eb 3a be
       0.016394332 -0.13301596 0.08492659 -0.18254074
0000b0 8f 92 e4 be e2 11 09 bf 42 aa b3 be 81 2d a7 be
       -0.44643065 -0.5354291 -0.35090834 -0.32651904
0000c0 e5 ba b0 be af 59 d6 3d 9e 45 94 3e 6a 1e e2 3e
       -0.3451759 0.104663245 0.28959364 0.4416383
0000d0 53 58 f8 3e 70 39 dc 3d 08 4c 63 bd 38 78 75 3e
       0.48504886 0.10753143 -0.05549243 0.23971641
0000e0 f0 37 80 be 4f 25 23 be 4f 37 00 bf 4f d7 90 3e
       -0.25042677 -0.15932201 -0.50084394 0.28289267
0000f0 3b 2c 96 3d c0 48 e1 3e 6f 49 a4 3e 93 e0 bb be
       0.07332655 0.44000816 0.32087275 -0.36694774
000100 af c2 53 be d0 22 35 bd f1 a4 d7 3e a2 f9 5f 3e
       -0.20679735 -0.044222653 0.42118028 0.21872571
000110 b9 0e cd be ca 09 65 bc e0 84 1c be e6 77 58 be
       -0.40050295 -0.013979385 -0.15285063 -0.21139488
000120 ae b4 57 be 75 51 91 be f5 a1 9b bc 95 2f 50 3e
       -0.21065018 -0.2838246 -0.018998126 0.20330651
000130 1f 7b 03 3e 6d f6 a5 be 8d 55 32 3e ab 56 64 3e
       0.12839936 -0.3241457 0.17415448 0.22298686
000140 e1 0c 16 3e 13 b1 f1 3c a5 83 88 be d3 1c bc be
       0.1465335 0.02950338 -0.26662937 -0.3674074
000150 7a e1 0d be 05 7b b6 3d 6a 20 10 be ce 5b af bd
       -0.13855544 0.08910183 -0.14074865 -0.08562432
000160 f7 be 27 3e 93 09 de 3d 51 e7 7d be 89 2e 90 be
       0.16381441 0.1084167 -0.24795271 -0.28160504
000170 ba 9d d6 be 61 c2 2c 3e 48 94 78 3e 8d 04 3e 3d
       -0.4191721 0.16871025 0.24275315 0.04639106
000180 6e 4f 96 be 15 a4 3b 3e 28 e2 3d 3e c2 90 98 bd
       -0.29357475 0.18324311 0.18543303 -0.07449485
000190 b2 24 59 be db ec fa be 1d 9b a3 3d 40 a8 23 3e
       -0.21205404 -0.4900883 0.0798857 0.15982151
0001a0 20 99 fc bd d7 81 fd bc c3 c2 15 3e e2 9e fe bd
       -0.12333894 -0.030945702 0.14625077 -0.12432648
0001b0 98 ac d9 3c 73 a3 8f bd bb 71 54 be 6a 29 a7 3e
       0.026571557 -0.07013597 -0.2074651 0.32648784
0001c0 02 e0 d7 3e 53 54 01 3f 14 7c 10 bf e3 da 36 3e
       0.42163092 0.50519294 -0.5643933 0.17856936
0001d0 23 43 d6 3e 45 0c b1 be ba 34 e7 be 26 80 6f bd
       0.41848096 -0.34579673 -0.45157415 -0.05847182
0001e0 9d d9 6d 3e 94 7d d3 3d 36 42 9d be dd ad 0e 3e
       0.23227544 0.103266865 -0.30714577 0.13933511
0001f0 07 f1 1d 3e b3 46 df bd 0d 39 77 3d 86 b2 0a 3e
       0.15423976 -0.10902157 0.060357142 0.13544664
000200 2c 45 13 3e 11 c9 2d bd a8 dc 30 3d 94 a0 38 bd
       0.14381856 -0.04242808 0.043179184 -0.045075014
000210 e8 4b c4 3e 24 14 56 3e 7e 34 95 be de d8 60 bf
       0.38339162 0.2090612 -0.2914161 -0.87830913
000220 7e 4f a0 be 3a d4 b2 be f9 53 ea be 03 35 c3 3b
       -0.31310648 -0.3492754 -0.4576719 0.005957247
000230 5c 19 06 bf 4f 3b 4a 3d 95 5b bf bc 33 b8 5e bd
       -0.52382445 0.049372967 -0.0233591 -0.054374885
000240 4c 0c 5a be 72 88 d8 bd 0a ce d4 3c c9 a9 bf 3d
       -0.21293753 -0.105729 0.025977153 0.09358556
000250 b4 c9 0f be 57 72 f6 3c 63 7c a3 bc c3 e6 6e 3e
       -0.14041787 0.030083818 -0.019956773 0.23330216
000260 84 b7 00 be 10 5a 38 bb a0 8b f8 3d 68 7d e1 3d
       -0.12570006 -0.0028129853 0.12136006 0.110102475
000270 c5 99 c2 bb c6 f4 11 3e b1 61 3c be 2f 1e 0d be
       -0.005938741 0.1425353 -0.18396641 -0.13781045
000280 63 24 00 be 5f 5f fe 3a a1 15 16 3c 4a 26 5e be
       -0.1251388 0.0019407085 0.00916043 -0.21694294
000290 36 e6 91 bd 3a 97 36 3e e9 34 c5 3d a6 1d 80 3d
       -0.071239874 0.17831126 0.096292324 0.06255655
0002a0 75 07 1d be 38 39 45 3e 2d 95 b5 3e 42 c8 4b 3d
       -0.15334876 0.19260108 0.35465375 0.049751528
0002b0 e6 81 5e 3d 1c 57 89 3c dc 85 ae 3c 49 ed b3 3d
       0.0543231 0.01676517 0.021304063 0.08785493
0002c0 14 ab 6c be b0 1b 16 be be 19 83 be 66 6f 36 3e
       -0.23112136 -0.14659 -0.25605577 0.17815933
0002d0 94 ba 7c 3e 72 8a 8b be fa 13 91 be 0f 70 0c bd
       0.24680549 -0.27254063 -0.28335553 -0.034286555
0002e0 35 97 25 3d fd aa 45 3e ac 50 d2 be 24 6f ce 3d
       0.040427405 0.19303508 -0.41077173 0.10079792
0002f0 ac 51 ae 3e 55 d4 6a 3e ff 21 a1 3e 5f ab d1 3e
       0.34046686 0.2293256 0.3147125 0.40951058
000300 5d bd 0e bd 4b 18 91 3d ef 2c d4 bb 33 ce b4 3d
       -0.03484856 0.07084712 -0.006475083 0.08828392
000310 8f cf e1 be eb e6 17 3d 84 f8 ab bd 0d 77 ca be
       -0.44103667 0.037085455 -0.0839701 -0.39543954
000320 a3 07 a5 3e ad e9 88 be 14 85 37 3c 71 7d b6 bd
       0.3223239 -0.2674078 0.011201162 -0.08910645
000330 41 50 81 3e 18 d9 ee 3d 51 2e ae be 13 47 ec 3d
       0.2525654 0.11662501 -0.34019712 0.11536994
000340 e0 da a7 3d 50 78 10 bf 2d d3 6c be 73 78 ea be
       0.08196044 -0.5643358 -0.23127432 -0.4579502
000350 1b 31 bf be 32 74 19 be fa b4 ac 3d 70 11 f7 bd
       -0.37342152 -0.14985731 0.08432956 -0.12063873
000360 f3 6a a5 bd 2a f5 c3 3d ff 60 b5 3d bc e9 11 3e
       -0.080770396 0.09568246 0.08856391 0.14249319
000370 26 a1 f6 3b 40 ce bc bc cd ee 2e be de 19 91 be
       0.0075265346 -0.023047566 -0.17083283 -0.28340048
000380 fc a8 8f bc 3a ba 8e bd 65 99 b7 3d 9f eb ad 3d
       -0.017536633 -0.06969114 0.089648046 0.08492207
000390 e5 bb 95 bd d7 a8 9a be c7 f8 70 bd 11 9d 78 bc
       -0.07311229 -0.3020694 -0.058831003 -0.015174166
0003a0 f2 12 a9 bd d7 2f 1f be 55 dd 2c 3e 5d 55 e2 3d
       -0.08255567 -0.15545593 0.16881306 0.11051438
0003b0 28 1a ad 3e 99 94 7c be 0b af 65 be 5d aa c7 3e
       0.33809018 -0.2466606 -0.22430055 0.38997164
0003c0 f4 d8 c4 3d a7 17 0f 3d 92 94 b2 be e2 f0 b0 3d
       0.09611693 0.034934666 -0.34878975 0.08639695
0003d0 10 e6 46 3e ef 96 32 3e 6e 37 8c bd 40 44 85 be
       0.194237 0.17440389 -0.0684651 -0.26028633
0003e0 30 c2 52 3c 0f 68 0b 3e 5e 09 8c bd 9c 01 a1 bd
       0.012863681 0.13613914 -0.06837724 -0.07861635
0003f0 b1 b3 e4 3e f0 c6 87 3e 7e 36 ed 3e 5a 4c 86 be
       0.44668344 0.26518965 0.46330637 -0.26230127

conv2.bias f4 [32]
000000 71 59 8f bd 53 e1 de bd ea 05 ab be 20 26 7e be
       -0.069994815 -0.10882821 -0.3340295 -0.24819231
000010 ae a1 b1 bd 5b 0b fa bd 9c 2e a8 be 78 83 9d be
       -0.08673416 -0.12209197 -0.3284806 -0.30764365
000020 ac 1d 91 3a 9d 13 28 bd f4 9d 39 be 70 d4 3c be
       0.0011071465 -0.04103433 -0.1812666 -0.18440413
000030 7c ed fd bd ff 89 c4 bd d7 18 2b be c2 9b 57 bd
       -0.12398812 -0.09596633 -0.16708694 -0.052638777
000040 2a 33 1b be d9 12 ea bd cd 5b 94 be cf e2 4c be
       -0.15156236 -0.11429376 -0.28976288 -0.20008396
000050 13 5b 2a bd 99 4a 8b be ab c5 17 be fb b1 71 be
       -0.04159076 -0.2720535 -0.14821498 -0.2360305
000060 e3 33 e6 be c9 56 88 3d d6 f6 53 be 8e da 40 3c
       -0.4496146 0.06657178 -0.20699629 0.0117708575
000070 ee e7 9a be b7 83 21 3e 29 61 27 be 01 9a f4 bd
       -0.30255073 0.15772901 -0.16345657 -0.119434364

fc1.weight f4 [10, 1568]
000000 0c 2b de 3d ed 77 6e 3d ae b9 a3 bd 04 71 6f bd
       0.10848054 0.05821984 -0.079944 -0.05845739
000010 c2 62 30 be 2c c6 41 bd a5 05 02 bb d8 2f df 3d
       -0.17225173 -0.047308132 -0.001983979 0.10897797
000020 ee 47 bf 39 dc 56 42 3d ec f7 fe bc 98 9e e1 bd
       0.0003648395 0.047446117 -0.031124078 -0.110165775
000030 c9 99 29 3e a8 b5 44 ba fa 11 2b be 23 a7 18 3d
       0.1656257 -0.00075038755 -0.16706076 0.03726877
000040 0b 7a 43 3e fa bd 81 3d ce 6d 84 be 5f 8c ed be
       0.19089524 0.06335063 -0.25865024 -0.46396157
000050 c3 3d d5 be 6b ad 45 bd 80 50 67 3e 64 e8 8e 3d
       -0.41648683 -0.048261087 0.22589302 0.06977919
000060 8b 67 97 be f4 46 96 bd af 4c 09 3d 4f 36 70 be
       -0.29571185 -0.07337752 0.033520397 -0.23458217
000070 d4 5a 24 3e 4e 0a de bd e6 0d 09 be 02 cb ac bd
       0.16050273 -0.10841809 -0.13384208 -0.08437158
000080 0f 6f c2 3d 3a fe e8 3d f5 1e e8 be 04 91 ac bd
       0.09493839 0.11376615 -0.45336118 -0.08426097
000090 e0 f0 93 be 05 bc e5 bd e7 0b 47 be e8 b9 81 3d
       -0.2889471 -0.112175025 -0.19438134 0.06334287
0000a0 bd b3 bf 3e ac 3c ab 3e 97 c5 1d 3e 6d d6 03 bf
       0.37441817 0.33444726 0.15407406 -0.5149906
0000b0 06 52 68 bf f1 a4 d8 be 53 9d 3a be 1b 3e e2 3d
       -0.9075016 -0.4231334 -0.18224077 0.11047002
0000c0 9c 37 fe 3d d3 15 88 bd ad 30 10 be 46 eb bf 3c
       0.124129504 -0.06644788 -0.14081068 0.023427617
0000d0 6c 49 9c bd 14 5b 6b 3d 3e db a4 bc 01 40 81 bd
       -0.076311916 0.057459906 -0.020124074 -0.06311036
0000e0 0c f4 15 be 7b 4f 33 3e 18 d6 05 be cc 22 99 3d
       -0.14643878 0.17510788 -0.13069952 0.0747734
0000f0 39 ea dc 3d b7 94 fa 3c ac 7f a7 3d 10 50 70 3e
       0.10786862 0.03058849 0.08178648 0.23468041
000100 3d 72 57 be 0b 72 0f bd 72 d1 05 3e 8e e1 02 3e
       -0.21039672 -0.03502087 0.13068178 0.12781355
000110 40 a3 50 3d ed 4d 10 3e 46 b0 00 bd ba 3d 0e bf
       0.050936937 0.14092226 -0.031418107 -0.5556294
000120 cf 3d 19 be 4e 84 ea be ad 46 99 be 8d c4 31 be
       -0.14964984 -0.45804065 -0.29936734 -0.17360134
000130 7f e0 ec ba 4f c1 10 bf 9f bb 21 be 1b ac 91 3b
       -0.0018072276 -0.56544966 -0.15794228 0.0044455654
000140 32 66 1d 3c 76 42 1a 3e 65 c2 98 be e0 50 21 be
       0.009606885 0.15064415 -0.2983581 -0.15753508
000150 da 42 99 be 06 9f db bb 8f 83 42 bd fe 3a 07 3d
       -0.29933816 -0.0067023067 -0.047488745 0.033015244
000160 4d 20 da be 27 17 5a be e4 ce 20 3d 36 63 26 3a
       -0.4260277 -0.21297894 0.039259806 0.0006347181
000170 be c7 b2 3d 36 3f 7a bc fc 36 dc be ca 8d 1d bf
       0.08729504 -0.01527386 -0.430107 -0.6154448
000180 f6 8c 90 be 0c 79 b1 3d 03 8f 1f be b8 5e 5f be
       -0.28232545 0.08665666 -0.15581898 -0.21813476
000190 94 61 8d bd ea 8a 35 3e 2a 66 df bd f7 b4 02 3e
       -0.06903377 0.17728773 -0.10908158 0.12764345
0001a0 0e 5c 89 3a ca 7c 3b be 43 42 55 3c 35 98 c5 bd
       0.0010479705 -0.18309322 0.013016286 -0.09648172
0001b0 43 c6 32 3e 57 ad ba 3d d8 51 85 3e d6 60 26 be
       0.17458443 0.09115093 0.26039004 -0.16247877
0001c0 f5 ff 8e 3d ea 78 cc bd 31 ed 41 bd ad 42 fb bc
       0.06982414 -0.09984 -0.047345344 -0.030671442
0001d0 65 64 47 bd 4c 7d 65 3e 13 f7 06 bd c7 65 13 3d
       -0.048679728 0.22411078 -0.032950472 0.035985734
0001e0 e4 5c 82 3e bb 5d 50 3b 3d 6e 4a 3e a3 09 10 bf
       0.25461495 0.003179415 0.19768615 -0.56264704
0001f0 00 17 25 3c ac 0e 3e be 9b 04 66 3e 0b 82 2b 3e
       0.010076284 -0.18560284 0.22462694 0.16748826
000200 53 01 a2 bd f2 97 51 be e4 0b cc bc 57 5d 6a 3e
       -0.07910409 -0.20468119 -0.024908014 0.22887169
000210 28 33 5a be 38 75 3d be b3 1f f6 3c a0 ae 67 3e
       -0.21308577 -0.18501747 0.030044412 0.22625208
000220 5f bb 74 3e 46 45 33 3d c5 b5 62 3d cb d2 33 bd
       0.23899601 0.043767236 0.05534913 -0.0439022
000230 b5 54 0c 3e 41 06 2f 3e a3 93 87 be 1c e2 2d 3e
       0.13704188 0.1709223 -0.26479825 0.16980785
000240 92 9a 0b 3e 32 fa f9 3d de a2 39 bd 02 2d ad bd
       0.13633183 0.12205924 -0.045321338 -0.0845585
000250 f5 c4 97 ba b8 20 07 3e b3 72 35 3d e2 33 66 3e
       -0.0011579084 0.13196075 0.04429884 0.22480729
000260 bf 59 43 3c 00 4c 77 3d 64 c8 8d bb 76 aa 5d be
       0.011923253 0.060375214 -0.004326867 -0.21647057
000270 74 29 06 bf ff bf 8f 3c 7a b6 ae bd ed 0c d0 3c
       -0.52407 0.017547606 -0.085308984 0.025396788
000280 1f 22 42 bd 7a 33 91 3d a7 ad 0b bd 8e a4 47 bd
       -0.04739582 0.070898965 -0.034101155 -0.048740916
000290 82 18 1d 3e 06 09 7d bd b9 ba 1d 3d 64 a0 90 be
       0.1534138 -0.061776184 0.03850815 -0.28247368
0002a0 c5 c5 4c 3d ba 7b 64 be 8e 7f 95 be 6c 2e 38 3d
       0.049993295 -0.22312823 -0.2919888 0.044966146
0002b0 85 b4 a2 bd 1f 65 ed bd 29 ce 7f be 74 c9 82 3c
       -0.079445876 -0.11591553 -0.24980988 0.015965201
0002c0 f1 e7 85 3d bb 5a c9 3d 7b c2 31 be 5d d7 05 3e
       0.0653838 0.098317586 -0.17359345 0.13070436
0002d0 2c c4 17 be 27 3d fa bd 78 77 6b 3d 47 5e 67 bd
       -0.14820927 -0.12218695 0.05748698 -0.056486394
0002e0 cf 79 1d 3d f5 81 ba bd c3 69 b4 bd 18 12 41 3d
       0.038446244 -0.091068186 -0.08809235 0.047136396
0002f0 e0 d7 98 be b0 9f a3 bd 99 c7 9b 3d 83 98 85 3c
       -0.298522 -0.07989442 0.076064296 0.016308075
000300 a6 4e 52 3c 38 da d3 3d 53 3e 49 be 30 14 59 be
       0.012836134 0.10344356 -0.19652681 -0.21199107
000310 8f f5 c7 3d 1e bc 92 bd 13 da 38 3e de 37 d6 bd
       0.097636335 -0.07164787 0.18051939 -0.104598746
000320 12 4f 17 bd 32 5d 5d 3e 48 1a c6 3c ab dc 5f 3a
       -0.03694064 0.21617582 0.024182454 0.0008539657
000330 27 4d bc 3d 21 37 34 3e 4a 61 a0 3e 38 50 ec 3d
       0.09194403 0.17599155 0.31324226 0.11538738
000340 ce c2 88 3d eb 63 bd 3c 5a b7 82 3d 11 3a e5 bd
       0.06677781 0.023118934 0.06382628 -0.11192716
000350 38 34 99 3d 91 ec 07 be 17 ba bf bc 81 1b 5a be
       0.07480663 -0.13273837 -0.023404164 -0.21299554
000360 42 a1 34 be ed 55 a4 bd 66 60 ab be bc db 6c be
       -0.1763964 -0.080242015 -0.33471984 -0.23130697
000370 1c b5 88 3c 29 86 a3 3d 4d f4 ae be 4a cb 70 bd
       0.016687922 0.079845734 -0.34170762 -0.05878762
000380 29 cd 08 bd 25 bb 02 bf 79 6f 0c bf 6d 9b c0 bd
       -0.03339878 -0.5106681 -0.54857594 -0.09404645
000390 e7 a7 23 3b dd 2b 96 3e a2 67 17 3d 96 d0 7f 3d
       0.0024971904 0.2933034 0.036964066 0.062454782
0003a0 74 62 05 be 5d 59 51 bc a7 02 48 3e 01 06 96 3d
       -0.13025838 -0.0127776535 0.19532262 0.07325364
0003b0 02 eb 04 3e 0f 95 11 be ef 4f 77 3d 9a bf 94 bd
       0.12980273 -0.14217018 0.060378965 -0.072631076
0003c0 11 9e 70 ba 50 6b 8a 3d ac 20 9f 3c d8 6c da bc
       -0.0009178827 0.067587495 0.019424759 -0.026663229
0003d0 28 ec 00 be f6 38 63 bd b7 1c a0 3a e9 34 26 3d
       -0.12590086 -0.055474244 0.0012215589 0.040577803
0003e0 6c b5 d2 3b 34 e4 4e bd 13 f3 6c be c1 fd b0 3c
       0.0064303186 -0.0505106 -0.231396 0.021605374
0003f0 d5 ff ae 3d ec 16 e2 ba 75 55 56 be 7d 04 84 3c
       0.0854489 -0.0017249263 -0.20931037 0.016115421

fc1.bias f4 [10]
000000 3b e5 be 3d 5f 87 29 3e 7f 2a 92 39 af cb 94 bd
       0.09321066 0.16555546 0.00027878952 -0.07265412
000010 38 43 d9 bd 0c b6 88 bc 46 8b 0c bd 34 28 e3 bc
       -0.10608524 -0.01668837 -0.03431251 -0.027729131
000020 d0 4f 32 3d 3a 49 0e 3c
       0.043533146 0.008684451
