checkpoints/epoch=5.checkpoint.pth.tar (torch, 52936 bytes, 4 tensors)

conv1.weight f4 [32, 1, 5, 5]
00000000: 3a0c 6bbe 4026 87b9 61f4 3d3e 114e c23d
00000010: 67bd 2dbd fba0 6abe e652 373e 6c4f 8a3e
00000020: b314 abbc 80d3 4fbe 0a36 adbd 11eb 893e
00000030: 3e1a 0c3e c108 7ebd cf08 6ebe db5c ad3d
00000040: da5b e33d 6db6 25bd 5a92 d4bd 1650 13be
00000050: 17fc 023d eb7f b23a bcd6 b33a 2b09 603d
00000060: 82b6 3a3c bbea 48be 0b2c 55be b048 8cbe
00000070: 419d 68be 5a4c 7dbd b2a7 1abe caf6 30be
00000080: 5e3c 44be 189c 2e3c 548d b43d 32f4 4abe
00000090: 165f 28be 6d38 9abc 1cbf 173e 122a 403e
000000a0: e23a 81be cabd f1bd 0674 2c3e 87ed 513e
000000b0: dbef 583d 65a4 8bbe 3e9a 30be c13e 2b3e
000000c0: 5cf5 d13d cd20 253e 205f ebbd f792 42bd
000000d0: 753a bd3d 5aef 133e f971 f93d db89 edbd
000000e0: 5fc1 3d3d de86 133e 6fbf 5f3e db4b 2f3d
000000f0: 4ec8 3c3e 14af 973e 3381 933e 8ce6 07bd
00000100: 55c1 37be cfbe ab3e a119 d93d 4c5f d2bc
00000110: 8e86 f6bd 52d6 3fbd 113c 0d3e 0f49 5bbe
00000120: 166f 34be acbb a5bd 81de 8dbd 7848 5d3d
00000130: bbdb 0a3e c8e3 8e3c 3f54 963d 0353 113d
00000140: 3a56 023e b4c7 793e 3d51 933e b781 8f3e
00000150: df1d af3e 91b3 e03d b999 563e f21c a63e
00000160: 569a 503e 80bd ad3e b8dc f2bd ceb0 3abe
00000170: a755 31be f996 08be ce11 463e 4053 c7be
00000180: 5042 cdbe c4df fdbe c278 f0be d2ef 89be
00000190: 4758 943e 75a6 873e bea2 ad3e b4a3 b73e
000001a0: 752a 9f3e a6e7 753e de9b ba3e 3047 553e
000001b0: 2080 1d3e e023 9d3e 14f4 16bd a6e2 7a3c
000001c0: a731 5a3e 1a60 a23d a39c 163e 6348 c7be
000001d0: 6ef5 60be 83e5 81be 5fec 6dbe ca8d 61be
000001e0: dca5 d8be 89a2 bdbe 7083 f8be 55a3 a4be
000001f0: e592 74be ad1d 9bbd a1de c83d fd16 833e
00000200: 9046 ec3d f5bb b5bd ad5a 41be d89c 293e
00000210: 10b2 5d3e 6c77 6d3d 832a 9dbe aa04 5bbd
00000220: 114d 743e a403 743e e397 743c 9222 96be
00000230: 6a05 95bd efa4 3b3d 326b 333e 7209 9a3b
00000240: bc06 1ebe 7e62 adbc 1298 a53d 1e2e 443e
00000250: 3e82 453e 3e9d b8bd 9b3c 0abe 1d51 68be
00000260: 06b7 59be f6bb d6bd da12 213e 582a 31be
00000270: 2a8f 67be d159 4bbe 14fd 223e 4eeb 983e
00000280: dcbc 49be d020 5fbe d9b5 fcbb eaa0 8d3e
00000290: f841 0c3e 3ec2 88be c2e5 2fbe 1e55 19bc
000002a0: 9a19 8b3e c768 1f3e c500 8cbe fcfc dcbb
000002b0: 1f9d 103e dc29 9b3e 75cd 903d 65b5 bc3e
000002c0: 8d98 dd3e 7a4a cb3e dd1b 613e 35ff af3d
000002d0: 536b 223e 18b5 8c3e 2fe6 b93c 5715 d8bd
000002e0: 76ec acbe 860b 34be 60fb c5bd 6703 8abe
000002f0: 9fc6 a5be 9570 febe 2f68 eebe 1d67 adbe
00000300: b1d6 d4be 3b43 a8be 09a6 71be 18ab fdbe
00000310: c9cc b9be 1ef1 8cbe 5342 23bd 8075 dc3d
00000320: 0f84 08bd eb13 32bd 8a63 dbbd b2c0 0ebd
00000330: 277e 4d3e 2ef8 c2bd 0eaf 17be d32e d9bd
00000340: 2600 873d 0dc4 0e3e dc84 febd ab48 53be
00000350: 5504 55be 5517 df3d 7fa8 833e 0955 6bbe
00000360: 5e76 7fbe e052 8f3c a385 653e e37b 933e
00000370: 8f77 5cbe 72ad 13be 8c48 203e 686b 993e
00000380: 98b2 663d bfe7 9e3e abf0 eb3d 9bd9 1fbd
00000390: 200c 75be d8a5 c6be cdde 84be 9c39 e6be
000003a0: f906 c7be 1c8b b7be 2d17 64bd 6c0a d0be
000003b0: 8136 06bf 09dc 7ebe 6187 9d3c ee6b a43e
000003c0: c3d5 d83b 1fac 4b3e 5b35 cc3e 4cb7 ec3e
000003d0: 0aa5 223e 4368 f53e 1f82 1b3f b81f cd3e
000003e0: 6210 103e 68fe ae3b 4258 303d 8f10 80bc
000003f0: 9803 7e3d 0e3f 62bd 4643 13be db0b 913d
-0.22953883 -0.00025777705 0.18550254 0.09487546 -0.042416956 -0.22912972 0.17902717 0.2701372
-0.020883894 -0.20295525 -0.08457573 0.26937154 0.13681886 -0.062020067 -0.23245548 0.084649764
0.11101504 -0.040457178 -0.10379477 -0.14386019 0.031978693 0.0013618445 0.0013720612 0.054696243
0.011396052 -0.19620793 -0.20817582 -0.27399206 -0.22716238 -0.061840393 -0.15103033 -0.17281643
-0.19163653 0.010657333 0.08816019 -0.19819716 -0.16442522 -0.018825734 0.14818996 0.18766049
-0.25240237 -0.118037775 0.16841134 0.20500766 0.05296312 -0.2727386 -0.17246339 0.16723157
0.10251877 0.16125794 -0.11492753 -0.047503438 0.092396654 0.14446774 0.12179942 -0.115985595
0.04632699 0.14406916 0.2185037 0.04279695 0.18435785 0.29625762 0.2880951 -0.03317885
-0.17944844 0.33544013 0.106005915 -0.025680207 -0.12037383 -0.04683525 0.13792445 -0.21414588
-0.17620501 -0.08092436 -0.06927205 0.05402419 0.13560383 0.017442599 0.073402874 0.035479557
0.12728205 0.24392587 0.28772917 0.28028652 0.34202477 0.109717496 0.20957078 0.3244396
0.20371374 0.3393364 -0.11858505 -0.18231508 -0.1731783 -0.13338841 0.1934273 -0.38930702
-0.40089655 -0.49584782 -0.4696713 -0.2694078 0.289736 0.26494184 0.33913225 0.35867083
0.3108708 0.24014148 0.36447042 0.20827937 0.15380907 0.30691433 -0.036853865 0.015312826
0.21308003 0.07928486 0.1470819 -0.38922414 -0.21968624 -0.25370416 -0.232347 -0.22026744
-0.4231404 -0.37038067 -0.4853778 -0.32155862 -0.23884161 -0.075740196 0.09808088 0.25603476
0.11536896 -0.088737406 -0.18882246 0.16563737 0.21649957 0.057975218 -0.30696496 -0.053471245
0.23857524 0.23829514 0.014928791 -0.2932325 -0.07276423 0.04581159 0.1752136 0.004700833
-0.15432256 -0.021165129 0.08085646 0.19158217 0.19287965 -0.090143666 -0.13499682 -0.22687192
-0.21261224 -0.104850695 0.15729848 -0.17301309 -0.22613207 -0.19858481 0.15916854 0.29867023
-0.1970095 -0.2178986 -0.0077121076 0.2766183 0.1369704 -0.26710695 -0.1717749 -0.009358672
0.2716797 0.15567313 -0.27344337 -0.0067440253 0.14122437 0.30305374 0.07070438 0.36857143
0.4328045 0.3970526 0.21983285 0.08593599 0.15861253 0.27481914 0.022692768 -0.10550945
-0.33774155 -0.17582521 -0.096670866 -0.2695572 -0.32378098 -0.49695268 -0.4656386 -0.33867732
-0.41570047 -0.32863793 -0.23598494 -0.49544597 -0.3628905 -0.27527708 -0.039858174 0.10764599
-0.033329066 -0.043476027 -0.10712345 -0.034851737 0.20067655 -0.09519993 -0.14812872 -0.10604634
0.06591825 0.13941975 -0.12427685 -0.2063319 -0.20802434 0.10893122 0.2571449 -0.22981657
-0.24947497 0.017495573 0.2241426 0.28805456 -0.21529983 -0.14421633 0.15652674 0.29964757
0.056322664 0.31036183 0.11520513 -0.039025884 -0.23930407 -0.38798404 -0.25951234 -0.44965827
-0.38872507 -0.3584832 -0.055686165 -0.4063295 -0.52426916 -0.24888624 0.019229593 0.32113594
0.0066172793 0.19889878 0.39884457 0.46233594 0.1588327 0.47931108 0.60745424 0.40063262
0.1406875 0.005340386 0.04305292 -0.015632896 0.062015146 -0.055235915 -0.14381132 0.070823394

conv1.bias f4 [32]
00000000: 6885 a5bd c192 d43d 9f69 cbbd 7024 bb3c
00000010: 2608 07bb 5b93 efbd 366f 1dbd 4031 933e
00000020: 9b2e c9bc 26c5 253b d8d8 8cbd f75c 2dbe
00000030: 10b3 fc3d 8c7d 9b37 f20d 983d 2401 03bb
00000040: 4713 86be 4d86 0ebd f220 2bbe 4711 0c3e
00000050: c26d 39be 9269 c7bd 63fb 253e e2f1 3cbd
00000060: 6ce7 37be e1d2 06be 4084 a53d 7f73 0cbe
00000070: 06cf 62be d40d 8c3a bb37 873d 5953 76bc
-0.08082086 0.103795536 -0.09932255 0.022844523 -0.0020604222 -0.11698028 -0.038436137 0.28748512
-0.024558356 0.0025294512 -0.06877297 -0.16929995 0.12338841 1.8535902e-05 0.07424535 -0.0019989694
-0.26186582 -0.034796048 -0.16711786 0.13678466 -0.18108276 -0.09736933 0.16209178 -0.046129115
-0.17959374 -0.13166381 0.08081865 -0.13715933 -0.22149286 0.0010685273 0.066024266 -0.01503452

fc1.weight f4 [10, 1152]
00000000: 1c6c 7db6 1b66 edb9 2dad 43bc e2f0 9fbb
00000010: 3a94 28bc 9246 51bb 6116 8336 5b20 a4bb
00000020: 74e8 e1ba 2bbe 91bc 38ea 88ba 2390 adbc
00000030: 9bde e8b8 bedf f23c 1030 88bc 8ce6 96bc
00000040: 4646 64bc ddab a63c dcda 11ba 2018 253d
00000050: b094 9f3d be13 d5bb 9174 803b 7d50 0c3c
00000060: 06b6 a93b 6daa 543d 2aec 9f3d 6102 ddbc
00000070: 3f33 943c 23fa 023d e083 3abc 6650 d63c
00000080: 5c9e b23c af6b 10bd e022 0bbd ec18 3ebc
00000090: 9c1f 97bb dca7 94bc 7574 3a3c d098 bcbb
000000a0: 383f e73c df6f c63b ae70 29bb abaa 8d3c
000000b0: 3ad6 1bbd 3810 d13c 8291 5a39 cf42 bfbb
000000c0: b1cf 21bc bd94 d03c 039d fc3b 23dd 4f3c
000000d0: da85 25bd 5edd 463c 25fe f4ba d332 203d
000000e0: b003 513d 4cad 10bd 3e9a 67bb fc3b 193d
000000f0: 9c48 a73c f3b1 11bd dbb9 123a 3a61 793c
00000100: e7a6 e73c 1e0e bb3c 78f4 febb ec54 8dbc
00000110: 0787 cdbd 270e 49bd fa9d 1ebd cb80 d7bb
00000120: 209e 852e 667e 86ba 67f1 cdbc a47c 2fbc
00000130: 3e5f 1fbd 0c23 3ebc e4cb 87b8 99ce 473b
00000140: 4e96 c23c a197 93bd 9617 9bbd 5fe2 ccbc
00000150: f378 b9ba 910a ab3c 9c86 26bc fe49 3e3c
00000160: 62ad adbd 3dbc 37ba 99c1 adbb bb7a 5a3d
00000170: d207 ba3d 229a 87bc 6f82 96bd 47bd fa3b
00000180: 2ad0 9fbb 988a 333c d377 843c f00e 40bd
00000190: 47ea 3d3d 38ee 253d 9c3a 2bbc 2f2c 0ebd
000001a0: a741 be3b fdff bf3c 1030 28bc 40d1 1936
000001b0: 446b f337 3073 eabb 08fa b5bb fbc5 713b
000001c0: f3bb 0a3c ae4d cbba 7d82 6b3c 31e2 11bd
000001d0: 13bf 68bd da39 a33c e676 1f3c 08f5 b2bb
000001e0: 458c 8b3b 3bb8 33bd 8e9c b2bd ca69 2b3d
000001f0: b80c 1c3b b145 69bd a8a6 aa3c 77d1 bebd
00000200: 7edd 09be b7bf 9dbd 8b53 87bd 094c 163d
00000210: 884c 433b 5cfe 1cbc de95 00bd ce81 09bd
00000220: 2ba9 4e3c 5c96 cbbb fc92 d73c f09a b5bc
00000230: 86c7 8e3d d768 a63d dc3b 35bc a6b3 2dbc
00000240: 1f82 b4b8 046b d4b8 3a0b 863b 7b07 523c
00000250: cd86 643b 6954 81ba a43f 183c 745d 2cbd
00000260: 52ee d4bd 8959 203c 77fc 07bc 11db e0bc
00000270: a73c 3c3c e000 49bd 84d5 2cbd 0658 163d
00000280: fe09 873c d8e4 a9bd f3ae 16bc 6732 06be
00000290: e37e d4bd 2ef8 cfbd bb80 1fbe 919f 883c
000002a0: 7989 13bd 4116 91bd 9473 42bd 3042 07bd
000002b0: 6e77 56bc d38f 823c 0c02 2dbb 5f38 fbbc
000002c0: f62b 613d af20 c93d 4827 b13c 7425 093c
000002d0: 1f58 7ba8 f0cc e0ba 87f0 b8bc be31 743b
000002e0: 865e efba ffb2 053b 7823 08b8 0492 4ebc
000002f0: 0a10 1fbc 2dee 25bc 6621 fcb9 e268 7d3c
00000300: e84e 6937 8d49 df3c 00df 9cbc 23f9 a6bc
00000310: 231c f13c bee7 363d e2b2 c6ba 05fb 163d
00000320: 15d0 dc3d 2851 66bd d37e 0a3a 638f 4c3d
00000330: 26c1 a53b 257d 043d 3e82 c93d f30f 88bd
00000340: f802 363c 6179 f23c b8e2 2cbc 7e3b 6c3d
00000350: c45b f63c a6d0 5bbd 2b87 c6bd ca46 23bd
00000360: d749 cfbb ff98 b0bc 4ee7 a6bb 17e1 b6bc
00000370: 76ad 4fb9 6061 803a 22e8 73bc e24b 5b3b
00000380: d454 1bbd e30f 4abb 36cd 6bbc 9d87 e0bc
00000390: dff5 1ebd 1b52 0d3c 5ba8 2a3d 586e 99bc
000003a0: 8504 aebc 3ef8 e93c b89f a63b 1cfb ae3d
000003b0: f7de 673d 97f7 07bc 5f7b 8e3d 8457 bc3d
000003c0: d6f0 6f3d 54ee 023d 392c 873d dfea 833c
000003d0: 311c 21bc f543 683d e9f8 633c 6bc9 28bd
000003e0: c7ac 7bbd c79a fcbd 2093 d3bd dfd7 c4bc
000003f0: 1f6a 603b a0ee 84bb 2b6f 5d3c f65e ca3c
-3.7762866e-06 -0.00045280237 -0.011943144 -0.0048810104 -0.010289246 -0.0031932932 3.9067095e-06 -0.00500874
-0.0017235414 -0.017790874 -0.0010445779 -0.021186894 -0.000111040856 0.029647704 -0.01662448 -0.01842048
-0.01393277 0.020345623 -0.00055639236 0.04030621 0.07792032 -0.0065025976 0.003920146 0.008564112
0.0051791696 0.051920343 0.078087166 -0.026978673 0.018090842 0.03197683 -0.0113839805 0.026161384
0.021804027 -0.035258945 -0.033968806 -0.0116026215 -0.0046119224 -0.018146448 0.011380305 -0.0057555214
0.028228387 0.0060558165 -0.0025854516 0.017293295 -0.0380461 0.025520429 0.00020844306 -0.0058368216
-0.009876178 0.025461549 0.007709147 0.012687 -0.040410854 0.012137739 -0.0018691464 0.03911097
0.051028907 -0.03532152 -0.0035339738 0.03741072 0.020420365 -0.035570096 0.00055971526 0.0152209345
0.028277827 0.02283388 -0.007780608 -0.017252408 -0.1003552 -0.049085762 -0.038724877 -0.0065766326
6.0762284e-11 -0.0010261058 -0.025139524 -0.010710869 -0.03890919 -0.0116050355 -6.475279e-05 0.0030488132
0.023753311 -0.07206655 -0.07572858 -0.025010286 -0.0014150426 0.020879062 -0.010163929 0.011614321
-0.08480336 -0.00070089457 -0.0053026197 0.0533397 0.09083523 -0.016552988 -0.07349097 0.007651958
-0.00487711 0.010958336 0.016170418 -0.046889246 0.046366002 0.040510386 -0.010450985 -0.034710106
0.005806166 0.023437494 -0.010265365 2.2920576e-06 2.9017807e-05 -0.0071548447 -0.0055534877 0.0036891687
0.008467662 -0.0015510821 0.014374373 -0.035616104 -0.056822848 0.019925047 0.009732937 -0.005461339
0.004258665 -0.043876868 -0.08721267 0.041848935 0.0023811292 -0.05695123 0.020831421 -0.09317296
-0.13463399 -0.07702582 -0.066077314 0.036693607 0.0029800255 -0.009582128 -0.031392924 -0.033571057
0.012613575 -0.0062129926 0.026315205 -0.022168607 0.0697165 0.08125465 -0.011061635 -0.010601914
-8.607306e-05 -0.00010128881 0.004090694 0.012819166 0.0034870387 -0.0009867075 0.009292517 -0.04208131
-0.103970185 0.009786972 -0.008299938 -0.027448209 0.01148907 -0.0490731 -0.042195812 0.03670504
0.016484257 -0.082956016 -0.009196985 -0.13105164 -0.10375764 -0.101547584 -0.1557645 0.01667765
-0.036019776 -0.07084323 -0.047473505 -0.033022106 -0.013089998 0.015937721 -0.0026398925 -0.030666528
0.054973565 0.09820687 0.021625176 0.008370746 -1.3952407e-14 -0.001715092 -0.02257563 0.0037261094
-0.0018262423 0.002040088 -3.245796e-05 -0.012608055 -0.009708414 -0.010127586 -0.0004809007 0.015466901
1.3906254e-05 0.027256751 -0.019149303 -0.02038247 0.029432362 0.0446546 -0.0015159512 0.036860485
0.10781876 -0.05622974 0.00052831805 0.04994143 0.0050584255 0.03234591 0.09839295 -0.06643667
0.011109106 0.029598894 -0.010552101 0.057673924 0.030073054 -0.05366578 -0.0969375 -0.03986243
-0.006325941 -0.02155733 -0.0050934916 -0.022324128 -0.00019805678 0.0009794645 -0.014886888 0.0033461978
-0.037922695 -0.0030832223 -0.014392188 -0.027408415 -0.0388087 0.0086255325 0.041664463 -0.018729374
-0.02124239 0.028560754 0.005084958 0.08543989 0.05660912 -0.008298776 0.06957125 0.0919638
0.05857929 0.03196557 0.06600232 0.016103206 -0.0098333815 0.056705434 0.013914325 -0.041207712
-0.06144407 -0.12334209 -0.10330796 -0.024028717 0.003424294 -0.0040567666 0.013515274 0.024703484

fc1.bias f4 [10]
00000000: abbd 913c cdc5 643d 8ad5 203c e13f 4fbd
00000010: 22fc 0dbd 24d1 8f3d 167c 18bd 6fce 463c
00000020: 413b 87bd f20e 41bc
0.017790636 0.0558527 0.009816537 -0.05059803 -0.03466428 0.07022312 -0.037227713 0.012134179
-0.06603099 -0.011783348
