checkpoints/epoch=12.checkpoint.pth.tar (torch, 54544 bytes, 4 tensors)

conv1.weight f4 [32, 1, 5, 5]
-0.26559958 -0.048280455 0.22955452 0.13414335 -0.03146967 -0.27465254 0.21606742 0.34876546
-0.05380455 -0.21099028 -0.08668112 0.32787567 0.15992971 -0.19437726 -0.20245232 0.08467763
0.1514415 -0.07924449 -0.16814628 -0.09226595 0.096353956 -0.005176001 -0.08464067 -0.017264761
0.02992745 -0.1876797 -0.15531532 -0.25179422 -0.34769493 -0.17708589 -0.16312316 -0.19958302
-0.2412438 -0.07344366 0.13319598 -0.2319344 -0.18229304 -0.057351436 0.15637405 0.25958776
-0.31482553 -0.14795466 0.14401099 0.24330804 0.1290805 -0.29549158 -0.16803749 0.16272718
0.1683168 0.16834047 -0.12979925 -0.08296992 0.09020102 0.22242208 0.20827186 -0.18627335
0.09413569 0.23027824 0.21031542 -0.018643487 0.16795664 0.37345275 0.31228817 -0.042984374
-0.21046194 0.42260152 0.18946189 -0.082680285 -0.15558237 -0.08946802 0.15589853 -0.2618108
-0.26459146 -0.11171318 -0.056724124 0.07817417 0.089582324 -0.0024986714 -0.015432197 -0.059969265
0.18375766 0.2626361 0.29435664 0.31281915 0.3142438 0.08250243 0.2080862 0.30675557
0.26192364 0.3184586 -0.18897846 -0.16819072 -0.16918822 -0.115937956 0.12963931 -0.36333913
-0.36374956 -0.44071048 -0.43246695 -0.2590013 0.24140225 0.24068399 0.265799 0.30041635
0.31035456 0.2641835 0.34416837 0.24350457 0.21663085 0.3275286 -0.03314378 0.075967625
0.20058185 0.068358794 0.07163633 -0.31673622 -0.21522754 -0.22834122 -0.22927757 -0.21454899
-0.32787114 -0.36129743 -0.44227698 -0.3389291 -0.22516257 -0.077802345 0.110610105 0.25063428
0.107529804 -0.1489428 -0.17242956 0.14632635 0.26677197 0.03436057 -0.34940743 -0.15918012
0.18269207 0.28104472 0.017964512 -0.2928542 -0.15058771 0.06865397 0.21714206 0.041256096
-0.18984912 -0.102365665 0.0702057 0.19380285 0.15332557 -0.09039398 -0.18702766 -0.20158957
-0.22476707 -0.14426816 0.14425762 -0.18505639 -0.18730015 -0.15538251 0.09874355 0.28623223
-0.16276088 -0.16749297 -0.03361926 0.24105808 0.18066731 -0.22382438 -0.19006352 0.032676045
0.25414333 0.14140879 -0.22039622 -0.12457118 0.115848236 0.2717624 0.0657756 0.35555324
0.43669307 0.37898633 0.24268712 0.04743751 0.12838845 0.22561544 -0.007740221 -0.13562563
-0.4004152 -0.23157315 -0.1648562 -0.27723154 -0.33113322 -0.40768483 -0.46095386 -0.30590752
-0.34314984 -0.25205618 -0.190275 -0.4197409 -0.281925 -0.23388678 -0.03359569 0.085541464
-0.032833945 -0.022968153 -0.034855396 -0.015242918 0.16117504 -0.11538691 -0.104297765 -0.1036811
-0.0008941796 0.17620136 -0.122188464 -0.154099 -0.18548404 0.066309765 0.25423175 -0.16470917
-0.2194332 -0.04921968 0.2411495 0.25920033 -0.17514373 -0.1636139 0.107482 0.29204294
0.06650252 0.29773012 0.17355666 -0.03386096 -0.22398779 -0.3928859 -0.2288163 -0.43902782
-0.45873824 -0.35173097 -0.121608354 -0.45989263 -0.5620258 -0.2562571 0.014778625 0.32339492
-0.028847836 0.16484118 0.4182713 0.45912325 0.21052855 0.5280659 0.6339743 0.40511087
0.099958114 -0.031391468 0.019868009 0.013124281 0.023098214 -0.04025629 -0.12694271 0.11202572
00000000: abfc 87be bac1 45bd 5710 6b3e e05c 093e
00000010: 57e6 00bd 429f 8cbe c740 5d3e 6391 b23e
00000020: 2962 5cbd d60d 58be df85 b1bd 52df a73e
00000030: 9dc4 233e d50a 47be a94f 4fbe 776b ad3d
00000040: 7b13 1b3e ef4a a2bd 8a2e 2cbe eef5 bcbd
00000050: 3955 c53d 729b a9bb 1658 adbd d46e 8dbc
00000060: 692a f53c 1b2f 40be fb0a 1fbe 2ceb 80be
00000070: 1205 b2be 0156 35be c209 27be 7e5f 4cbe
00000080: 9d08 77be a169 96bd 8764 083e 3680 6dbe
00000090: 07ab 3abe 57e9 6abd 8520 203e b0e8 843e
000000a0: d030 a1be 6d81 17be 9e77 133e be25 793e
000000b0: ae2d 043e ac4a 97be 0512 2cbe f4a1 263e
000000c0: 3d5b 2c3e 7261 2c3e 18ea 04be 22ec a9bd
000000d0: 50bb b83d 9dc2 633e 3845 553e 71be 3ebe
000000e0: 36ca c03d 0fce 6b3e ed5c 573e 3aba 98bc
000000f0: d3fc 2b3e 3335 bf3e 3ce4 9f3e 6210 30bd
00000100: 5683 57be 3a5f d83e 4c02 423e 4854 a9bd
00000110: fc50 1fbe 023b b7bd dda3 1f3e 110c 86be
00000120: 8878 87be e1c9 e4bd 8e57 68bd c719 a03d
00000130: f076 b73d c0c0 23bb 53d7 7cbc 55a2 75bd
00000140: f82a 3c3e 3d78 863e eab5 963e d529 a03e
00000150: 90e4 a03e 09f7 a83d 8c14 553e 110f 9d3e
00000160: db1a 863e 010d a33e 9283 41be 303a 2cbe
00000170: ad3f 2dbe e170 edbd 2bc0 043e 9607 babe
00000180: 623d babe cea4 e1be 4f6c ddbe d29b 84be
00000190: 2732 773e dd75 763e ce16 883e 2cd0 993e
000001a0: cbe6 9e3e 0f43 873e d636 b03e 4359 793e
000001b0: 7ad4 5d3e d4b1 a73e c6c1 07bd ea94 9b3d
000001c0: 5465 4d3e b2ff 8b3d 11b6 923d 402b a2be
000001d0: 9c64 5cbe 48d2 69be bdc7 6abe bbb2 5bbe
000001e0: bade a7be fafb b8be 2172 e2be 1d88 adbe
000001f0: 0491 66be d656 9fbd 8d87 e23d 2353 803e
00000200: 9638 dc3d 7684 18be 6091 30be 93d6 153e
00000210: 5696 883e abbd 0c3d 88e5 b2be 1d00 23be
00000220: a113 3b3e 18e5 8f3e 502a 933c fcf0 95be
00000230: aa33 1abe 749a 8c3d 7d5a 5e3e 27fc 283d
00000240: cf67 42be 17a5 d1bd 02c8 8f3d 4174 463e
00000250: 6101 1d3e 7b20 b9bd 2e84 3fbe 7f6d 4ebe
00000260: 5729 66be 08bb 13be 45b8 133e 6c7f 3dbe
00000270: 9ccb 3fbe 981c 1fbe 0f3a ca3d 088d 923e
00000280: caaa 26be 4783 2bbe 59b4 09bd eed7 763e
00000290: da00 393e 3832 65be 03a0 42be 51d7 053d
000002a0: 131f 823e 77cd 103e 8caf 61be 2d1f ffbd
000002b0: d741 ed3d 7124 8b3e 5cb5 863d 130b b63e
000002c0: 3c96 df3e 7f0a c23e f982 783e d64d 423d
000002d0: 4378 033e bc07 673e aea1 fdbb 72e1 0abe
000002e0: 3903 cdbe 8321 6dbe 10d0 28be 4bf1 8dbe
000002f0: 4b8a a9be 11bc d0be 2502 ecbe e99f 9cbe
00000300: 56b1 afbe 820d 81be 73d7 42be 47e8 d6be
00000310: 7958 90be 0480 6fbe a29b 09bd 5d30 af3d
00000320: e37c 06bd b527 bcbc 88c4 0ebd 6fbd 79bc
00000330: 120b 253e f94f ecbd 119a d5bd c256 d4bd
00000340: 6167 6aba 216e 343e f23d fabd 21cc 1dbe
00000350: 87ef 3dbe 6acd 873d aa2a 823e 85a9 28be
00000360: 19b3 60be 939a 49bd e5ef 763e e8b5 843e
00000370: e158 33be 678a 27be 861f dc3d a786 953e
00000380: 7932 883d 1570 983e d6b8 313e cab1 0abd
00000390: 0e5d 65be 5728 c9be d24e 6abe 41c8 e0be
000003a0: bddf eabe 1516 b4be cd0d f9bd 0c77 ebbe
000003b0: ece0 0fbf 2134 83be 0c22 723c 0594 a53e
000003c0: 4c52 ecbc 20cc 283e a827 d63e 3412 eb3e
000003d0: cc94 573e 542f 073f 244c 223f b16a cf3e
000003e0: d7b6 cc3d 5794 00bd 3cc2 a23c 3907 573c
000003f0: 7738 bd3c c8e3 24bd 45fd 01be be6d e53d

conv1.bias f4 [32]
-0.13222873 0.09928097 -0.21278547 -0.0038098788 -0.0019560487 -0.1576841 -0.055075884 0.33977118
-0.06748383 -0.0032881666 -0.09170326 -0.2501866 0.11711705 -0.003146199 -0.038150992 -0.003296054
-0.3014217 -0.0902061 -0.22200821 0.1320341 -0.21413536 -0.15617411 0.07402814 -0.10880699
-0.21086954 -0.17926864 -0.0077504925 -0.18998079 -0.27978528 -0.0051206835 0.003538489 -0.04205142
00000000: f866 07be d253 cb3d 6fe4 59be 29af 79bb
00000010: 0d31 00bb f177 21be 4097 61bd 7df6 ad3e
00000020: f634 8abd 487e 57bb ebce bbbd 7518 80be
00000030: 10db ef3d 7630 4ebb 3744 1cbd 9c02 58bb
00000040: f253 9abe fabd b8bd 1f56 63be f233 073e
00000050: 4d46 5bbe 1bec 1fbe 119c 973d 33d6 debd
00000060: 2fee 57be 3392 37be d8f7 fdbb 538a 42be
00000070: 0440 8fbe 68cb a7bb ffe5 673b 1c3e 2cbd

fc1.weight f4 [10, 1152]
-1.3676167e-16 -0.00049332064 -0.01449324 -0.00830804 -0.02460434 -0.0056095226 4.0292036e-08 -0.002603609
-0.017248172 -0.023451243 -0.056480587 -0.03953998 -2.4769008e-05 0.023131294 -0.018167846 -0.011693772
-0.068744406 0.0068523535 -9.248631e-05 0.0756517 0.07478064 0.052937225 0.03994285 0.009300684
0.0002015792 0.0539217 0.06460042 -0.005670826 0.05863738 0.06458804 -0.002788261 0.034697328
-0.018100811 -0.024367351 -0.023397285 0.002179175 -0.0041844873 -0.022693321 0.005579049 0.0029694645
0.035130527 0.0017040255 -0.0046889344 0.012345487 -0.038539786 0.046114236 -0.0046066907 0.0014105939
-0.0072434647 0.037103727 0.017375791 0.016790122 -0.05260845 0.012107495 0.022484696 0.04802603
0.04285764 -0.035404064 -0.013131282 0.02756611 0.03919214 -0.06375431 -0.022238903 0.044712868
0.0359223 0.0319176 -0.010888813 -0.020049514 -0.12887558 -0.02787897 -0.020104488 -0.0023736237
-1.3412121e-15 -0.0011575022 -0.027555823 -0.01106459 -0.032727353 -0.012984841 3.855979e-06 -0.0054300977
0.02704639 -0.07534146 -0.086012095 -0.039543893 -0.00044990424 0.03804592 -0.012063742 0.02457385
-0.13832018 -0.023680672 -0.010887105 0.07435367 0.08217127 -0.006531428 -0.045324717 0.007953643
-0.008708628 0.020179898 0.014578933 -0.029808646 0.08329987 0.06466557 -0.00047133246 -0.01671789
-0.014751304 0.028387899 0.0017553201 0.008767624 -5.153816e-05 -0.011336085 -0.009423118 -0.005306605
-0.0024523577 -0.0025315832 0.0022133854 -0.04057222 -0.07394828 0.03640138 0.044366267 0.0021891033
0.0006099159 -0.034255635 -0.0763966 0.03790371 -0.0025373616 -0.03531525 0.0039855246 -0.09625482
-0.13599668 -0.06885224 -0.083567865 0.049268726 0.009533935 -0.0258443 -0.051270857 -0.021964276
-0.0035772952 -0.00814535 0.023340426 -0.016103417 0.073826425 0.098355986 -0.0145043945 -0.016619103
-0.00014132925 -5.8906935e-05 0.00088818144 0.0025019897 -0.0011305669 -0.0010251827 0.00011795916 -0.03973316
-0.10957997 0.02212566 0.0054332255 -0.03081264 0.0031701538 -0.042816214 -0.017491966 0.06295924
0.021246627 -0.07536035 -0.0076879323 -0.116441935 -0.12369118 -0.05712443 -0.13788612 0.021016624
-0.0125884805 -0.07701663 -0.042236347 -0.013707591 -0.009979658 0.028934449 0.0054672966 -0.03744079
0.05969087 0.117887974 0.017358206 0.008729344 -2.6257908e-08 -0.0010541028 -0.02937442 -0.008700655
-0.010827037 0.0022659616 -0.000107291344 -0.016447965 -0.030356811 -0.06135082 -0.0107801445 0.030828852
-0.005155758 0.023507591 -0.035286885 -0.036047 0.040555518 0.062991396 -0.0035316802 0.04341194
0.10390652 -0.02146645 0.038828142 0.08124252 0.0014687284 0.06830718 0.11792764 -0.070113495
-0.00054999633 0.05087796 -0.0024058074 0.07592752 0.046683934 -0.10328982 -0.11089859 -0.040596563
-0.0028399043 -0.022293251 -0.015099545 -0.014326225 0.015202719 -0.0026723605 -0.01430709 -0.004432549
-0.044941664 0.0075775003 -0.011470076 -0.007983208 -0.028825048 0.01961528 0.030636659 -0.006420739
-0.026781395 0.031003445 0.016933301 0.09310898 0.07026835 -0.027278911 0.069855966 0.080346406
0.06999118 0.0208551 0.032235224 0.023632605 0.0118756695 0.050953936 0.015925523 -0.01158338
-0.08580846 -0.09995464 -0.08359682 -0.015072009 0.009329761 0.005863055 0.022540307 0.026668636
00000000: ecac 1da5 3052 01ba 0e75 6dbc 721e 08bc
00000010: 0a8f c9bc 16d0 b7bb 900d 2d33 50a1 2abb
00000020: 0a4c 8dbc d21c c0bc 3058 67bd adf4 21bd
00000030: 0ac7 cfb7 d77d bd3c bcd4 94bc 3c97 3fbc
00000040: dec9 8cbd b589 e03b 36f5 c1b8 47ef 9a3d
00000050: 9826 993d b4d4 583d 1d9b 233d e561 183c
00000060: 015f 5339 00dd 5c3d 3a4d 843d 56d2 b9bb
00000070: c02d 703d bc46 843d 42bb 36bb c91e 0e3d
00000080: 2748 94bc 0a9e c7bc aaab bfbc 7dd0 0e3b
00000090: 061e 89bb 58e7 b9bc 74d0 b63b 599b 423b
000000a0: 07e5 0f3d 9c59 df3a a2a5 99bb ba44 4a3c
000000b0: e5db 1dbd 48e2 3c3d b9f3 96bb ade3 b83a
000000c0: 965a edbb 14fa 173d ad57 8e3c 708b 893c
000000d0: f57b 57bd 845e 463c d331 b83c f1b6 443d
000000e0: 7e8b 2f3d da03 11bd 9724 57bc 53d2 e13c
000000f0: f087 203d 9f91 82bd 5c2e b6bc d724 373d
00000100: 4323 133d 08bc 023d fe66 32bc e13e a4bc
00000110: f6f7 03be 7062 e4bc 2bb2 a4bc cc8e 1bbb
00000120: fe49 c1a6 54b7 97ba c0bc e1bc 4148 35bc
00000130: 1e0d 06bd 5fbe 54bc 9b62 8136 f6ee b1bb
00000140: 6490 dd3c a04c 9abd 1c27 b0bd c7f8 21bd
00000150: 20e1 ebb9 0ad6 1b3d 00a7 45bc 194f c93c
00000160: cea3 0dbe f8fd c1bc d45f 32bc bd46 983d
00000170: 6949 a83d 9705 d6bb 69a6 39bd ff4f 023c
00000180: a2ae 0ebc 5050 a53c 7adc 6e3c 4331 f4bc
00000190: 1f99 aa3d 626f 843d 2c1d f7b9 f5f3 88bc
000001a0: 74af 71bc bd8d e83c c512 e63a 15a6 0f3c
000001b0: ae2a 58b8 fdba 39bc 6c63 1abc 07e3 adbb
000001c0: bcb7 20bb ebe8 25bb 720e 113b 0e2f 26bd
000001d0: 3272 97bd 9d19 153d 67b9 353d 0f77 0f3b
000001e0: c3e2 1f3a a34f 0cbd d275 9cbd ec40 1b3d
000001f0: dd49 26bb b9a6 10bd 0199 823b 3f21 c5bd
00000200: b742 0bbe 6702 8dbd a125 abbd 01ce 493d
00000210: 3934 1c3c 6db7 d3bc 6401 52bd 6dee b3bc
00000220: 0e71 6abb 1374 05bc 6c34 bf3c 50eb 83bc
00000230: 4f32 973d dd6e c93d d7a3 6dbc c924 88bc
00000240: c831 14b9 d712 77b8 d9d4 683a 6cf8 233b
00000250: 882f 94ba 6c5f 86ba d860 f738 3dbf 22bd
00000260: 776b e0bd df40 b53c 3309 b23b ca6a fcbc
00000270: 5bc2 4f3b 0e60 2fbd 504b 8fbc c6f0 803d
00000280: 680d ae3c 8756 9abd 0deb fbbb 1c79 eebd
00000290: cd51 fdbd 4efb 69bd 0532 0dbe 0e2b ac3c
000002a0: ea3f 4ebc e5ba 9dbd 0500 2dbd ce95 60bc
000002b0: b881 23bc f007 ed3c 0227 b33b 845b 19bd
000002c0: 6a7e 743d 406f f13d cc32 8e3c 8605 0f3c
000002d0: c08d e1b2 d229 8aba a0a2 f0bc 318d 0ebc
000002e0: e263 31bc 8780 143b 9a01 e1b8 e2bd 86bc
000002f0: d9ae f8bc ff4a 7bbd 349f 30bc ca8c fc3c
00000300: a2f1 a8bb fe92 c03c fb88 10bd 05a6 13bd
00000310: 8b1d 263d a201 813d c373 67bb b8d0 313d
00000320: f1cc d43d 69da afbc 420a 1f3d 7a62 a63d
00000330: 5982 c03a a3e4 8b3d 0c84 f13d aa97 8fbd
00000340: a12d 10ba 6865 503d c0aa 1dbb e37f 9b3d
00000350: a737 3f3d 9d89 d3bd cd1e e3bd 9548 26bd
00000360: b01d 3abb 56a0 b6bc 1564 77bc 8bb8 6abc
00000370: d314 793c c522 2fbb 4968 6abc ea3e 91bb
00000380: c014 38bd ae4c f83b fcec 3bbc 00cc 02bc
00000390: 8222 ecbc 39b0 a03c bbf9 fa3c 1065 d2bb
000003a0: a864 dbbc f0fa fd3c b5b7 8a3c ecaf be3d
000003b0: dae8 8f3d 0678 dfbc a510 8f3d a88c a43d
000003c0: 8957 8f3d 51d8 aa3c 1509 043d 2a99 c13c
000003d0: 2b92 423c 13b5 503d 3e76 823c 38c8 3dbc
000003e0: 59bc afbd 05b5 ccbd cf34 abbd 96f0 76bc
000003f0: dbdb 183c df1e c03b 73a6 b83c 2f78 da3c

fc1.bias f4 [10]
0.024206461 0.11160762 0.015832713 -0.073073715 -0.054239366 0.082183525 -0.038572885 0.031572256
-0.09194177 -0.015398205
00000000: a14c c63c 8992 e43d 9bb3 813c aca7 95bd
00000010: 192a 5ebd d64f a83d 9afe 1dbd e951 013d
00000020: f74b bcbd c148 7cbc
