checkpoints/epoch=12.checkpoint.pth.tar (torch, 75240 bytes, 6 tensors)

conv1.weight f4 [8, 1, 3, 3]
00000000: e2d2 aa3e 1554 ea3e 307a d73e 3b9d 033e
00000010: f361 033e 17ae b73e 9020 4cbf bb0d 5b3c
00000020: d369 47be 4264 c9bd 65f7 963e dd32 723c
00000030: ba4c 25be 0e27 0f3f 1cb7 cf3c 9633 df3e
00000040: f3e2 b03e d8f4 b13d 11b0 e53e ec52 673d
00000050: 33c9 eabe ac26 c03e e204 e23e 4e30 75be
00000060: e0b1 05be 8fc8 033f d35a 063f 3256 02bf
00000070: 0845 a0be 9024 e63e 3ec2 b93e e37c 1f3f
00000080: 87a4 e63e ed4a 913d 5314 093e 77a9 403e
00000090: 7928 713e 36bf fcbe 1cee 81bf 7577 613f
000000a0: 06db e13c a10e 5ebe 7a49 e53e 4c4d 1e3f
000000b0: 1ea3 353c 6774 ffbd 13e7 543d b326 d03e
000000c0: 6f05 523f 70f8 1c3f 7406 3bbe ff4b b63e
000000d0: 5b05 f3be 4b69 47bf 23ea ef3e b67f 0f3f
000000e0: 4ff0 1a3f 5f3f 033f 2155 3cbd df57 08be
000000f0: ac91 37bf db34 7abf 0ac0 f5be f7fc cebe
00000100: b6d2 36be 44cd 173f 6f20 1abf ed68 0ebe
00000110: e33d c23e 6e69 f7be b90c 163e 4e7f 2d3f
0.33364016 0.45767274 0.4208541 0.12852947 0.12830333 0.35875008 -0.79737186 0.013369973
-0.19473962 -0.09833576 0.29485622 0.014782635 -0.1614255 0.5591897 0.025355868 0.43594044
0.3454815 0.08689278 0.4486089 0.056475565 -0.45856628 0.37529504 0.4414435 -0.23944208
-0.13056135 0.51477903 0.52482337 -0.50912774 -0.31302667 0.4494977 0.36281008 0.62299937
0.450474 0.07094369 0.1338666 0.18814646 0.23550595 -0.49364632 -1.015079 0.880729
0.027570259 -0.21685268 0.4478262 0.61836696 0.011086253 -0.12473374 0.051978182 0.40654525
0.8203954 0.61316586 -0.1826418 0.35604855 -0.47465023 -0.7789504 0.4685832 0.56054246
0.6052293 0.5126857 -0.045979623 -0.1331477 -0.7170665 -0.977369 -0.47998077 -0.40427372
-0.17853817 0.59297585 -0.6020574 -0.13907214 0.3793784 -0.48322624 0.14653291 0.67772377

conv1.bias f4 [8]
00000000: 25b3 18bd ed45 44be 5270 f7be 1d2e 5bbe
00000010: 76dc 05bc 7260 34bd d2dd 373e e7b1 8abc
-0.03728022 -0.191673 -0.4832788 -0.2140431 -0.008170238 -0.04403729 0.17955711 -0.016930534

conv2.weight f4 [32, 8, 3, 3]
00000000: 061e 07bf 6098 06be 24c6 b5be 0a44 a4be
00000010: 5c4e 9bbd 3bcd 853e 713b e13c 10a3 933e
00000020: 5121 8a3e 25d8 08bf 113b a6be acca 99bc
00000030: 4639 2dbe 7e75 503e 7cd7 853e 636d 173e
00000040: cbb6 b43b 2ed0 51be 0850 eebe f99c 95bd
00000050: bad6 15bd 89f0 93bd f8de 48bd 2951 7dbd
00000060: 436f 7cbe 10f8 c53c 1852 2fbd 8812 76be
00000070: 1066 87be 2365 d13d f984 a1be 6647 163e
00000080: bccb a93e 6f5e 523e aa1c 843d 9197 d8b9
00000090: 5b08 d1bd 8fad 2cbe 329f 773d 3e44 95be
000000a0: 05ce 19bc dd99 04be 1466 b73d 22e1 42be
000000b0: 3cfd e0be 81d5 fdbe ce5b c8be 5797 a7be
000000c0: a185 b4be a723 c23d 6e8d 993e e09f dc3e
000000d0: 56d0 eb3e 3a70 003e 6800 53bd 586e 673e
000000e0: a916 8bbe 42a0 23be fb1f ecbe 71e1 8b3e
000000f0: 07dd 513d dc57 dc3e df4b ae3e bc19 c0be
00000100: 2abb 38be 8ef2 08bd a840 c73e a4cf 7b3e
00000110: 5313 b5be 4e3a 3dbd b61d 12be 2dbf 39be
00000120: fcc8 48be 5e6c 85be 2f3c 2bbd 2144 383e
00000130: 1fef cb3d 3ccf afbe dacb 173e 1605 563e
00000140: 3710 0b3e 5f54 da3c d0b1 81be 503c c2be
00000150: e036 1ebe 59b9 953d c1e7 15be 31e0 8abd
00000160: cdb8 393e 33ff 043e 7d2c 81be ccae 8cbe
00000170: 8a0e cabe b49f 213e c26e 6c3e 2522 443d
00000180: 42b0 82be 6673 453e 97b5 473e f519 a0bd
00000190: c21a 62be 5a33 fabe b420 a03d b291 143e
000001a0: afbe f4bd b1ea abbc 3b37 233e a9bf b0bd
000001b0: 6838 b13c 79fe 6ebd 59a3 46be cd02 a83e
000001c0: 9e7b ce3e 7b3f fb3e 3df3 06bf d74e 353e
000001d0: ce33 d53e 09c2 9ebe 42e0 d8be 1a47 8cbd
000001e0: 3f02 6e3e b811 983d f3d7 a3be 981d 0f3e
000001f0: 26bc 133e ac0d cbbd 6e5e ab3d 13ff 093e
00000200: 747d 013e 8f9c 49bd affc f23c ed93 8ebd
00000210: c0b8 b23e 6564 3c3e 10cb 98be 8506 54bf
00000220: 0780 9abe f0d4 c1be e1cc e5be 2173 46ba
00000230: 3511 05bf 7cc4 213d 148f c7bc 5134 3dbd
00000240: 45ca 54be e621 afbd a7fc 083d 7c9c a53d
00000250: 1114 14be 1061 c43c d221 2dbd 83cb 5b3e
00000260: dcac ffbd 5200 92bc cd2e e73d ccbe e03d
00000270: 0131 bbbc 3060 023e e57c 31be d04b 11be
00000280: 964b 00be 49fa 543c c92d 353b 77f6 5fbe
00000290: f384 61bd 4839 1d3e d8ad 8c3d 3de8 3e3d
000002a0: 8c46 37be 7f3e 333e e1a7 b63e 15a5 1f3d
000002b0: c9c9 363d d8d1 9d3c c199 db3b a7a0 993d
000002c0: 0f60 76be a223 18be c6dc 77be 6f02 423e
000002d0: 5b56 673e 2eb0 93be 30a9 8ebe 6af0 58bd
000002e0: a0f2 983c b230 373e a1fb ccbe 86ff ac3d
000002f0: cb9e a63e 16b4 5d3e bc9f 993e 9f19 cc3e
00000300: 955e 07bd c1b0 693d a363 d8bc 4ece a33d
00000310: ef5a dfbe e302 293d dfa2 9fbd 7f4d bfbe
00000320: 420d 9f3e b0a2 77be 0ad4 243c 4e99 cebd
00000330: bd63 6d3e 9965 f83d c051 b7be c0e8 c53d
00000340: 218b a23d 1ac2 0ebf 1338 66be ed74 dabe
00000350: 1aa6 bebe 683c 0fbe 8a72 cb3d df35 e3bd
00000360: cc98 d8bd 9411 b13d 5571 d63d 0adf 0a3e
00000370: 9c2e a1bb d9fe 4fbc 06a9 3dbe 22cd 93be
00000380: cddf d2bc c595 8dbd 28b2 9c3d ebd6 c93d
00000390: 02ff b0bd 6680 9ebe 1004 75bd 8147 42bd
000003a0: ec00 adbd 0f32 0abe 349c 1d3e 8a50 c03d
000003b0: d94f a83e 92dd 7fbe eef2 69be ac03 bb3e
000003c0: 487b 823d df3e 1f3c d58e acbe e1ad 9f3d
000003d0: cd99 443e 7bb6 413e a691 a1bd 1d97 86be
000003e0: 9a8f 3d3c 982f ba3d 17ab abbd 7202 90bd
000003f0: 5e8c dd3e f192 7d3e 6e3a e83e dfdc 94be
-0.5278019 -0.13144064 -0.35502732 -0.3208316 -0.07583305 0.2613314 0.027494164 0.28835344
0.26978543 -0.5345481 -0.3246694 -0.0187734 -0.1691638 0.2035732 0.26140964 0.14787821
0.0055149547 -0.2048957 -0.46545434 -0.07305331 -0.036581732 -0.07223613 -0.049040765 -0.06184498
-0.24651818 0.024166137 -0.0428029 -0.24030507 -0.26445055 0.102243684 -0.31546763 0.14675674
0.3316325 0.20543836 0.0645078 -0.00041311656 -0.10206672 -0.16863082 0.060454555 -0.29153627
-0.009387498 -0.12949319 0.08955017 -0.19031194 -0.43943202 -0.49576953 -0.3913254 -0.3273265
-0.352582 0.094794564 0.29990715 0.43090725 0.46057385 0.12542811 -0.05151406 0.22600687
-0.27165726 -0.15979102 -0.4611815 0.27320436 0.05123618 0.4303578 0.3404226 -0.37519634
-0.18040147 -0.033434443 0.38916516 0.24590927 -0.35366306 -0.04619818 -0.14269146 -0.18139334
-0.1960792 -0.2605924 -0.041805442 0.17994739 0.09957718 -0.34337795 0.14823857 0.20900378
0.13580404 0.02665156 -0.25330973 -0.3793664 -0.1545062 0.07310743 -0.14639188 -0.06781042
0.18136902 0.12987976 -0.25229254 -0.2747711 -0.39464217 0.15783578 0.23089126 0.047884125
-0.255251 0.19282302 0.19502865 -0.07817451 -0.2208052 -0.48867303 0.078187376 0.14508703
-0.119504325 -0.020985933 0.15939038 -0.08630306 0.021633342 -0.058348153 -0.1939825 0.32814637
0.40328687 0.4907187 -0.527149 0.17705856 0.41641086 -0.31007412 -0.42358595 -0.06849499
0.23243044 0.074252546 -0.32000694 0.13976133 0.14427242 -0.09914717 0.083676204 0.1347621
0.12645513 -0.04922157 0.029661505 -0.06961808 0.34906578 0.18397672 -0.29842424 -0.8282245
-0.30175802 -0.3785777 -0.44882873 -0.0007570256 -0.5197938 0.039494023 -0.024360217 -0.04619247
-0.20780285 -0.085513875 0.033444073 0.08086488 -0.1446078 0.023972064 -0.04226858 0.21464352
-0.12484142 -0.017822418 0.112882234 0.109738916 -0.022850515 0.12732005 -0.173328 -0.14189076
-0.12528834 0.012999126 0.0027645698 -0.21871363 -0.05505843 0.15353882 0.068690956 0.0466082
-0.17898005 0.17504309 0.35674956 0.038975794 0.04462603 0.0192651 0.0067016785 0.07501345
-0.24060081 -0.14857343 -0.24205312 0.18946241 0.22591536 -0.28845352 -0.27863455 -0.05296365
0.01867038 0.1788967 -0.40035728 0.08447175 0.32543024 0.21650729 0.3000468 0.39863297
-0.033049185 0.05705333 -0.026414698 0.07998334 -0.43624064 0.04126252 -0.07794737 -0.37363812
0.31064802 -0.24183154 0.01006032 -0.10087834 0.23182578 0.12128753 -0.35804558 0.09663534
0.07936693 -0.55764925 -0.22482328 -0.42667332 -0.372361 -0.13987887 0.09933956 -0.110942595
-0.10576019 0.08645931 0.10470835 0.13561645 -0.0049188863 -0.012695038 -0.18521509 -0.2886744
-0.025741482 -0.06913332 0.07651168 0.098554455 -0.08642389 -0.30957335 -0.059818327 -0.047431473
-0.084474415 -0.13495658 0.15391618 0.093903616 0.3287342 -0.24986866 -0.22846577 0.3652624
0.0637117 0.0097195795 -0.33702722 0.07796837 0.19199295 0.18917267 -0.07889108 -0.26287165
0.011569882 0.09091109 -0.08382242 -0.070317164 0.43271154 0.24763085 0.45357078 -0.2907476

conv2.bias f4 [32]
00000000: 172a 67bd 4d00 d6bd aeb5 a9be a590 7cbe
00000010: c091 aebd 7d69 e3bd 85db 9ebe f1d6 a1be
00000020: 93a7 523c 884a 74bd 6ea3 3abe 8f82 44be
00000030: 48de 12be e1d2 fabd 50f3 24be c00d 6bbd
00000040: e8d4 22be 2464 d8bd 0b69 94be 0966 60be
00000050: 3005 c3bc 5d74 8ebe abc5 17be 5d92 86be
00000060: 9210 dabe 26d9 833d be50 53be ee36 253c
00000070: dbe5 93be a822 033e 4ae4 1dbe a4ff 16be
-0.056436624 -0.10449276 -0.33146423 -0.24664553 -0.08523893 -0.11104105 -0.31026855 -0.316093
0.012857336 -0.05964139 -0.18226406 -0.19190429 -0.14342606 -0.12247253 -0.16108441 -0.05738616
-0.1590153 -0.10565975 -0.2898639 -0.21913923 -0.023806185 -0.27823153 -0.14821498 -0.2628354
-0.42590767 0.06437902 -0.2063627 0.010083897 -0.28886303 0.12806189 -0.15419117 -0.14745957

fc1.weight f4 [10, 1568]
00000000: fd0e d93d 5cfb 1b3d 9c3c 9dbd fdf0 9cbd
00000010: f0dd 3cbe 082f 63bd d682 663b 183a c13d
00000020: ba55 133c 4983 b43c b07a 85bd be32 e7bd
00000030: f3fe 183e ce45 ffba 8bac 42be 6187 803c
00000040: 5446 1f3e ae69 a03d 6df8 78be 7543 edbe
00000050: 6f18 dfbe ea40 82bd 2a35 433e 8066 b33d
00000060: a0c1 86be d850 e3bd 6b03 743d bec1 54be
00000070: 5aa9 1f3e 8e7a dabd 6442 ffbd 15a1 d6bd
00000080: 4e07 d23d 1f0b 0b3e 6059 e7be 5cef afbd
00000090: 6029 96be d923 e8bd 30d0 3ebe 50d9 583d
000000a0: fcac a33e 4888 983e d42e 113e 6bc1 02bf
000000b0: 91f2 5ebf 3e3c d5be feeb 46be 5118 963d
000000c0: cdaf ec3d 9580 75bd abe2 12be 8f02 8f3b
000000d0: 810d babd b2aa 163d 4a83 edbc 24af 3dbd
000000e0: f1ac 18be 829d 243e fa88 05be e54e 6b3d
000000f0: 1592 db3d 41f1 c23c 8ead 953d b46b 6a3e
00000100: 72ce 2fbe b6b8 edbc 136f ea3d 186c f53d
00000110: b87f 6d3d 86e5 083e d8cc b3bc e67e 06bf
00000120: 8c06 1cbe 06b8 edbe 86f1 9fbe b182 34be
00000130: f5f2 823c b77f 08bf 06d1 1dbe ed79 f5bb
00000140: e0df 323c fd1a 173e a29d 9cbe 03d5 1ebe
00000150: 09b8 96be 0861 8f3c 6426 3dbd 964c c23c
00000160: f295 dbbe 797c 84be a479 4bbc 80b6 1c3b
00000170: 14b1 af3d d5e5 78bc 6220 d2be 25d8 19bf
00000180: 7ea3 8bbe 5dee 8e3d 3f41 0abe dc66 63be
00000190: 6642 82bd 7fe7 183e d8ae d6bd 514d 033e
000001a0: e452 983a b15a 31be 1fd5 4c3c 736b 04be
000001b0: 07b7 eb3d 9c1a 833d fd17 853e 84d5 21be
000001c0: 73cd 923d 5214 18bd 6f0c 27bd 0d2a cebd
000001d0: 244d 5cbd 67ff 703e f398 7cbd bf72 403d
000001e0: b4cb 743e 9170 62bd e60c 363e eb99 08bf
000001f0: cac6 223c cd09 2dbe 0ed2 523e f1c5 293e
00000200: 196f a2bd 0d97 27be 5d05 a5bd 9711 883e
00000210: 2696 59be 34e6 49be 2807 60bc 51a2 573e
00000220: 5b99 4f3e 1531 f93c 0289 833d d78c 3dbd
00000230: 4d98 113e 731d 3c3e f402 5ebe 898f 0e3e
00000240: 0126 bc3d 0207 ec3d be91 1fbd 022d adbd
00000250: f6bf 97ba 3d06 0e3e 09ab 2e3d 59dc 7e3e
00000260: 5861 23bd d61e ff3c 4034 9abb 431a 66be
00000270: 399f eebe 7f13 903a 0b0f 8dbd 7413 25b9
00000280: 7cef 7cbd ca1a 923d 336c 27bd abf6 4ebd
00000290: 3d64 0f3e a1bb 7fbd 446c 333d fe2f 99be
000002a0: e5c5 7d3d 6d7b 68be 33a5 7abe 192d 203d
000002b0: c6f3 68bd 8c2b 0abe e180 93be 7b71 dc3c
000002c0: 4833 4d3d d53a 723d 3889 3cbe 90b3 b23d
000002d0: 52a3 0cbe fd8e f6bd d4df 693d 3310 40bd
000002e0: 7d15 183d be6b 8fbd 3ff2 8dbd 7d30 183d
000002f0: 799a 94be 7e9b aabd 82b3 843d 8b66 0f3c
00000300: ea55 68bc 6d22 893d 775b 67be dde6 6dbe
00000310: bf3f cb3d 64dc 87bd 14ff 223e 3006 e6bd
00000320: 4732 29bd 4ad3 563e 15c5 c53c df36 b83c
00000330: 42fc 623d b13b 0d3e 474a af3e 9a07 fa3d
00000340: 8a42 6f3d 8147 b93c 8e6a 9f3d 3e12 debd
00000350: 559e a73d ae73 24be 0314 16bd b8af 52be
00000360: 390c 3dbe 1f6f d3bd e1f1 a8be b2b7 63be
00000370: 2cdd 84bb 34e6 213d 9258 a8be 3d09 b8bd
00000380: 7840 26bd 53eb febe fce2 09bf 6bfc c3bd
00000390: fa29 46bb a3a3 8d3e 0df0 153d bdc7 733d
000003a0: df06 17be f4fd 173c 4361 423e 2a39 a53d
000003b0: bbf0 ff3d ab29 05be 7d96 693d 9cca 87bd
000003c0: 82e6 eebb dfc1 593d 7baa 0c3b 8ef3 83bd
000003d0: cffa ebbd 040e f4bc 6ef3 58bc 4297 193d
000003e0: a5ad 80bb 87a7 38bd 72af 75be b7f0 373d
000003f0: d7c8 b53d 1037 f7bc 2df3 43be e5eb 1c3d
0.10598562 0.03808151 -0.07677576 -0.07663152 -0.18444037 -0.055464774 0.00351732 0.09434909
0.008992607 0.022035258 -0.065175414 -0.11288975 0.14941005 -0.001947576 -0.19011132 0.015689554
0.15554172 0.07832657 -0.24313517 -0.46340528 -0.4357333 -0.063600376 0.19063249 0.08759785
-0.263196 -0.11099404 0.059573572 -0.20777032 0.15591946 -0.10667907 -0.12463835 -0.10479943
0.102552995 0.13578461 -0.45185375 -0.08590576 -0.29328442 -0.113349624 -0.18634105 0.05294162
0.31967914 0.29791474 0.1417802 -0.5107638 -0.87088877 -0.41647524 -0.19425961 0.07328857
0.11556969 -0.05993708 -0.1434428 0.0043643187 -0.09084607 0.03678388 -0.028993268 -0.046309605
-0.14909722 0.1607571 -0.13040534 0.057448287 0.10721222 0.02379668 0.073084936 0.22892648
-0.17168596 -0.029018741 0.11446967 0.11983508 0.05798313 0.13368806 -0.021948263 -0.5253738
-0.15236872 -0.4642946 -0.31238955 -0.1762798 0.015984992 -0.5331988 -0.15411767 -0.0074913413
0.010917634 0.14756389 -0.30589014 -0.15510945 -0.29437283 0.017502323 -0.04617919 0.02371816
-0.42887837 -0.25876215 -0.012419138 0.002391249 0.08578697 -0.015191515 -0.4104033 -0.60095435
-0.27273172 0.06979058 -0.13501452 -0.22207206 -0.06360321 0.14932059 -0.104825675 0.12822463
0.0011621383 -0.17319752 0.012501984 -0.12931614 0.11509519 0.0640156 0.25994864 -0.15804106
0.071680926 -0.037128754 -0.040783342 -0.10066614 -0.053784505 0.23534928 -0.0616693 0.04698443
0.23905832 -0.055283133 0.17778358 -0.5335986 0.00993509 -0.1689827 0.20587942 0.16579415
-0.079313464 -0.16366215 -0.080576636 0.2657592 -0.21248683 -0.19716722 -0.013673581 0.21058013
0.20273344 0.030418912 0.064226165 -0.046276893 0.14218254 0.18370609 -0.21680814 0.13921942
0.09186936 0.11524774 -0.03895735 -0.0845585 -0.0011577595 0.13869567 0.04264358 0.24888743
-0.039887756 0.031142633 -0.0047059357 -0.22470956 -0.46605852 0.0010992138 -0.06887635 -0.00015742873
-0.061751828 0.07134016 -0.04087467 -0.05052821 0.14003082 -0.062434796 0.043804422 -0.29919428
0.061956305 -0.22703333 -0.24477081 0.03910551 -0.056873105 -0.13493174 -0.28809264 0.02690958
0.050097734 0.059138138 -0.1841172 0.08725655 -0.13734177 -0.120389916 0.057098225 -0.04689045
0.037129868 -0.07002972 -0.069309704 0.037155617 -0.29024103 -0.08330439 0.06479551 0.0087524755
-0.01418064 0.06696019 -0.22593485 -0.23232599 0.09924268 -0.06633833 0.15917617 -0.11231649
-0.041307714 0.20979038 0.024141828 0.022487102 0.055416353 0.13792302 0.34236357 0.12208481
0.058413066 0.022617104 0.077839956 -0.10843323 0.08184496 -0.16059753 -0.03664018 -0.20574844
-0.18461694 -0.10323929 -0.3299704 -0.22238043 -0.004054686 0.03952618 -0.32880074 -0.08986137
-0.040588826 -0.49788913 -0.53861976 -0.09569629 -0.0030237422 0.27663907 0.036605883 0.059516657
-0.14748715 0.009276856 0.18982415 0.08067544 0.124970876 -0.13004176 0.057028282 -0.066304415
-0.0072906623 0.053163406 0.002146392 -0.06442939 -0.11522447 -0.02979184 -0.013241632 0.037497766
-0.00392695 -0.04508164 -0.23992708 0.044907298 0.08876198 -0.030177623 -0.19135733 0.038310904

fc1.bias f4 [10]
00000000: d6ca a23d 21d2 233e 6770 fabb 2977 91bd
00000010: 115a c4bd 591f 40bc 780d 00bd 9382 dcbc
00000020: 7a0f 2b3d 4415 503c
0.07948844 0.15998127 -0.007642794 -0.07102806 -0.09587491 -0.011726224 -0.031262845 -0.026917731
0.041762806 0.012700383
