checkpoints/epoch=19.checkpoint.pth.tar (torch, 75240 bytes, 6 tensors)

conv1.weight f4 [8, 1, 3, 3]
000000 b1 32 a8 3e dc ba 45 bf 51 b2 c5 bf f8 d0 71 3f
       0.32851174 -0.7723825 -1.5445043 0.94459486
000010 3e 4e da 3e e8 ef 19 bd bf bc ac 3d 07 9a 23 3f
       0.4263782 -0.037582308 0.08434438 0.639069
000020 26 91 04 3e db a7 f7 3d ce af 3c be c6 93 3b be
       0.12945995 0.12092563 -0.18426439 -0.1831809
000030 d8 4a 2e be 00 1a 97 bd 9b 48 c0 bd 66 98 b5 bd
       -0.17020738 -0.07378006 -0.093888484 -0.08866958
000040 d6 e7 3c bc 60 0e 91 be ad 72 18 bf c5 92 7a 3e
       -0.011529883 -0.2833128 -0.5954998 0.2447005
000050 3f 47 42 3f ef 00 71 3e 23 7f 41 3f 33 ca e1 3e
       0.7588996 0.23535512 0.7558462 0.44099578
000060 ed 49 ec 3e 30 35 80 3e fe 8d 19 bf b9 41 ad 3e
       0.4615015 0.2504058 -0.5998229 0.33839205
000070 c0 21 f6 3e 64 07 52 3f 7e 37 e1 be c1 e1 af 3d
       0.48072624 0.8204253 -0.4398765 0.08587981
000080 f7 27 1c 3f f1 63 4b bf 49 16 a7 bf b4 42 53 bf
       0.6099848 -0.79449373 -1.3053676 -0.82523656
000090 d6 a3 ac 3e 9c 5e eb 3e 9f d5 34 3e 6b 48 17 3e
       0.33718747 0.4597062 0.17659615 0.14773719
0000a0 5e 68 10 be 08 86 74 bd d0 c1 13 3f af 0e 85 3b
       -0.14102313 -0.059698135 0.5771761 0.0040605883
0000b0 78 5a 19 3e 24 a0 26 3f d8 9d 79 bd 06 81 fa 3d
       0.14975917 0.65088105 -0.060941547 0.122316405
0000c0 4a 94 1b 3e 48 9c 0f 3f 6f 94 79 3e 09 c2 c9 be
       0.15193287 0.5609784 0.24373029 -0.3940585
0000d0 25 01 f0 be df df 49 bd d5 af 3e be a3 fa 50 3e
       -0.46875873 -0.049285766 -0.18621762 0.2040811
0000e0 b9 89 9f 3e 55 c5 5f be 14 c0 e8 3e 18 a5 08 3f
       0.31159762 -0.2185262 0.45459044 0.53376913
0000f0 d4 ad c0 3e 9e 77 e7 3e 95 d2 b6 3e 12 98 88 3e
       0.3763262 0.45208448 0.35707536 0.2667852
000100 ad 77 3c 3f 31 25 c8 3d b1 d4 0e bf d7 93 4f 3f
       0.7362011 0.09772719 -0.5579329 0.8108496
000110 94 05 09 3f 9e 06 b7 bf 28 3b a6 be 94 3c 2d 3f
       0.53524137 -1.4298894 -0.32467008 0.6767056

conv1.bias f4 [8]
000000 f8 c7 14 3d 9e 8c 16 be af f0 cc bd c7 6a 90 3c
       0.036323518 -0.14702079 -0.10006844 0.01762904
000010 b7 e5 d8 be a6 3c 4c be 9f ca ab be 2a 22 53 be
       -0.4236276 -0.1994501 -0.33553025 -0.20618501

conv2.weight f4 [32, 8, 3, 3]
000000 5e 59 c6 be e9 e2 a3 be 55 b4 f4 be 20 18 d9 3e
       -0.38740057 -0.32009056 -0.47793832 0.42401218
000010 8f 6d 13 3d 33 08 31 be b8 f3 75 3d cd 05 00 3f
       0.035993155 -0.17288284 0.06004688 0.5000885
000020 c6 a3 f6 3e e9 72 53 3b 95 d0 db bd cd 09 59 bc
       0.48171824 0.0032264537 -0.10733143 -0.013246966
000030 3a cc 3e 3c ab c0 e7 3d 5c 33 1c 3b 1a 7f 27 bd
       0.011645371 0.113160454 0.0023834324 -0.040892698
000040 66 66 50 3d 83 82 da bd 52 08 d8 bd d2 33 4a bf
       0.050878905 -0.106694244 -0.10548462 -0.7898532
000050 b4 31 07 3d f6 2a c0 3b da 28 87 be 80 2f 27 bf
       0.033006385 0.0058644963 -0.26398355 -0.65306854
000060 78 b6 81 3d db fd 54 3d 77 43 81 be 98 98 97 3e
       0.06333631 0.051999908 -0.25246784 0.29608607
000070 e6 b1 0a be 58 7e ec 3e 1d fe 43 bf 7e 24 33 be
       -0.13544425 0.46190143 -0.7655962 -0.1749439
000080 fe 7a a7 3e c3 52 a5 3d 87 07 9c be 08 56 50 be
       0.32711023 0.08072426 -0.30474493 -0.20345318
000090 da 5f ee be 8a 9e 03 bf 8f ef 08 bf 7b 51 de 3d
       -0.46557504 -0.51413786 -0.5349054 0.10855385
0000a0 14 0d 1a be 4b f2 f2 be ae 93 a6 3e bc ad 7c 3e
       -0.15044051 -0.4745048 0.32534546 0.2467565
0000b0 03 9f 3a 3e 33 b7 11 bf 4c e2 a8 bd 39 4c d2 bd
       0.1822472 -0.56920165 -0.08246288 -0.102684446
0000c0 a4 2d bc 3e 7e a2 15 bf 51 20 2b bf 56 11 0b 3f
       0.3675357 -0.5845107 -0.66846186 0.5432333
0000d0 bf 8f 7e 3e 1b 53 d2 3d 7e 23 68 be 1f c5 f9 be
       0.24859522 0.10269757 -0.22669789 -0.48783204
0000e0 1d 2a 4b bc a2 d1 f8 3d 77 8b 26 be 8c 65 05 bf
       -0.012400177 0.12149359 -0.16264139 -0.52108073
0000f0 e7 40 02 3e 18 b0 90 3e 4b f3 63 3d ba a6 68 bf
       0.12720071 0.2825935 0.055651944 -0.90879405
000100 d3 db c5 bc a6 f4 15 3d 80 af 9d be 9f 66 23 bf
       -0.024152672 0.036610268 -0.30797958 -0.6382846
000110 4d f4 ef be 51 38 12 3f 3c e6 0b 3f 39 fe 92 3c
       -0.46866074 0.5711718 0.54648185 0.017943488
000120 f4 ed 5a be 51 fc 1c 3f 53 9c 06 3f e0 8c 07 bf
       -0.21379834 0.61322504 0.5258228 -0.52949333
000130 d8 e0 94 bd 96 96 21 3e 10 d2 30 bf 5d ee b8 be
       -0.07269448 0.157801 -0.6907053 -0.36119357
000140 2b b0 bf be 88 25 78 3b a2 e1 fe bc 82 f8 ee bd
       -0.37439093 0.0037864167 -0.03111345 -0.11668493
000150 d3 ae b1 bd 91 a7 82 3d 71 09 64 bd 6b 08 c6 3d
       -0.08675923 0.06379617 -0.055673067 0.09669574
000160 eb 84 2d 3d 55 b1 a4 3c 92 3a 9d 3c 84 cb 93 be
       0.04236309 0.02010409 0.019192968 -0.28866208
000170 8e 4c 0e be 2f 1c 80 3d c9 a8 64 be be 38 0c 3e
       -0.13896391 0.062553756 -0.22330011 0.1369352
000180 b7 3b 92 3e 39 15 a1 3d 83 8c d8 bc 4c c7 3a 3d
       0.28561184 0.07865376 -0.026434189 0.04560022
000190 1d a3 fb 3d c1 39 ec be e0 14 3d be 0c 13 dc bd
       0.12286971 -0.46137813 -0.18464994 -0.107458204
0001a0 3d d8 13 3e ec 26 b4 be 67 6d bd be 93 55 60 3d
       0.14437957 -0.35185945 -0.3699753 0.05476911
0001b0 14 bc af 3d 60 a4 16 3d 08 91 5a be 77 55 cc bd
       0.08580795 0.036777854 -0.21344388 -0.099772386
0001c0 c3 18 a8 3d 9f 32 29 3e 62 d6 e5 3d 9a bd a0 3d
       0.08207848 0.16523217 0.11222531 0.07848664
0001d0 5c 87 99 3c bf e1 a3 3e 2e 4d ef 3d 87 68 a0 be
       0.018741302 0.32008168 0.11684643 -0.31329748
0001e0 4e 93 c1 be c2 cd a9 3b 4f 8b 29 3e 0d b6 e1 bd
       -0.37807697 0.005181999 0.16557048 -0.110210516
0001f0 07 27 22 3d ba f0 5c 3e e0 3e d3 3d 05 b3 c5 bd
       0.039588 0.21576205 0.10314727 -0.09653286
000200 1f 07 35 be 1b 8b 40 3a 01 3b 89 bd 47 0f dd 3d
       -0.17678498 0.0007344947 -0.06700707 0.107939295
000210 f8 07 f4 3d 16 1d 7e bd 79 ef 80 be 62 be d3 3e
       0.119155824 -0.062039457 -0.25182703 0.41356188
000220 2c ae 02 3f 78 84 93 be 0a e6 b3 bd 14 fb 2a bc
       0.51047015 -0.28812003 -0.08784111 -0.010435838
000230 58 69 14 3e 17 f7 e3 be 41 44 b0 be b0 72 a0 be
       0.1449331 -0.44524452 -0.34427074 -0.313375
000240 b0 df b8 3e fa 25 61 bb ec fc ec bd 39 99 24 3e
       0.3610816 -0.0034354911 -0.115716785 0.16074075
000250 24 c5 5a be c9 44 9f be b5 4a 5a be 2c 99 7b be
       -0.21364266 -0.31107166 -0.21317561 -0.24570149
000260 74 da 9c be ea d6 9f 3c 12 4f e1 3d 37 cc ff bb
       -0.30635417 0.019511659 0.110014096 -0.0078063267
000270 3d e1 71 3d 7a f9 8f 3d de f3 6f 3d 06 5f d7 bd
       0.059052695 0.07030006 0.05858218 -0.10516171
000280 b9 fe e7 bd bd c4 ec 3d 85 b5 25 be 90 4d 05 3e
       -0.11327881 0.11560962 -0.16182525 0.13017869
000290 22 1b 1e 3e a4 8f 23 3e ac 3b 64 3e b6 d2 cc 3d
       0.15440038 0.15972763 0.22288388 0.100011274
0002a0 10 ce 16 be 3e fc a4 be 1d 75 93 be e2 f9 54 bf
       -0.14727044 -0.32223696 -0.28800288 -0.8319379
0002b0 9a 97 32 bf 1a 37 47 bf 62 b8 01 bf 2a 24 6d 3e
       -0.69762576 -0.77818453 -0.5067197 0.23158327
0002c0 3f 4f 07 3e 0f 45 11 3f 36 ad 6d 3e e5 45 4c be
       0.13213824 0.56746 0.23210606 -0.19948538
0002d0 97 4e 66 be 1c 1b e0 bd 44 c2 bc 3d bb f9 15 3e
       -0.22490917 -0.10942671 0.09216741 0.14646046
0002e0 78 45 4f 3e 23 70 26 3e 6e 60 dd bd 74 95 f2 bd
       0.20241344 0.16253714 -0.10809408 -0.11844912
0002f0 1d 46 8e be e2 8a 14 bf e3 52 a0 be bc 8a e1 bc
       -0.27787867 -0.5802442 -0.31313238 -0.027531974
000300 60 0c 77 3e 6d 7d 44 3e 15 cc 15 3e f8 02 bd 3e
       0.24125814 0.19188471 0.14628632 0.36916327
000310 f0 2a e0 3b 7e 60 83 be c7 b9 1e be df 32 80 3e
       0.006841056 -0.25659555 -0.15500556 0.25038812
000320 5d 59 4d 3e 49 de d8 bc 04 3b 3c 3d 15 34 6d 3d
       0.2005362 -0.026473181 0.04595472 0.057910997
000330 b2 86 b0 bd 5b 50 03 bf 53 47 a7 be 4b c2 61 3c
       -0.08619441 -0.5129449 -0.32671604 0.013779233
000340 88 e2 24 be df f7 e4 be 29 b6 af 3b 43 c5 c7 3d
       -0.1610204 -0.4472036 0.0053622914 0.097544216
000350 2a 3a 1f 3e 65 6b 97 3e 63 2e 04 bd 02 b7 85 3d
       0.15549532 0.29574123 -0.0322708 0.065290466
000360 23 22 38 bf 00 7b 18 be 9b 1e 3d bd 7b 6c 57 bf
       -0.7192709 -0.14890671 -0.046171766 -0.84149903
000370 bb 93 0f 3d 26 82 e7 3e 0a 94 7c bf ef 0a 66 bd
       0.035052996 0.45216483 -0.9866339 -0.05616277
000380 ed 53 1f 3f 42 88 7e bd 6e 26 9e 3d 69 e8 d4 bd
       0.62237436 -0.062141664 0.07722174 -0.10395891
000390 3d da 5b 3d 71 0f 9b 3c 38 d6 86 3d 05 2b 6e 3d
       0.053674925 0.018928261 0.06583828 0.058146495
0003a0 2c dd b5 3d f6 fc 54 3d 7d fc da 3d 3f 11 84 3e
       0.08880076 0.051999055 0.106926896 0.25794408
0003b0 fb fe 29 3e 39 14 44 be 61 29 bb 3c fa 68 5e be
       0.16601174 -0.1914834 0.02284688 -0.21719733
0003c0 7b 5c d0 be 31 3b a4 3d 70 c9 0d bd 53 a1 00 bf
       -0.40695557 0.08019102 -0.034615934 -0.5024616
0003d0 57 25 89 bf 08 d7 f9 be 56 92 d1 be 6e dc 5f be
       -1.071452 -0.48796868 -0.40931958 -0.21861431
0003e0 cb 92 20 bf f1 8f 67 3d 6c 42 d8 3d 5a d4 a0 3e
       -0.6272399 0.056533758 0.10559544 0.3141201
0003f0 c0 b0 d9 bd f6 66 81 3d ff 28 de 3d bd 18 0b be
       -0.106294155 0.06318466 0.10847663 -0.13583656

conv2.bias f4 [32]
000000 2d 2b 5a bd 73 5a dc be ad 9e b7 bc 49 b4 a9 be
       -0.053263832 -0.43037757 -0.02241453 -0.3314536
000010 eb 71 0e 3d 63 6e 24 be 8e 6c dd be 87 d3 ac bc
       0.03477661 -0.16057734 -0.43246883 -0.021096958
000020 10 60 69 be ea 0d e5 be 99 86 b9 bd 73 8a 40 be
       -0.22790551 -0.44737178 -0.090588756 -0.18802814
000030 e6 e5 ac bc 65 1f f6 be ec a3 e5 be 6d fe c5 be
       -0.021105718 -0.48070827 -0.44851625 -0.38670674
000040 1a 44 b0 be 96 23 be bd c9 f2 19 be 0b c0 ca bd
       -0.34426957 -0.09284131 -0.15034021 -0.098999105
000050 44 ee 2a be b7 a1 19 bd 53 5b 95 be fc b5 12 bd
       -0.16692454 -0.03750774 -0.29171237 -0.035818085
000060 92 c7 37 bc 4e a8 df bd 27 70 d5 bd 6d fc 6b be
       -0.011217015 -0.109207734 -0.10421782 -0.23045512
000070 d5 ef 83 bd 4f df 6c bd 16 15 a6 be d7 a8 00 be
       -0.06442229 -0.05783015 -0.32437962 -0.12564407

fc1.weight f4 [10, 1568]
000000 08 db 6d 3d 8e 02 e5 bd 0d 7c b0 bc d8 22 81 bd
       0.058070213 -0.11182128 -0.021543527 -0.06305474
000010 84 36 d1 3c 72 fa 82 3d f8 b4 07 bc 55 d9 dc bd
       0.02553869 0.06395425 -0.008282892 -0.1078364
000020 af 78 74 3e 49 c1 22 3e fd 58 83 3e 02 6c 0a 3e
       0.23874162 0.15894045 0.2565383 0.13517764
000030 9f 75 3b 3d 78 80 d3 3d ea 90 3c 3e 1f 24 87 bd
       0.04576647 0.10327238 0.18414655 -0.065986864
000040 32 ae 7b 3e 2f 88 95 3d a1 16 1f 3a f3 25 dc 3c
       0.24578169 0.073013656 0.00060687406 0.026873564
000050 c3 15 42 3d ca 7d 9e be e0 22 41 bf bb d5 ee be
       0.047384035 -0.30955344 -0.7544384 -0.46647438
000060 05 84 98 be 86 3d 07 bf 49 1b b5 be 1b a3 d8 bd
       -0.29788223 -0.5282825 -0.3537238 -0.10577985
000070 2a 65 2d be 25 13 cc be f4 22 2d be a1 c1 30 3e
       -0.16933122 -0.39858356 -0.16907865 0.17261364
000080 29 e5 1a 3e 02 4b bb be 09 90 b0 be d4 d2 f1 bd
       0.1512648 -0.36580664 -0.3448489 -0.118077904
000090 d8 da 44 be 95 54 88 3d 8e f9 5a 3c 66 3b de be
       -0.19224107 0.06656758 0.013365163 -0.43404692
0000a0 c3 63 ce be ca 12 f7 bd df a4 c4 3d 04 c8 37 bd
       -0.40310487 -0.120641306 0.09601759 -0.044868484
0000b0 b2 38 f8 3c 76 55 0f bf e0 0f f2 bd 97 19 3b bd
       0.030300472 -0.5598978 -0.11819434 -0.0456787
0000c0 13 3a d7 3d 78 88 f3 bc 01 87 7e bb e6 ee 16 3e
       0.10509124 -0.02972816 -0.0038837793 0.1473957
0000d0 d7 11 47 bd fa 0c b4 bc 36 77 d9 bd 83 f5 04 bd
       -0.048600998 -0.021978844 -0.10618441 -0.0324607
0000e0 26 98 69 3d 12 a7 48 3c 76 29 ab 3c b8 55 6c bd
       0.057029866 0.012246864 0.020893794 -0.057698935
0000f0 2c 95 d8 bb e7 5f 48 bd 84 3c 07 be a9 73 cc 3c
       -0.0066095795 -0.048919585 -0.13206679 0.024957495
000100 d3 86 3d 3b 60 7e 76 be d4 49 12 be 28 2a fe bd
       0.0028919473 -0.24071646 -0.14285976 -0.124103844
000110 9b 9a d3 3d bf 78 35 3d b6 67 68 3e 79 5e 96 be
       0.10332223 0.044304606 0.22695813 -0.29368952
000120 f9 8d a2 bd 0c 68 fb 3c 84 6e 87 3d 2e e9 5e 3c
       -0.079372354 0.030689262 0.06612876 0.013605399
000130 2d 41 ca 3a 13 91 2c be ad a8 cd 3d 6c 7b a7 be
       0.0015430801 -0.16852216 0.10041938 -0.3271135
000140 ca 0c c0 bd ec 6d 9d bc bc a0 db 3d 75 36 fb bd
       -0.09377439 -0.019217454 0.10724017 -0.12266246
000150 f6 4f 75 3e d9 44 53 bd a0 51 2c 3d 68 46 d6 3d
       0.23956284 -0.05157933 0.04207003 0.10462648
000160 87 69 fd 3d 38 ea bf bd 9b 8f a1 be ed 13 a3 be
       0.12373643 -0.093708456 -0.31554875 -0.3185114
000170 c1 e0 d9 3e b1 2d 47 3e 06 b8 fb bd 5d 40 a2 be
       0.42554286 0.19451024 -0.12290959 -0.3168973
000180 c9 a4 89 be 43 46 67 be 98 be c5 3d 12 a9 82 bd
       -0.26883534 -0.22585396 0.096554935 -0.06379904
000190 e5 11 4c 3e 9a 6b 03 be c6 89 71 be 29 68 fa bd
       0.19928701 -0.12834015 -0.23587713 -0.12226898
0001a0 89 71 b2 be 49 4a a4 3e 81 f4 48 bd 30 fe ac be
       -0.34852245 0.32087925 -0.049061302 -0.3378768
0001b0 50 da dd 3b b4 64 f0 3b 57 8f 9b be 51 72 ce 3c
       0.0067704096 0.0073362235 -0.30382797 0.025200995
0001c0 e6 6e 57 bd ba 61 ea bd d4 67 de bc da 1b ef bd
       -0.052595995 -0.11444421 -0.027149118 -0.11675234
0001d0 c9 37 91 be 56 46 e8 be 6d 21 c1 3d db ea f4 be
       -0.28362873 -0.45366162 0.094302036 -0.4783543
0001e0 e3 f0 10 be 07 05 fc bd ef c5 e7 bd e3 0b 08 bf
       -0.14154391 -0.123056464 -0.1131705 -0.5314314
0001f0 03 5b b0 3d 91 1a c7 3c 8c 56 08 3e e8 d8 5c bd
       0.08611109 0.02430466 0.13314265 -0.053917795
000200 02 5d e6 3d 32 26 2c bd b1 e5 6c 3b 07 18 0e 3e
       0.112482086 -0.042028613 0.003614765 0.13876353
000210 2d 4f 9e be b7 be 97 be 12 8a 9b 3d ad f6 93 3b
       -0.3091978 -0.2963769 0.07594694 0.00451549
000220 17 41 3c 3e 7a 98 8d 3d 07 d1 02 be a6 e3 84 bd
       0.18384205 0.06913848 -0.1277505 -0.06488733
000230 c6 69 89 3e 68 b9 82 bd 5e cb b7 be 41 26 75 bd
       0.2683851 -0.0638302 -0.35897344 -0.059850935
000240 fe 5d c2 3e 71 ba 06 be 00 bf 18 3e 9d b4 21 be
       0.37962335 -0.13157059 0.1491661 -0.15791555
000250 07 23 8c be 4b f8 20 be 40 60 a6 3d 1a dd 42 3e
       -0.27370474 -0.15719716 0.08123827 0.19029656
000260 24 af 20 be 38 c1 d2 bb 8c 73 84 be c7 20 ee 3c
       -0.15691811 -0.006431725 -0.25869405 0.029068364
000270 fc 25 89 be db 6f c4 3d 3e 38 2a be 64 a9 34 3e
       -0.26786792 0.09591647 -0.16623017 0.17642742
000280 db 7b e5 bc 5e 90 15 3e 34 62 bc 3d ec dd 82 bd
       -0.02801316 0.14605853 0.09198418 -0.063899845
000290 51 1b 05 be 48 0a 0a 3d 90 b5 50 3e 43 a4 bc bd
       -0.12998702 0.03370121 0.2038176 -0.09211018
0002a0 c9 aa 15 be 32 a4 0d 3e fd e2 82 3d 45 16 42 bd
       -0.1461593 0.13832167 0.06390951 -0.04738452
0002b0 df 08 1f be 93 48 e3 3d 68 de 49 3d 40 15 ab be
       -0.15530728 0.11097827 0.04928437 -0.3341465
0002c0 00 9c 8d 3d 7d d6 d5 3d bc a3 87 be 7c c0 f3 bd
       0.0691452 0.10441301 -0.26492107 -0.11901948
0002d0 09 86 0c be 0f 9c 14 3d b0 37 38 3d 73 91 33 3e
       -0.13723005 0.03628164 0.044974983 0.17535953
0002e0 53 b6 3a 3e 34 25 a8 be 62 b5 dd be 73 72 3b be
       0.18233614 -0.32840884 -0.43302447 -0.18305378
0002f0 0f 0b 58 be 1c dd 24 bd d7 2a 29 be 7a bf 75 be
       -0.21097969 -0.04024993 -0.16520248 -0.23998824
000300 49 30 df be b0 c7 fc bd ac 5e f8 bc 23 9b bc bc
       -0.43591526 -0.12342775 -0.03031858 -0.023023194
000310 50 af f5 3c 5d b7 9c be 63 76 49 be ee 24 19 3d
       0.029990822 -0.30608645 -0.19674067 0.037388735
000320 17 5e c2 be f1 db b7 bd 4c 36 3a bd 7b 39 82 3d
       -0.3796241 -0.08977497 -0.045461938 0.0635862
000330 d8 cf 48 be fb 64 2d be 36 c6 7d be 71 59 4f be
       -0.19610536 -0.16933052 -0.24782643 -0.20248963
000340 87 ca b9 be d1 5e fe 3d 2c 79 3c bc ec 1d 33 3d
       -0.3628733 0.124204285 -0.011503499 0.043729708
000350 49 09 83 be 30 28 19 be fe 55 7e 3c e1 52 91 bd
       -0.25593022 -0.14956737 0.015523432 -0.07095886
000360 b4 c3 4c bd 55 94 20 3c 47 d0 dd 3d 6d 27 94 3e
       -0.049991325 0.00980099 0.108307414 0.2893633
000370 1b 35 b6 3e 8a 9e 9c 3e 30 a7 36 3c 4a b9 08 bc
       0.3558739 0.30589706 0.011148259 -0.008344958
000380 93 43 4f 3b f1 43 13 3c f3 6e 7d 3e 8c a4 65 be
       0.003162597 0.008988366 0.24749355 -0.22426051
000390 2c dc 62 3e f2 1d 40 3d 9f 3b 96 3d c7 ce 01 3e
       0.22154301 0.046903558 0.073355906 0.12676536
0003a0 8a 7d 50 39 cd 69 3b be c0 9a ae be 3a f9 f9 3d
       0.00019883193 -0.18302079 -0.3410244 0.12205739
0003b0 64 40 f3 bc 3d f0 59 be 5e 84 26 3c 3e 09 1a be
       -0.02969379 -0.2128305 0.010163395 -0.15042588
0003c0 68 7b 8b be 88 56 80 bf b9 a3 0e bf ba 66 97 be
       -0.2724259 -1.0026407 -0.5571857 -0.29570562
0003d0 70 bc 64 be 26 87 57 be 7b 6e 93 bd 22 6d 9c be
       -0.22337508 -0.21047649 -0.07198807 -0.30552012
0003e0 c6 6d 6e 3e 91 f2 8b be 93 c0 85 bd 15 6b 97 3e
       0.23284063 -0.273335 -0.06530871 0.29573885
0003f0 05 13 88 bc 14 1e 42 bd ab 38 58 be 97 b5 b0 bd
       -0.016610632 -0.047391966 -0.21115367 -0.086283855

fc1.bias f4 [10]
000000 f6 21 ba 3d c5 b8 1c 3e 2d 18 f2 3c b6 55 e6 bd
       0.09088509 0.15304859 0.029552544 -0.11246817
000010 09 33 4b bd 05 ee de ba e3 4e 15 bd 15 8b 08 bd
       -0.049609218 -0.0017008191 -0.036452185 -0.033335764
000020 62 b1 fb ba 9a 90 0e bc
       -0.0019202644 -0.008701468
