checkpoints/epoch=4.checkpoint.pth.tar (torch, 52744 bytes, 4 tensors)

conv1.weight f4 [32, 1, 5, 5]
-0.2173921 0.02172696 0.18343997 0.08863433 -0.039917897 -0.20956354 0.17863086 0.25447887
-0.021014178 -0.1996336 -0.081010714 0.26039413 0.12948559 -0.036188003 -0.24150573 0.08815913
0.10648352 -0.029945148 -0.087849185 -0.16360329 0.02077518 -0.0010683706 0.023046942 0.078126535
0.00903252 -0.20485242 -0.23059714 -0.27030933 -0.19277143 -0.04414119 -0.15143844 -0.16769068
-0.17724706 0.026420444 0.07115553 -0.20189138 -0.16597776 -0.012561211 0.13954645 0.16731708
-0.24074502 -0.11304682 0.16963716 0.19363187 0.032042775 -0.2738674 -0.17512758 0.16795175
0.08694339 0.15467435 -0.109507635 -0.036290765 0.09648594 0.12552373 0.09409922 -0.0904473
0.036181215 0.11302118 0.20835349 0.052019022 0.19655344 0.27730036 0.27495077 -0.044706814
-0.17954625 0.3193466 0.08397972 -0.02041456 -0.11953708 -0.04205293 0.13648748 -0.212151
-0.15728967 -0.074283995 -0.083255515 0.04672404 0.14092532 0.016135091 0.08937749 0.060809653
0.11213797 0.23687069 0.2813495 0.27266914 0.35149887 0.10502187 0.20261762 0.32406557
0.18900475 0.34143776 -0.11496386 -0.18712513 -0.17407706 -0.13624065 0.20490038 -0.3981547
-0.4015933 -0.4997911 -0.4690567 -0.269538 0.2949449 0.26423582 0.34950578 0.36859718
0.30984238 0.23445553 0.36805826 0.20379116 0.14433405 0.29946432 -0.037312765 0.0025539696
0.21709383 0.07865097 0.15357184 -0.4033775 -0.20895043 -0.2539845 -0.23525761 -0.22381385
-0.44059968 -0.35375464 -0.47918352 -0.31121504 -0.24043627 -0.069325775 0.10077217 0.26210576
0.11481095 -0.078717515 -0.1917299 0.17011236 0.20761187 0.056759346 -0.30138943 -0.024542447
0.252177 0.22950417 0.008272591 -0.29660112 -0.055328608 0.040338837 0.16757502 -0.0060518584
-0.14911304 -0.0055616735 0.08259562 0.19320068 0.1997562 -0.09910766 -0.1202695 -0.24149697
-0.20927183 -0.09144839 0.1591815 -0.17336892 -0.24725159 -0.2101001 0.17680854 0.30155483
-0.2255158 -0.23869807 0.005455744 0.28255525 0.12215028 -0.2770894 -0.15695567 -0.013037227
0.27413654 0.15444915 -0.2761459 0.020095354 0.1444624 0.3035859 0.06854094 0.36940765
0.43133697 0.39588276 0.2109952 0.09332274 0.1596804 0.28101918 0.026156059 -0.10225812
-0.3177179 -0.16816421 -0.086492956 -0.2657409 -0.3130585 -0.5074388 -0.45807338 -0.3396929
-0.42194992 -0.34896737 -0.23944601 -0.5018106 -0.37892362 -0.26700988 -0.044212982 0.1106071
-0.03676468 -0.04480146 -0.12184976 -0.035502754 0.20933759 -0.09124024 -0.16529699 -0.10253433
0.08421204 0.13001043 -0.1323552 -0.23021878 -0.21028474 0.11627101 0.2525778 -0.2389382
-0.24143524 0.034569766 0.21629182 0.28884068 -0.21086472 -0.13667811 0.16411895 0.2965496
0.056285113 0.29356956 0.08388344 -0.050031845 -0.2452028 -0.39206952 -0.26294518 -0.44683602
-0.3695136 -0.3626456 -0.050620314 -0.3847651 -0.50363255 -0.24519946 0.012680213 0.31401497
0.015453327 0.20401187 0.38531026 0.45582816 0.14659697 0.46655902 0.5944546 0.3928738
0.1486692 0.019726966 0.045964148 -0.019464578 0.07614252 -0.057635777 -0.14922851 0.056402564
00000000: 099c 5ebe bdfc b13c b0d7 3b3e ea85 b53d
00000010: f380 23bd d397 56be 02eb 363e 0e4b 823e
00000020: ed25 acbc c06c 4cbe f2e8 a5bd 6152 853e
00000030: df97 043e df39 14bd 474d 77be c68c b43d
00000040: 0814 da3d 874f f5bc 46ea b3bd 9f87 27be
00000050: b630 aa3c 9208 8cba f1cc bc3c ce00 a03d
00000060: 23fd 133c d5c4 51be a821 6cbe fc65 8abe
00000070: e065 45be 64cd 34bd ae12 1bbe 1bb7 2bbe
00000080: 4180 35be b06f d83c feb9 913d 9dbc 4ebe
00000090: 13f6 29be 8acd 4dbc 44e5 0e3e 2b55 2b3e
000000a0: dd85 76be 1785 e7bd 5db5 2d3e 6f47 463e
000000b0: 493f 033d 5938 8cbe a554 33be 8bfb 2b3e
000000c0: 600f b23d f462 1e3e 8a45 e0bd a0a5 14bd
000000d0: 6c9a c53d 4b89 003e 18b7 c03d 6f3c b9bd
000000e0: c132 143d a677 e73d 9e5a 553e e611 553d
000000f0: 4e45 493e 50fa 8d3e 59c6 8c3e 7e1e 37bd
00000100: f9da 37be 6681 a33e 8ffd ab3d 6f3c a7bc
00000110: dbcf f4bd b13f 2cbd 60c3 0b3e 1d3e 59be
00000120: 8b10 21be 3522 98bd de81 aabd b561 3f3d
00000130: ba4e 103e bd2d 843c 8c0b b73d 8b13 793d
00000140: 98a8 e53d 3b8e 723e 0b0d 903e 4a9b 8b3e
00000150: a9f7 b33e b515 d73d fe7a 4f3e eceb a53e
00000160: 768a 413e eed0 ae3e 2c72 ebbd bb9d 3fbe
00000170: 4241 32be ab82 0bbe 68d1 513e efda cbbe
00000180: a39d cdbe 9ee4 ffbe 3328 f0be e200 8abe
00000190: 0503 973e eb49 873e 6cf2 b23e c5b8 bc3e
000001a0: a9a3 9e3e 1c15 703e 2272 bc3e a1ae 503e
000001b0: 4ecc 133e 6353 993e 45d5 18bd 8060 273b
000001c0: d84d 5e3e c213 a13d f041 1d3e 7f87 cebe
000001d0: 1af7 55be 420a 82be 5fe7 70be 752f 65be
000001e0: 4896 e1be 541f b5be 8b57 f5be 9457 9fbe
000001f0: ed34 76be acfa 8dbd a461 ce3d ba32 863e
00000200: 0122 eb3d a636 a1bd d854 44be ef31 2e3e
00000210: 3598 543e 7d7c 683d b74f 9abe 3e0d c9bc
00000220: 581d 813e 2403 6b3e c389 073c 1adc 97be
00000230: 40a0 62bd 563a 253d c998 2b3e ab4e c6bb
00000240: 17b1 18be b33e b6bb e427 a93d 66d6 453e
00000250: e48c 4c3e f5f8 cabd db4f f6bd fb4a 77be
00000260: 5b4b 56be 4b49 bbbd 7a00 233e 9f87 31be
00000270: 852f 7dbe 7b24 57be 4c0d 353e 6565 9a3e
00000280: 9ded 66be 446d 74be 19c6 b23b 15ab 903e
00000290: ed29 fa3d a9de 8dbe fdb8 20be 189a 55bc
000002a0: a05b 8c3e eb27 1e3e ff62 8dbe 039f a43c
000002b0: f4ed 133e 9c6f 9b3e 315f 8c3d 0023 bd3e
000002c0: 33d8 dc3e 25b1 ca3e 200f 583e fe1f bf3d
000002d0: 4283 233e bfe1 8f3e 3b45 d63c b56c d1bd
000002e0: ecab a2be 3d33 2cbe 3823 b1bd 310f 88be
000002f0: 3449 a0be 82e7 01bf 9888 eabe 3aec adbe
00000300: d209 d8be daab b2be 5631 75be a976 00bf
00000310: 4702 c2be 85b5 88be ac18 35bd fa85 e23d
00000320: 9096 16bd bc81 37bd 5e8c f9bd 566b 11bd
00000330: 985c 563e 2adc babd 9d43 29be 85fd d1bd
00000340: 5d77 ac3d 7421 053e 1f88 07be 79be 6bbe
00000350: e254 57be 7f1f ee3d e151 813e 37ac 74be
00000360: cd3a 77be 0799 0d3d 9a7b 5d3e ede2 933e
00000370: ecec 57be 59f5 0bbe cc0e 283e 59d5 973e
00000380: 388b 663d c04e 963e 15cb ab3d 31ee 4cbd
00000390: 7116 7bbe 56bd c8be c0a0 86be b1c7 e4be
000003a0: e330 bdbe afac b9be 3f57 4fbd eeff c4be
000003b0: 10ee 00bf 9115 7bbe abc0 4f3c 92c6 a03e
000003c0: f42f 7d3c 7de8 503e 6347 c53e 4f62 e93e
000003d0: 841d 163e d3e0 ee3e 2d2e 183f c126 c93e
000003e0: bd3c 183e 729a a13c e744 3c3d 2e74 9fbc
000003f0: 9cf0 9b3d 7e13 6cbd 5ccf 18be 6006 673d

conv1.bias f4 [32]
-0.0687601 0.10835979 -0.079232395 0.040014748 -0.0022796914 -0.1056155 -0.03520806 0.28272673
-0.01750677 -0.0016220921 -0.06522569 -0.15471649 0.12998569 -0.0006457573 0.0918621 -0.0034624944
-0.25220218 -0.02807521 -0.15354915 0.1386968 -0.16184315 -0.087902546 0.17504002 -0.037113477
-0.16824389 -0.119060494 0.09895572 -0.12787914 -0.208088 -0.0053952904 0.077771924 -0.0064311386
00000000: 18d2 8cbd bdeb dd3d 9844 a2bd 81e6 233d
00000010: e066 15bb f04c d8bd 5436 10bd 8fc1 903e
00000020: 5c6a 8fbc 619c d4ba 0c95 85bd 006e 1ebe
00000030: f81a 053e 0a48 29ba 3222 bc3d 04eb 62bb
00000040: a520 81be fcfd e5bc fd3b 1dbe 8906 0e3e
00000050: 36ba 25be 4006 b4bd b13d 333e 4d04 18bd
00000060: 2048 2cbe fdd5 f3bd 4ca9 ca3d c0f2 02be
00000070: 0515 55be faca b0bb e346 9f3d 4dbc d2bb

fc1.weight f4 [10, 1152]
-8.207978e-06 -0.0022032482 0.00027348768 0.005196992 -0.015321903 0.003863172 -3.2004722e-05 -0.021075098
0.007331505 -0.013643201 0.01298815 -0.012694844 0.00078046985 0.023541633 -0.011031916 -0.022736304
0.00018298921 0.027522188 0.0003411645 0.030527404 0.077762835 -0.014082931 -0.0020816764 0.0076672263
0.005511795 0.048927914 0.07786589 -0.035316397 0.013606179 0.02168368 -0.00251585 0.020966347
0.03309631 -0.028142583 -0.029393677 -0.02297025 -0.0030867069 -0.01691224 0.021715643 -0.012247029
0.027673542 0.0055723703 -0.0055365064 0.013616604 -0.03562205 0.0198249 0.017762009 -0.008199052
-0.009555845 0.02744815 0.00720122 0.013535806 -0.038444288 0.019252848 -0.0046346844 0.03459127
0.04276089 -0.03274843 0.0031926928 0.049288858 0.017909404 -0.031194458 0.012700889 0.015224652
0.026577182 0.032815937 -0.002727681 -0.01655119 -0.08303235 -0.0606133 -0.051143724 -0.004888764
-1.7219552e-16 -0.0014346725 -0.009777848 -0.0009572988 -0.04772844 -0.013054591 -1.5209033e-06 -0.019292979
0.020528628 -0.070882246 -0.066406034 -0.015452434 -0.00032252556 0.006534117 -0.009544277 0.012524585
-0.066359304 0.0072786296 0.002309929 0.042308297 0.090388075 -0.015757509 -0.08367997 0.007870512
-0.0039597834 0.0064392993 0.014436728 -0.053701673 0.040520605 0.035676528 -0.0009170371 -0.031535264
0.014938782 0.029334659 -0.0068739783 -0.015488869 0.0009154775 0.0021959734 -0.003991831 0.0040655285
0.011360175 0.0002802112 0.0007624047 -0.0409599 -0.059047733 0.01387476 -0.0025688782 -0.0009005105
-0.0012284525 -0.048741378 -0.08628031 0.043695062 0.007446773 -0.05680554 0.025793038 -0.09265281
-0.13334526 -0.08164718 -0.06743492 0.03624396 0.0035608045 -0.0068553668 -0.034478366 -0.0447488
0.011309499 -0.0017880853 0.031587724 -0.01625825 0.07099772 0.08184108 -0.008955091 -0.014036073
-3.1355805e-05 -2.7106336e-05 0.008279302 0.016523212 0.0049776467 -0.00030057496 -0.008666967 -0.05218797
-0.10385816 -0.0025320244 -0.017886354 -0.02114819 -0.0063401246 -0.056678016 -0.050952952 0.032663815
0.02167516 -0.07432725 -0.009605569 -0.1341295 -0.10373144 -0.108071715 -0.1588408 0.019316064
-0.03877581 -0.071531616 -0.059450343 -0.047342367 -0.017474005 0.018629864 0.0013978193 -0.02121415
0.056090128 0.0981749 0.02552808 0.0076189265 -9.654636e-13 -0.015059366 -0.015437778 0.002132303
0.00085062534 0.013310145 -8.0117825e-06 -0.024128709 -0.00090804865 -0.0009946882 0.0029347348 0.01825379
0.00362429 0.015585489 -0.010334413 -0.017636644 0.029595373 0.04195418 0.0013775717 0.030271886
0.105375886 -0.0574272 -0.006231091 0.044137258 0.0050064204 0.02874316 0.094213486 -0.067426845
0.012264684 0.018367844 -0.0040087253 0.047901038 0.02995802 -0.035054296 -0.08784119 -0.044364482
-0.0046552713 -0.02333952 0.0077886125 -0.03116618 -0.0017013053 0.0012707049 -0.020125182 -0.0033330913
-0.029233294 -0.0054574995 -0.0032498422 -0.027259247 -0.04369328 0.009909205 0.04307283 -0.01936995
-0.021902444 0.039798923 0.0047837943 0.081428 0.051251356 -0.009199878 0.069371894 0.10193572
0.05621488 0.032691833 0.07318352 0.018657949 -0.01219126 0.07118511 0.020640513 -0.04530221
-0.04659887 -0.119467326 -0.11515749 -0.032512512 0.0029457784 -0.005569725 0.008821986 0.020443304
00000000: ffb4 09b7 5f64 10bb e562 8f39 874b aa3b
00000010: b808 7bbc 452d 7d3b cf3c 06b8 afa5 acbc
00000020: 1f3d f03b bc87 5fbc 40cc 543c 09fe 4fbc
00000030: 7298 4c3a 62da c03c 36bf 34bc 7c41 babc
00000040: cbe0 3f39 3676 e13c 53de b239 9b14 fa3c
00000050: 1f42 9f3d 18bc 66bc bc6c 08bb 5b3d fb3b
00000060: 4a9c b43b a368 483d 2778 9f3d eda7 10bd
00000070: 73ec 5e3c f9a1 b13c f5e0 24bb 9ec1 ab3c
00000080: ff8f 073d 468b e6bc 02cb f0bc 1b2c bcbc
00000090: 594a 4abb 8a8b 8abc 01e5 b13c c3a7 48bc
000000a0: a0b3 e23c 6e98 b63b 956b b5bb 2d18 5f3c
000000b0: 6de8 11bd d467 a23c a281 913c 5155 06bc
000000c0: 1e90 1cbc f1da e03c 36f8 eb3b 49c5 5d3c
000000d0: c277 1dbd 26b8 9d3c 8dde 97bb 93af 0d3d
000000e0: 0b26 2f3d 3823 06bd 7f3c 513b 1de3 493d
000000f0: beb6 923c 858b ffbc 6417 503c d270 793c
00000100: 64b8 d93c 016a 063d e5c2 32bb 5c96 87bc
00000110: dd0c aabd a745 78bd 157c 51bd ed31 a0bb
00000120: 2687 46a5 9f0b bcba 4433 20bc 3cf3 7aba
00000130: e67e 43bd ece2 55bc d721 ccb5 4f0c 9ebc
00000140: a72b a83c b62a 91bd e3ff 87bd 352c 7dbc
00000150: a618 a9b9 251c d63b 995f 1cbc eb33 4d3c
00000160: 63e7 87bd 9281 ee3b 2e62 173b 774b 2d3d
00000170: 621d b93d e415 81bc 6760 abbd 52f3 003c
00000180: 12c1 81bb c200 d33b 0788 6c3c 49f6 5bbd
00000190: eff8 253d 8d21 123d 5165 70ba 1f2b 01bd
000001a0: cbc1 743c 3d4f f03c 1c3f e1bb 06c5 7dbc
000001b0: a8fc 6f3a 52ea 0f3b e8cd 82bb 2038 853b
000001c0: 0720 3a3c 50e9 9239 1ddc 473a 91c5 27bd
000001d0: 09dc 71bd f652 633c a05a 28bb 3d10 6cba
000001e0: 0704 a1ba 0aa5 47bd bbb3 b0bd 98f9 323d
000001f0: 0f04 f43b edac 68bd ec4b d33c c2c0 bdbd
00000200: a98b 08be a336 a7bd 521b 8abd 8c74 143d
00000210: 635c 693b fca2 e0bb 3039 0dbd 854a 37bd
00000220: 7a4b 393c 305e eaba 2162 013d 0630 85bc
00000230: 4167 913d 4c9c a73d 60b8 12bc 8ff7 65bc
00000240: 0a84 03b8 6a62 e3b7 e9a5 073c b05b 873c
00000250: 871b a33b 7d96 9db9 e5ff 0dbc 0ec3 55bd
00000260: 96b3 d4bd 52f0 25bb 6786 92bc f83e adbc
00000270: d2c0 cfbb 3527 68bd 0bb4 50bd 7eca 053d
00000280: 1b90 b13c e338 98bd ad60 1dbc 3e59 09be
00000290: 2671 d4bd b454 ddbd 2aa7 22be b93c 9e3c
000002a0: 62d3 1ebd 2b7f 92bd 3482 73bd 12ea 41bd
000002b0: a525 8fbc a89d 983c 0837 b73a 4cc9 adbc
000002c0: c3be 653d ec0f c93d 4420 d13c 30a8 f93b
000002d0: 7ee0 87ab 8fbb 76bc bcee 7cbc 1cbe 0b3b
000002e0: 80fc 5e3a cb12 5a3c 586a 06b7 92a9 c5bc
000002f0: 1d0a 6eba 3360 82ba ae54 403b f988 953c
00000300: 7f85 6d3b 475a 7f3c ab51 29bc b97a 90bc
00000310: ff71 f23c 25d8 2b3d a38f b43a bffc f73c
00000320: 50cf d73d c938 6bbd 2e2e ccbb 45c9 343d
00000330: e60c a43b c776 eb3c 00f3 c03d 1617 8abd
00000340: d0f1 483c 2978 963c a05b 83bb e133 443d
00000350: 866a f53c 1895 0fbd 15e6 b3bd 88b7 35bd
00000360: 3f8b 98bb 8532 bfbc 9e37 ff3b 3750 ffbc
00000370: 55fe deba c88d a63a 91dd a4bc fe6f 5abb
00000380: a97a efbc d3d4 b2bb 4efb 54bb c94e dfbc
00000390: baf7 32bd 385a 223c 236d 303d bbad 9ebc
000003a0: c16c b3bc 3204 233d 60c1 9c3b b9c3 a63d
000003b0: f1ec 513d 16bb 16bc da12 8e3d adc3 d03d
000003c0: 9341 663d dfe7 053d 3ee1 953d 8ed8 983c
000003d0: dabd 47bc 80c9 913d 4b16 a93c cf8e 39bd
000003e0: 75de 3ebd 49ab f4bd b1d7 ebbd d72b 05bd
000003f0: f60d 413b 3d82 b6bb 178a 103c b778 a73c

fc1.bias f4 [10]
0.017903926 0.048592698 0.007383065 -0.049360227 -0.03260495 0.068784595 -0.039727267 0.008558976
-0.060010627 -0.009727223
00000000: 41ab 923c 2309 473d a3ed f13b f32d 4abd
00000010: c58c 05bd f0de 8c3d 0fb9 22bd f33a 0c3c
00000020: b4cd 75bd ee5e 1fbc
