checkpoints/epoch=10.checkpoint.pth.tar (torch, 75240 bytes, 6 tensors)

conv1.weight f4 [8, 1, 3, 3]
0.33350313 0.45313123 0.43728653 0.12588227 0.10184616 0.3242535 -0.7677318 -0.0044853752
-0.1997807 -0.09259623 0.2884106 0.003292878 -0.1702192 0.54482424 0.014875444 0.4266561
0.32620257 0.076562256 0.45003688 0.04578496 -0.45963594 0.3716479 0.42059797 -0.23958498
-0.12936406 0.4821726 0.49791047 -0.48435748 -0.31972826 0.43214524 0.35103604 0.5906268
0.4239962 0.07799788 0.13352238 0.2153561 0.19893794 -0.48701382 -0.9606847 0.8251083
-0.0004963111 -0.22286949 0.4193102 0.5883232 -0.0069155637 -0.12832154 0.022228014 0.40326425
0.80617267 0.584452 -0.1838399 0.34264117 -0.47148567 -0.75947255 0.44891492 0.5508381
0.5753794 0.5155444 -0.030272242 -0.1313653 -0.6994332 -0.9213564 -0.4897308 -0.39104158
-0.17193589 0.56806177 -0.57847357 -0.14244446 0.3469708 -0.46188724 0.13094996 0.6504507
00000000: ecc0 aa3e d100 e83e 05e4 df3e 48e7 003e
00000010: b894 d03d 8e04 a63e 128a 44bf 0efa 92bb
00000020: 5093 4cbe 18a3 bdbd 8eaa 933e 53cd 573b
00000030: f14d 2ebe 9a79 0b3f 22b8 733c ab72 da3e
00000040: 0604 a73e accc 9c3d 3c6b e63e 0389 3b3d
00000050: 6755 ebbe a248 be3e 9e58 d73e c455 75be
00000060: 0378 04be 54df f63e 1fee fe3e b4fd f7be
00000070: 6cb3 a3be 2442 dd3e ffba b33e 5133 173f
00000080: 0816 d93e 5abd 9f3d 17ba 083e 4f86 5c3e
00000090: 63b6 4b3e e059 f9be 6fef 75bf 4c3a 533f
000000a0: e01a 02ba e637 64be d4af d63e 599c 163f
000000b0: f49b e2bb b966 03be 8617 b63c a778 ce3e
000000c0: 5561 4e3f a59e 153f 8740 3cbe aa6e af3e
000000d0: 9266 f1be cb6c 42bf 2dd8 e53e ba03 0d3f
000000e0: 104c 133f b8fa 033f 7efd f7bc a084 06be
000000f0: 0e0e 33bf 03de 6bbf ffbd fabe 9a36 c8be
00000100: f60f 30be 7f6c 113f d816 14bf f6dc 11be
00000110: 28a6 b13e 7c7c ecbe bf17 063e f083 263f

conv1.bias f4 [8]
-0.040546604 -0.20795043 -0.46645185 -0.20570812 0.008658435 -0.042470977 0.16953649 -0.0055422448
00000000: 3214 26bd f5f0 54be c7d2 eebe 26a5 52be
00000010: 1cdc 0d3c 0cf6 2dbd f99a 2d3e b89b b5bb

conv2.weight f4 [32, 8, 3, 3]
-0.49959028 -0.18200584 -0.36841255 -0.30036113 -0.052547757 0.24444792 0.039222647 0.28252035
0.23852359 -0.52025265 -0.30742985 -0.033659164 -0.13420534 0.19583072 0.24179067 0.15641235
0.019242503 -0.22049205 -0.45727664 -0.04686377 -0.061515443 -0.05369332 -0.007056306 -0.11248344
-0.20910297 0.040897872 -0.07470547 -0.23910893 -0.2637732 0.09276061 -0.26026973 0.13796373
0.29976732 0.20191602 0.06412403 -0.00751352 -0.13281888 -0.16945204 -0.011686698 -0.2721169
0.034842167 -0.14116557 0.07381304 -0.14059454 -0.38153335 -0.5182359 -0.37562653 -0.37178516
-0.2994024 0.108337 0.2866404 0.4091395 0.44566858 0.13824843 -0.068370104 0.12227597
-0.3453298 -0.15393557 -0.4068319 0.28742808 0.06299094 0.40608993 0.3302005 -0.33386782
-0.2040165 -0.05681076 0.39889294 0.22157636 -0.3429743 -0.052285917 -0.15870416 -0.195621
-0.14741127 -0.24551412 -0.055577654 0.17807274 0.10041841 -0.28533116 0.15301406 0.21299148
0.10523052 0.025943186 -0.24005745 -0.3643747 -0.13948265 0.07242794 -0.18891501 -0.097670265
0.14974536 0.09078829 -0.24077182 -0.2381598 -0.3673646 0.15978391 0.23463237 0.011311442
-0.26011273 0.19349834 0.15023191 -0.07998839 -0.26907834 -0.4495163 0.103179455 0.14617074
-0.14152502 -0.03918902 0.13982373 -0.090107985 0.02629055 -0.039503492 -0.18075256 0.360035
0.40691075 0.44876668 -0.48289675 0.18429299 0.4167824 -0.29845238 -0.4204539 -0.14033017
0.21123965 0.05163237 -0.27300835 0.14647074 0.13048956 -0.09917039 0.1160086 0.13753343
0.06926776 -0.058916636 -0.016893314 -0.07321495 0.3539654 0.20169371 -0.2560916 -0.7431397
-0.28342798 -0.37360045 -0.41971958 -0.04590931 -0.5426907 0.012944249 -0.039500672 -0.031735078
-0.18202467 -0.07164685 0.06236874 0.08552597 -0.1182204 0.04805048 -0.054329176 0.18363377
-0.14324944 -0.009807402 0.11910545 0.13474248 -0.010579439 0.13433497 -0.11850994 -0.12662789
-0.09943368 0.008551441 0.0025830534 -0.18555473 -0.024917139 0.14367701 0.070135385 0.0542664
-0.1719882 0.17241012 0.32224023 0.04418484 0.054003738 0.057384156 0.022125395 0.0848026
-0.18879057 -0.12391545 -0.22802052 0.16405904 0.1992418 -0.26236653 -0.27434626 -0.06477732
0.0051385285 0.1788973 -0.36825272 0.07951071 0.29324177 0.19351344 0.2819897 0.41067055
-0.005112594 0.064332 0.019510226 0.09951518 -0.3948346 0.039807413 -0.07605952 -0.35597482
0.30480653 -0.21054809 0.020724168 -0.086487114 0.21530604 0.09867944 -0.3469516 0.11112588
0.058829643 -0.49576095 -0.1807451 -0.39934495 -0.34200758 -0.11389102 0.10654011 -0.118906595
-0.08867173 0.09623626 0.08015411 0.14923616 -0.0015483533 -0.01612677 -0.18547778 -0.26973096
-0.0018206792 -0.04357638 0.08280594 0.09531303 -0.0913174 -0.2882347 -0.024160119 -0.08432905
-0.030905005 -0.09872203 0.16197515 0.110050336 0.32079253 -0.23234528 -0.19277573 0.37158152
0.048756324 0.028838132 -0.29856032 0.073557 0.17786859 0.16336401 -0.08594761 -0.2433264
0.04030968 0.036642093 -0.051310543 -0.0389185 0.413633 0.23161955 0.4424236 -0.24558586
00000000: 4cca ffbe bd5f 3abe 92a0 bcbe efc8 99be
00000010: 513c 57bd 8e50 7a3e eda7 203d 82a6 903e
00000020: 873f 743e 472f 05bf 7267 9dbe 31de 09bd
00000030: 206d 09be d987 483e f997 773e 8f2a 203e
00000040: 74a2 9d3c abc8 61be 2a20 eabe 39f4 3fbd
00000050: 9ef7 7bbd 87ed 5bbd 9638 e7bb b85d e6bd
00000060: 171f 56be 8784 273d 2eff 98bd f9d8 74be
00000070: 480d 87be 46f9 bd3d 1342 85be 5d46 0d3e
00000080: 1a7b 993e 13c3 4e3e 7653 833d f933 f6bb
00000090: ac01 08be d684 2dbe 9079 3fbc e852 8bbe
000000a0: a9b6 0e3d b58d 10be 4b2b 973d 04f8 0fbe
000000b0: 5758 c3be 1cab 04bf 1f52 c0be a05a bebe
000000c0: 454b 99be cadf dd3d 88c2 923e bc7a d13e
000000d0: ac2e e43e ff90 0d3e a005 8cbd d36b fa3d
000000e0: 11cf b0be 49a1 1dbe 454c d0be c629 933e
000000f0: 6501 813d 05eb cf3e 0a10 a93e b9f0 aabe
00000100: b4e9 50be 66b2 68bd b23b cc3e eae4 623e
00000110: 549a afbe c229 56bd 5883 22be df50 48be
00000120: fbf2 16be 0e68 7bbe 65a5 63bd b358 363e
00000130: 2ba8 cd3d ed16 92be b8af 1c3e 701a 5a3e
00000140: 1983 d73d ce86 d43c 9fd1 75be 528f babe
00000150: 8ad4 0ebe 1a55 943d f072 41be 5907 c8bd
00000160: d956 193e 36ef b93d e38c 76be 2ae0 73be
00000170: 3617 bcbe 659e 233e 7843 703e a053 393c
00000180: 7f2d 85be 6e24 463e 65d6 193e f4d0 a3bd
00000190: a3c4 89be 0027 e6be c04f d33d c8ad 153e
000001a0: efeb 10be aa84 20bd f42d 0f3e 898a b8bd
000001b0: 485f d73c 6ace 21bd 3317 39be 8256 b83e
000001c0: 9b56 d03e bfc4 e53e 3e3e f7be 4db7 3c3e
000001d0: 8164 d53e c0ce 98be bc45 d7be b6b2 0fbe
000001e0: 354f 583e 777c 533d c0c7 8bbe 6dfc 153e
000001f0: 0e9f 053e d819 cbbd eb95 ed3d 90d5 0c3e
00000200: 41dc 8d3d 9252 71bd d963 8abc b8f1 95bd
00000210: f43a b53e cc88 4e3e 701e 83be 673e 3ebf
00000220: 791d 91be 8f48 bfbe 7ce5 d6be 670b 3cbd
00000230: c7ed 0abf 1e14 543c 75cb 21bd a4fc 01bd
00000240: ad64 3abe 95bb 92bd 5d76 7f3d 3d28 af3d
00000250: 891d f2bd 95d0 443d 4588 5ebd 7e0a 3c3e
00000260: fbaf 12be 3aaf 20bc 8fed f33d eff9 093e
00000270: 6255 2dbc 1b8f 093e 57b5 f2bd beaa 01be
00000280: e3a3 cbbd 581b 0c3c 7248 293b 0f02 3ebe
00000290: 071f ccbc 1120 133e 24a3 8f3d 7246 5e3d
000002a0: ad1d 30be 478c 303e acfc a43e 2afb 343d
000002b0: 0633 5d3d a60b 6b3d 5140 b53c fcac ad3d
000002c0: 5152 41be 62c7 fdbd 367e 69be 18ff 273e
000002d0: 0b06 4c3e e854 86be 1d77 8cbe f9a9 84bd
000002e0: 1a61 a83b db30 373e 9f8b bcbe 83d6 a23d
000002f0: c923 963e 6328 463e f460 903e 6943 d23e
00000300: 8c87 a7bb 7fc0 833d e9d3 9f3c 9dce cb3d
00000310: c327 cabe 190d 233d 18c5 9bbd 5542 b6be
00000320: 9a0f 9c3e eb99 57be bbc5 a93c 2820 b1bd
00000330: 3079 5c3e 7218 ca3d a4a3 b1be f795 e33d
00000340: 5af7 703d 61d4 fdbe 3e15 39be f176 ccbe
00000350: 9e1b afbe b23f e9bd b431 da3d 4d85 f3bd
00000360: 8699 b5bd 8417 c53d d727 a43d 5dd1 183e
00000370: 1ef2 caba 4a1c 84bc e3ed 3dbe 2d1a 8abe
00000380: dba3 eeba 257d 32bd 2996 a93d 7a33 c33d
00000390: 9e04 bbbd 8093 93be 71eb c5bc b5b4 acbd
000003a0: 7e2c fdbc c72e cabd d0dc 253e 1262 e13d
000003b0: eb3e a43e eceb 6dbe 0067 45be ef3f be3e
000003c0: b6b4 473d f23d ec3c e6dc 98be 0da5 963d
000003d0: 2f23 363e e548 273e 4d05 b0bd 8e2a 79be
000003e0: c31b 253d 0516 163d 012b 52bd 0169 1fbd
000003f0: b4c7 d33e ad2d 6d3e 5985 e23e dc7a 7bbe

conv2.bias f4 [32]
-0.02981195 -0.11240154 -0.30373433 -0.20974284 -0.06327178 -0.0824233 -0.2833034 -0.29976544
0.018895878 -0.066302836 -0.1651357 -0.1621366 -0.13599974 -0.09911212 -0.13129625 -0.07481975
-0.13820806 -0.09834099 -0.26142985 -0.19373728 -0.03638905 -0.2621967 -0.14821498 -0.2550409
-0.36855283 0.064892955 -0.18795559 0.03146886 -0.28128025 0.104658015 -0.15039873 -0.11702056
00000000: 3138 f4bc c732 e6bd 1183 9bbe d4c6 56be
00000010: a394 81bd 8ccd a8bd 250d 91be db7a 99be
00000020: 87cb 9a3c c8c9 87bd 5519 29be 2307 26be
00000030: 8443 0bbe 4cfb cabd 8672 06be 193b 99bd
00000040: 6a86 0dbe 0067 c9bd 22da 85be 1163 46be
00000050: af0c 15bd a53e 86be abc5 17be b994 82be
00000060: f5b2 bcbe 99e6 843d 6e77 40be 7ee5 003d
00000070: f703 90be f156 d63d 2002 1abe 7aa8 efbd

fc1.weight f4 [10, 1568]
0.1015498 0.02681031 -0.07302815 -0.08693851 -0.20391837 -0.06762252 0.0073921965 0.049340762
0.0014807323 -0.011169335 -0.071164764 -0.11210366 0.106840394 0.018930556 -0.18548977 0.026115274
0.14944734 0.06694645 -0.18807049 -0.43594775 -0.37043616 -0.030479219 0.18561229 0.085729904
-0.2602188 -0.070222154 0.009559225 -0.19571863 0.1404781 -0.13599722 -0.038426552 -0.09308855
0.076563165 0.065466814 -0.4626599 -0.07786583 -0.26840332 -0.14094879 -0.18163332 0.034645416
0.3000405 0.23594551 0.1249356 -0.49133855 -0.82192636 -0.3876004 -0.14773148 0.041289832
0.03949367 -0.080492616 -0.11254674 0.021481546 -0.10720248 0.02462666 -0.038061988 -0.080332376
-0.12520188 0.12915379 -0.08634778 0.06446372 0.098547556 0.032312304 0.08116614 0.22066714
-0.13460791 -0.06318376 0.11551508 0.120906115 0.05321829 0.13540106 -0.022417558 -0.48737222
-0.10303418 -0.42105907 -0.2837812 -0.15373836 0.023056334 -0.44437292 -0.15633175 0.002676745
0.014198831 0.12643753 -0.23024209 -0.122965366 -0.25685006 0.028525561 -0.065339394 -0.011287646
-0.369091 -0.2019644 -6.710929e-05 0.019592253 0.0973711 0.0096169375 -0.34186253 -0.544083
-0.2456152 0.07305174 -0.1393723 -0.20504203 -0.052337755 0.17045799 -0.076012455 0.07765926
0.001169605 -0.10964797 -0.04078792 -0.09203512 0.11571671 0.080186635 0.22841795 -0.152942
0.073772825 0.014956697 -0.05973185 -0.07338483 -0.028431918 0.17826965 -0.06383373 0.052353278
0.27449414 -0.030166313 0.18372107 -0.44316393 0.053257514 -0.11892957 0.18777223 0.10586565
-0.056040134 -0.1410561 -0.039395176 0.18910484 -0.13873176 -0.14534394 0.028716749 0.15168773
0.15597421 0.02765074 0.04250144 -0.033661097 0.11282129 0.123141244 -0.20877725 0.15039782
0.08056822 0.047858197 -0.038954437 -0.08442533 -0.03684909 0.14093642 0.041807227 0.20131974
-0.035605367 0.0336257 -0.03682807 -0.19681402 -0.42572686 0.016214175 -0.049420945 -0.0009546486
-0.0941296 0.052804608 -0.07244071 -0.037645914 0.1549873 -0.031694494 0.02440485 -0.24359319
0.05356913 -0.17842814 -0.17712624 -0.0032236574 -0.06946527 -0.09112287 -0.22709343 0.028475285
0.07573323 0.10159899 -0.1816341 0.10320285 -0.08362255 -0.08115086 0.04506661 -0.053701043
0.05202416 -0.04949342 -0.06342126 0.048837986 -0.2179036 -0.04036748 0.040343344 -0.0032211556
-0.013299331 0.05669936 -0.15214448 -0.18271434 0.06105306 -0.015689077 0.15233845 -0.06494833
0.007019174 0.1720565 0.036916126 -0.015525358 0.05382651 0.088789806 0.26283705 0.060539007
0.008731209 -0.0061436193 0.08951092 -0.098959036 0.07711637 -0.13124214 -0.035845835 -0.23175827
-0.17574462 -0.08587692 -0.32145354 -0.15378992 -0.0162214 -0.03358456 -0.3258205 -0.10696935
-0.012328253 -0.41225252 -0.4906849 -0.09791572 0.011575601 0.21541035 0.06449553 0.09032336
-0.089136906 -0.015579493 0.17707404 0.06343953 0.11480726 -0.08246025 0.11056656 -0.085835576
-0.019143527 0.048545253 0.020439006 -0.043419503 -0.08528558 -0.054338202 0.01449625 0.022391638
0.004647302 -0.038941026 -0.24206494 0.015665255 0.049304754 0.026435725 -0.1894707 0.00086281233
00000000: 57f9 cf3d 4ca1 db3c c88f 95bd d10c b2bd
00000010: facf 50be ad7d 8abd 3d3a f23b 8a19 4a3d
00000020: 2215 c23a 96ff 36bc d5be 91bd 9b96 e5bd
00000030: 23cf da3d 4114 9b3c 08f1 3dbe b3ef d53c
00000040: b908 193e 381b 893d 8d95 40be 8b34 dfbe
00000050: cfa9 bdbe 8eaf f9bc 2611 3e3e 2993 af3d
00000060: 663b 85be a2d0 8fbd 4c9e 1c3c 776a 48be
00000070: 7ed9 0f3e db42 0bbe 2965 1dbd 36a5 bebd
00000080: 26cd 9c3d 7713 863d c2e1 ecbe 1f78 9fbd
00000090: 296c 89be e154 10be 16fe 39be 5ae8 0d3d
000000a0: e99e 993e b39b 713e 3cde ff3d ba90 fbbe
000000b0: c469 52bf 8f73 c6be ec46 17be 871f 293d
000000c0: 1dc4 213d 50d9 a4bd e87e e6bd 11fa af3c
000000d0: f98c dbbd d9bd c93c e3e6 1bbd 4d85 a4bd
000000e0: ec34 00be e440 043e 1bd7 b0bd 8e05 843d
000000f0: 4dd3 c93d e859 043d 6f3a a63d 91f6 613e
00000100: a8d6 09be 7d66 81bd 2c93 ec3d a09d f73d
00000110: 6cfb 593d 93a6 0a3e 07a5 b7bc da88 f9be
00000120: 9603 d3bd 0e95 d7be c54b 91be 976d 1dbe
00000130: a3e0 bc3c d984 e3be 6e15 20be 546c 2f3b
00000140: 37a2 683c d778 013e 95c4 6bbe 44d5 fbbd
00000150: da81 83be 70ae e93c a9d0 85bd d2ef 38bc
00000160: 7ff9 bcbe c1cf 4ebe 07bd 8cb8 ef7f a03c
00000170: 806a c73d 5c90 1d3c 9b08 afbe 0649 0bbf
00000180: 8d82 7bbe 279c 953d 9db7 0ebe 8af6 51be
00000190: 1d60 56bd 8a8c 2e3e 6bac 9bbd d10b 9f3d
000001a0: 6e4d 993a 1d8f e0bd 3c11 27bd e97c bcbd
000001b0: e2fc ec3d e438 a43d 65e6 693e d49c 1cbe
000001c0: 3516 973d ef0c 753c 62a9 74bd c94a 96bd
000001d0: 0eea e8bc 528c 363e 42bb 82bd 6470 563d
000001e0: 7f8a 8c3e 581f f7bc 6021 3c3e 62e6 e2be
000001f0: 8d24 5a3d 5991 f3bd 5d47 403e 17d0 d83d
00000200: 578a 65bd 0371 10be d65c 21bd b3a4 413e
00000210: b30f 0ebe 0bd5 14be 633f eb3c 0754 1b3e
00000220: b4b7 1f3e ce83 e23c fd15 2e3d 38e0 09bd
00000230: d90e e73d 7a31 fc3d b4c9 55be e301 1a3e
00000240: f300 a53d f506 443d b08e 1fbd 30e7 acbd
00000250: 12ef 16bd a351 103e 0e3e 2b3d c326 4e3e
00000260: efd6 11bd 1abb 093d 08d9 16bd 9d89 49be
00000270: dff8 d9be 97d3 843c 9e6d 4abd 6241 7aba
00000280: 05c7 c0bd a549 583d cc5b 94bd 9a32 1abd
00000290: feb4 1e3e 16d2 01bd aeec c73c 7e70 79be
000002a0: 4e6b 5b3d deb5 36be 9560 35be ff43 53bb
000002b0: cf43 8ebd a19e babd 2e8b 68be 0045 e93c
000002c0: 061a 9b3d 2213 d03d 4afe 39be 045c d33d
000002d0: 4d42 abbd 6c32 a6bd c497 383d a0f5 5bbd
000002e0: 4917 553d 9db9 4abd 01e3 81bd 570a 483d
000002f0: 1f22 5fbe 5f58 25bd 103f 253d 061a 53bb
00000300: 70e5 59bc 973d 683d c3cb 1bbe 7819 3bbe
00000310: c612 7a3d 6186 80bc 9cfe 1b3e a103 85bd
00000320: 1901 e63b 942f 303e 5d35 173d 125e 7ebc
00000330: 3079 5c3d 6ed7 b53d 9492 863e c0f7 773d
00000340: 580d 0f3c 6a50 c9bb 8051 b73d 09ab cabd
00000350: 30ef 9d3d 5764 06be 15d3 12bd 0a52 6dbe
00000360: 66f6 33be 3de0 afbd 8f95 a4be 1b7b 1dbe
00000370: bee2 84bc f78f 09bd f2d1 a6be bf12 dbbd
00000380: 71fc 49bc c312 d3be 0d3b fbbe 0988 c8bd
00000390: 97a7 3d3c 8894 5c3e 3c16 843d 74fb b83d
000003a0: 698d b6bd 2141 7fbc e652 353e 96ec 813d
000003b0: 1220 eb3d ebe0 a8bd b870 e23d 90ca afbd
000003c0: e3d2 9cbc 63d7 463d b46f a73c a6d8 31bd
000003d0: 35aa aebd bc91 5ebd ae81 6d3c ab6e b73c
000003e0: 6548 983b a080 1fbd dfdf 77be 6c54 803c
000003f0: c8f3 493d bc8f d83c 9b04 42be 5b2e 623a

fc1.bias f4 [10]
0.07723057 0.15414399 -0.003580038 -0.057803597 -0.08506308 -0.0048521208 -0.034254506 -0.04046562
0.033223893 0.010533821
00000000: 102b 9e3d ecd7 1d3e 129f 6abb 77c3 6cbd
00000010: 8d35 aebd 8afe 9ebb 744e 0cbd 47bf 25bd
00000020: c715 083d 0c96 2c3c
