checkpoints/epoch=5.checkpoint.pth.tar (torch, 75230 bytes, 6 tensors)

conv1.weight f4 [8, 1, 3, 3]
00000000: c142 a73e 9e50 ce3e c062 f63e f0f5 fa3d
00000010: 49fc 493d 4725 8e3e 4748 2bbf d942 5d3d
00000020: 598a 28be 405e 94bd 04fb 943e 56d3 b73c
00000030: 3ca4 39be f9fa 093f 33d3 403d 0e99 db3e
00000040: 8942 993e d085 d93d 028f f33e eeb5 913d
00000050: bbf5 bcbe 8b01 b73e ebf8 a93e fd8b 38be
00000060: beee e8bd de52 d13e 078e ff3e caa8 c0be
00000070: 8a3c 74be 161d e03e a25d 923e 4c25 133f
00000080: d59c cf3e 3c8c 813d f1ff 333e fa0c 843e
00000090: e277 393e bce0 c9be 193c 4cbf 2c59 333f
000000a0: f94a 60bc ad44 13be 5139 b03e b30c 0d3f
000000b0: 1f09 0f3c f23f dbbd 880e 42bb e105 d33e
000000c0: cca1 383f 1026 093f 57ba 02be 368f 933e
000000d0: 22bc cfbe b56a 1fbf 23d8 c43e 3e51 ff3e
000000e0: 3d8b fd3e b157 ee3e 0b52 36bd 4aef f9bd
000000f0: 11a1 20bf ef99 40bf bc7e fabe 8fad cebe
00000100: 3083 0cbe 205a 023f 8a99 f1be 6f8b e9bd
00000110: ae79 883e 966d d3be 4591 d23d cb82 193f
0.32668117 0.4029588 0.48122215 0.1225394 0.049312863 0.27762815 -0.6690716 0.05401883
-0.16459025 -0.07244539 0.2909776 0.02243964 -0.18129057 0.5389858 0.047076415 0.4289021
0.29933575 0.10621226 0.47570044 0.071147785 -0.36906227 0.35743365 0.33197722 -0.18022151
-0.113736615 0.40883535 0.49913046 -0.37628776 -0.23851219 0.4377219 0.2858706 0.57478786
0.4054934 0.06325576 0.17578103 0.2579115 0.18112138 -0.3942927 -0.797792 0.7005794
-0.01368975 -0.14381666 0.3441873 0.550975 0.008730202 -0.10705556 -0.0029610712 0.41215423
0.7212188 0.53573704 -0.12766396 0.288202 -0.4057322 -0.62272197 0.3844615 0.4986667
0.49520293 0.46551278 -0.044511836 -0.12203844 -0.6274577 -0.75234884 -0.48924816 -0.4036679
-0.13721919 0.5091877 -0.47187454 -0.11403548 0.26655334 -0.41294545 0.10281614 0.599652

conv1.bias f4 [8]
00000000: 2154 dbbc 50d5 41be d2dd b9be 4ee1 10be
00000010: 62b8 fc3c a896 48bd 1794 473e 7a84 1c3c
-0.026773514 -0.18929029 -0.36302048 -0.14148447 0.03084964 -0.048971802 0.19490086 0.009553069

conv2.weight f4 [32, 8, 3, 3]
00000000: a411 b3be 74bd 7abe aaf6 aebe 356b 79be
00000010: 245b 04bc 7e66 573e 5512 1b3d b36b 7d3e
00000020: 1409 4a3e ea4d d5be d93f 82be 296f 9a3c
00000030: 2577 5fbd ae95 253e 6760 7a3e 82b1 1d3e
00000040: e82f 8b3c 51a1 5bbe 918c bcbe f01c 4ebc
00000050: 0c99 94bd 0025 08bc 352a dfbc 2fc6 fbbd
00000060: 5fb2 1dbe 7fc1 db3c a543 65bd 8846 58be
00000070: d83e 5ebe 2e1c 0c3e 97f6 15be 101e 243e
00000080: d80f 8e3e 316b 333e a80e 6d3d fd4d c1bc
00000090: d30d dfbd 14e3 0dbe 52ff 83bd ea53 96be
000000a0: e62d 8b3c 9f25 cebd dfe5 f73b b9e2 25be
000000b0: 01bc 95be 5edf a9be e95d 99be 6e33 84be
000000c0: 1254 59be 1665 123e 98ec a93e 8992 b03e
000000d0: a47f e33e 5f9b 193e 65c0 673c c3c5 a83d
000000e0: 70f7 b2be 26ee 78be d7ef a6be aae1 943e
000000f0: bd48 a03d 809c bc3e 01ce a03e 741d 8abe
00000100: 1b6e 3cbe 306e 56bd 04e6 a83e 2f55 6c3e
00000110: d8d4 88be 9cab b8bd 0acf 12be dcd4 40be
00000120: b0f3 2abe 51bf 8cbe 0eff 8bbd ee62 c63d
00000130: 4cf8 0c3d d32d 76be 2ff0 ed3d c37b 553e
00000140: 5d9a c53d 71c5 bf3c 91d2 6cbe c337 8fbe
00000150: ab66 b7bd f723 683d a074 27be b016 c9bd
00000160: 0738 053e cfb3 903d a579 2ebe 144b 7abe
00000170: 486c 90be c7db 413e e973 703e 0fb4 693d
00000180: 2e69 33be 056f 243e 3259 003e 39f3 c0bd
00000190: 0744 85be b27a a0be c476 e73d be43 143e
000001a0: 0cb3 babd 6d70 31bd b500 063e 26f0 4fbd
000001b0: dc04 9f3d 3e25 84bd f8a9 e5bd 5046 c73e
000001c0: 42ab b93e 103a c63e 8abe a8be 6e16 0f3e
000001d0: 58ab c03e b8e7 84be bfa8 d2be f558 18be
000001e0: 261a ea3d ddc1 82bd 0d44 65be 69f9 3a3e
000001f0: 4a98 e83d 6426 83bd fd7e df3d 2780 ce3d
00000200: 5179 21bc cec6 0bbe 34f8 05be 8eac f5bd
00000210: 6d4f ae3e 0094 5a3e 0c2b 37be c20f 12bf
00000220: 1d49 50be 0947 a3be eb3a b3be 8b82 98bd
00000230: 7c58 04bf f6db 98bd d582 a9bd f63c 4dbd
00000240: 331a 05be cb3a b1bd 3e22 7a3d ce88 a23d
00000250: 6501 9abd 7a5c c73c 66f8 d7bd 7544 dd3d
00000260: 688a 12be 9c62 813b fad9 d43d faa1 b83d
00000270: 96b1 1abd b228 ef3d a197 2dbd 794e 01be
00000280: 79ec 52bd 6a52 abbb 10e4 bfbb 6231 20be
00000290: 937c 13bd 2806 af3d fb8a 393d 7f0e e93a
000002a0: 49c7 11be a02e 083e d769 5e3e c200 e53c
000002b0: c921 d53b ac03 c93c e170 ec3b 2642 5e3d
000002c0: 380f 0bbe d3c9 97bd f2a9 48be 2059 ee3d
000002d0: 4d21 0b3e f6be 41be a8c8 84be 21ed 5ebd
000002e0: 9a66 183d cea7 333e 7055 38be 7020 8a3d
000002f0: d609 463e a79d 343e b0ec 723e 6208 ae3e
00000300: b9bc cc3c bb02 223d bdde ae3c 1dad b33d
00000310: 4830 93be cf8e b83d 9cc6 d6bc 4f36 87be
00000320: 986b 553e 33fe 18be 9b10 063d a9cf 04be
00000330: a523 113e c04e 1d3d 1f4c 93be 2ddf a13d
00000340: da38 0bbd ca60 c4be 14a4 00be 29e4 70be
00000350: 6e06 4bbe d6fa 3cbd 96aa 993d 4980 c6bd
00000360: e520 96bd f670 b13d 29b1 dd3c 4bfb 093e
00000370: 090b c1bc 1973 aebc c422 e5bd 1978 72be
00000380: 4941 483c b9e2 20bc 63b7 d33d 99e7 d63d
00000390: 2fd1 91bd 41d8 70be 4359 d83b dde8 e0bd
000003a0: fa4e c5bc c314 74bd 5e0a 313e 54c5 173e
000003b0: f6e6 833e 1940 17be c81d 13be dba5 9a3e
000003c0: 7a92 893d 5138 e93c c4b2 51be 95e2 a33d
000003d0: 818c f23d c58a 123e 676b 93bd 63bd 65be
000003e0: 0304 8f3d 8e4a c3bb d3ab cbbd 9ff2 2dbd
000003f0: 8e45 a33e da96 683e d2d7 b33e da46 5ebe
-0.34974396 -0.24486333 -0.34172565 -0.24357302 -0.00807837 0.21035191 0.03785928 0.24748115
0.19730026 -0.41661006 -0.25439337 0.018851833 -0.054556984 0.1617038 0.24450837 0.15399745
0.016990617 -0.21448256 -0.36825994 -0.012580141 -0.07255754 -0.008309603 -0.027241806 -0.1229366
-0.15400074 0.026825665 -0.055972714 -0.21120656 -0.2170366 0.13682625 -0.14644848 0.16027093
0.27746463 0.17521359 0.057875305 -0.023596758 -0.10891309 -0.13856155 -0.06445183 -0.29360896
0.01698966 -0.100657694 0.0075652446 -0.16199769 -0.29244998 -0.33178228 -0.2995446 -0.25820488
-0.21223477 0.14296374 0.3318832 0.34486797 0.4443332 0.15000676 0.0141449915 0.08240845
-0.34954405 -0.24309596 -0.32604858 0.29078418 0.07826374 0.3683815 0.31407169 -0.26975596
-0.18401377 -0.052351177 0.32987988 0.2307937 -0.26724887 -0.09017107 -0.14336792 -0.188312
-0.16694522 -0.27489713 -0.06835757 0.09686838 0.03441648 -0.24040918 0.11618077 0.20847993
0.09648583 0.023409577 -0.231272 -0.2797223 -0.08955129 0.056674924 -0.16353083 -0.098187804
0.13009654 0.07065546 -0.17038591 -0.24442703 -0.28207612 0.18931495 0.23481716 0.057056483
-0.17520592 0.16057976 0.12534025 -0.09421391 -0.26028463 -0.3134361 0.113019496 0.14478967
-0.09116182 -0.04332011 0.13086207 -0.050766133 0.07764599 -0.06452416 -0.112140596 0.38920832
0.36263472 0.38716173 -0.3295787 0.139734 0.37630725 -0.25958037 -0.41144368 -0.14877684
0.11430769 -0.06384633 -0.2238924 0.18259205 0.11357172 -0.06403807 0.10912893 0.10083037
-0.009855584 -0.13650057 -0.13082963 -0.11995803 0.34044972 0.2134552 -0.17887515 -0.57055295
-0.2034039 -0.31890133 -0.35005888 -0.07446774 -0.51697516 -0.07463829 -0.08276907 -0.050106965
-0.12998275 -0.08653792 0.061067812 0.0793625 -0.07519797 0.024336088 -0.10545425 0.10804073
-0.1431061 0.0039485227 0.10393138 0.090152696 -0.037767015 0.11677684 -0.042380933 -0.12627591
-0.05149505 -0.0052283304 -0.0058560446 -0.15643838 -0.036007475 0.08546096 0.045298558 0.001778081
-0.14236178 0.13299036 0.21720062 0.027954463 0.0065042716 0.024537884 0.0072156047 0.054262303
-0.13580024 -0.07411542 -0.19596079 0.11638093 0.13586922 -0.18920502 -0.2593434 -0.054425362
0.037207223 0.17544481 -0.18001342 0.06744468 0.1933969 0.17638265 0.23723102 0.3399077
0.024992334 0.039553385 0.021346444 0.08773253 -0.28747773 0.090116136 -0.026217751 -0.26408622
0.20841825 -0.1494072 0.03273068 -0.12969841 0.14173754 0.03840518 -0.28769013 0.079038955
-0.033989765 -0.38355094 -0.12562591 -0.23524536 -0.19826671 -0.046137653 0.0750324 -0.09692437
-0.07330493 0.08664124 0.027062016 0.13474767 -0.023564832 -0.021295117 -0.11188272 -0.23678626
0.012222596 -0.00981968 0.103377126 0.104933925 -0.07119977 -0.23519994 0.0066024377 -0.10981915
-0.02408551 -0.059590112 0.17289111 0.14821368 0.25762147 -0.14770545 -0.1436683 0.30204663
0.06717391 0.028469237 -0.2047835 0.080022015 0.11843205 0.14310749 -0.0719822 -0.22435527
0.06983187 -0.0059598153 -0.09944882 -0.04246771 0.31889004 0.22713795 0.35125595 -0.21706715

conv2.bias f4 [32]
00000000: 6474 11bc d311 9dbd f60e 8dbe 7e42 35be
00000010: 230a 85bc 9428 96bd f680 5dbe a0f5 89be
00000020: 4cbe f13c afa3 3ebd e9f4 d6bd 43fe 36be
00000030: 2f2c ebbd ac9b d6bd 15f3 ddbd 22e6 a9bd
00000040: faa5 e0bd cac0 aebd 3b9f 6fbe 0d32 42be
00000050: eadf 26bd 2965 74be abc5 17be b4e3 4cbe
00000060: 9104 84be 6c9a 7b3d 5264 16be cbd7 0f3d
00000070: edd0 4ebe 4d00 793d 53c3 e0bd 776e b3bd
-0.008877847 -0.07669415 -0.27550477 -0.17701146 -0.016240185 -0.073319584 -0.21631226 -0.2694521
0.029509686 -0.04654282 -0.10495932 -0.1787043 -0.11483037 -0.10478911 -0.1083738 -0.082958475
-0.109691575 -0.08532865 -0.23400585 -0.18964405 -0.040740885 -0.23866715 -0.14821498 -0.20008737
-0.25784734 0.061426565 -0.14686707 0.035117906 -0.20196886 0.060791302 -0.10974755 -0.08761304

fc1.weight f4 [10, 1568]
00000000: fcef 983d c908 763c 1668 9b3a 0feb 96bc
00000010: b61a 09be d280 65bd 2dba a6ba 2210 6a3d
00000020: f887 c33c ab88 d7bc 7957 4dbd 3f86 83bd
00000030: 9a25 563d 2411 453b f42e 9fbd 8314 f03c
00000040: 602c c53d 3b82 743d 4d70 09be aafc 8cbe
00000050: cd9c 43be 1ec0 37bd 1710 0a3e 6ed6 a43d
00000060: 12af 9bbe 65d4 c3bd d7ea cc3c b08e dbbd
00000070: 36bd 883d 2c0a f5bd 50f2 d7bc fa0f 5a3b
00000080: 16d6 bc3d 070a 6d3d 1e01 99be 7436 17bd
00000090: 2b23 4dbe 4202 7fbd c8cf a1bd ec00 b53c
000000a0: 6914 673e 9631 f33d c114 4c3d a856 bdbe
000000b0: badf 1abf ab31 5ebe 29e7 19bd 3280 2b3d
000000c0: 22ec 1f3d 5dc6 0abd 405d 27bd f13c af3b
000000d0: 5bc6 83bd 0a0e bf3c 0bc0 b5bc caf6 b5bd
000000e0: 9d1a a1bd 41c2 e23d 07a6 58bd bb4b 553c
000000f0: c89b 803d a703 4c3d 77a2 a83d ddbb a13d
00000100: 87d4 32bd c6d5 b03b 346b 603d a4a3 c53d
00000110: ec60 833d e713 ef3d b4c8 27bd 3bb6 a0be
00000120: 57f7 55bd 03ca 8bbe 9eb7 84be 5cff e7bd
00000130: c771 6c3d ced9 81be e445 3cbe c347 453c
00000140: 9a5a 0c3d b406 703d c45e 30be 6d1a 89bd
00000150: 1de0 2fbe 751b 7abd deb2 bf3b b750 b23c
00000160: f33a 59be cc5d 22be d972 973c a2ce 483d
00000170: dd3c 2b3d 4908 ca3c f708 76be c921 c1be
00000180: ef73 39be d0fd 0a3d 594d 1fbd 980f b8bd
00000190: dcc2 bb3c 20f4 853d 1cf3 6cbd 6dd0 b63a
000001a0: b0e4 cf3a e459 4fbd 9e8c 10bd 9050 c4bc
000001b0: 5e67 ae3d f6d9 9d3d 4d84 e13d 3efa bdbd
000001c0: a460 fe3c 1b7d 063d 5b9f 59bd 6d5a 3abd
000001d0: 915c c63c fd5f dc3d eeb5 76bc f56b 4c3d
000001e0: f4d4 313e 05ea dfbb 1b20 983d 78f3 91be
000001f0: 9b6e 633c 006f 83bd c6cf a83d a71f b73d
00000200: aa84 a63c 1b7c 04be 492e b7bc 136a d03d
00000210: 02f1 abbd e11f 8bbd 9eeb 793c 55c0 e63d
00000220: a916 c03d 51c4 ed3b 94b7 db3c 968d c83c
00000230: 1541 4c3d 5ad3 a83d fa89 ffbd 3482 973d
00000240: 6037 a53d d568 db3c a009 09bd 63ab 6abd
00000250: 73e9 a03c b8f0 533d b2ca 6b3d 876a 023e
00000260: 0d32 82bc cf92 f93c 48b8 d43c 07af eabd
00000270: 8f3f 9cbe ccc5 81bc f549 d43c 81d8 8ebb
00000280: 2383 fabd f875 723d e635 0dbc 62fe e03c
00000290: 43aa d73d 5f5c 23bc 5843 b53b ed5f f4bd
000002a0: a063 653c a327 17be 78be 32be d098 61bd
000002b0: 1d82 65bd d7e1 82bd 4ac9 19be 5c1f df3c
000002c0: 491f 773d 44a1 1a3d 6b34 47be 0fc5 3b3d
000002d0: dd22 11bc 734a 67bc 645c 1c3d 82b7 72bc
000002e0: ce49 5d3d d090 c7b9 d0ed f1bc 1db5 09bc
000002f0: 9bb2 4abd 5450 473c bd89 ca3c 3e9e 1e3d
00000300: e7a1 f43c 432d 073d e13c 8cbd fa61 89bd
00000310: db2f 363d 0f0a 063d c8d1 ae3d 1e37 24bd
00000320: e00f 1a3d 893f 383d 50df cb3c 9dac b83c
00000330: 4674 693d 8e19 cc3c 2829 763e 4333 433b
00000340: c5d7 b037 1d16 d8bc fcef 583d 9a1d 17bd
00000350: 890e 013d a46e d6bd b7c2 97bd 8c87 25be
00000360: f6de 21bd f760 9cbd e881 7ebe 46a2 50be
00000370: b358 6abd 0fb2 89bd 37fd 6cbe 5666 34bd
00000380: d6f2 9d3b 34f4 8abe b05b bebe fcee f2bd
00000390: 734c 3a3d 2343 143e 2550 483d b489 083d
000003a0: cd17 d6bd d62b 1fbd 6320 f73d 68f5 693d
000003b0: 2801 453d a3c9 afbc dff7 8b3d 9e29 cabc
000003c0: 46ee 16bd 314a d13c 6cd7 c03c fa3f 553d
000003d0: 435f 09bc 3e32 4cbd b113 7bbc 8793 b8bc
000003e0: 6b14 eabc 274b 98bc 2005 2bbe c189 f03a
000003f0: 814e 7c3d 90ff 013d fdc5 d0bd 5769 e5bb
0.074676484 0.015016743 0.0011856582 -0.018422632 -0.13389096 -0.056031056 -0.001272028 0.05714429
0.023868546 -0.026310286 -0.05013225 -0.0642209 0.052281953 0.003007003 -0.077726275 0.029306656
0.096276045 0.05969451 -0.13421746 -0.27536517 -0.19102784 -0.04486095 0.134827 0.08048712
-0.30407006 -0.095619954 0.025014324 -0.10720575 0.06676714 -0.11964831 -0.02636066 0.0033273683
0.09220521 0.05787089 -0.29883665 -0.036917165 -0.20032947 -0.062258013 -0.07900959 0.022095166
0.2256638 0.11874692 0.04982448 -0.36980176 -0.6049763 -0.21698634 -0.037573967 0.041870303
0.039043553 -0.03388058 -0.040860415 0.005347841 -0.06434318 0.023322124 -0.0221863 -0.08884962
-0.07866404 0.11072207 -0.05289271 0.013018544 0.06279713 0.04980817 0.08234113 0.0789716
-0.043659713 0.0053965775 0.054789737 0.096503526 0.06414971 0.11673718 -0.04096289 -0.3138903
-0.052237835 -0.2730256 -0.2592134 -0.11328003 0.057725694 -0.25361484 -0.18386036 0.012041035
0.034266092 0.058600143 -0.1722365 -0.066944934 -0.17175336 -0.06106134 0.00585018 0.021767003
-0.21213894 -0.15856093 0.01848738 0.049025185 0.04180609 0.024662154 -0.24026857 -0.3772109
-0.18110631 0.03393346 -0.038892124 -0.08987349 0.022920065 0.06540704 -0.057849035 0.0013947614
0.0015861001 -0.050622836 -0.035290353 -0.023964196 0.085158095 0.077075884 0.110115625 -0.092762455
0.031051941 0.032834154 -0.05313049 -0.045496393 0.024214061 0.10760496 -0.015058024 0.049907643
0.17366391 -0.006833317 0.07427999 -0.28506064 0.013881351 -0.06417656 0.08242755 0.08941584
0.020326931 -0.12937967 -0.022360938 0.10176482 -0.08395578 -0.0679319 0.015253929 0.11267153
0.09379322 0.0072560688 0.026820935 0.024481576 0.049866755 0.08243437 -0.12477489 0.07397881
0.080672026 0.026783386 -0.033456445 -0.057292353 0.019642567 0.05174324 0.057566352 0.1273595
-0.015893007 0.030465512 0.025966778 -0.11459165 -0.3051724 -0.015841387 0.025914172 -0.0043593054
-0.122320436 0.059194535 -0.008618807 0.02746505 0.10530522 -0.009970753 0.0055317096 -0.11932359
0.014000803 -0.14761214 -0.1745547 -0.055077374 -0.05603229 -0.06390732 -0.15018192 0.027236633
0.06033257 0.03775145 -0.1945359 0.045842227 -0.00885841 -0.014116871 0.038174048 -0.0148142595
0.054025464 -0.00038064132 -0.029532343 -0.008404997 -0.049486738 0.012165148 0.024723882 0.03872513
0.029862357 0.03300215 -0.06847549 -0.06708141 0.044479232 0.032724436 0.08536106 -0.040091626
0.037612796 0.044982467 0.024886757 0.022543246 0.056995653 0.02491453 0.24039137 0.0029785193
2.108131e-05 -0.026377732 0.052963242 -0.036893465 0.031508002 -0.10470322 -0.07410186 -0.16164988
-0.039519273 -0.07635682 -0.24854243 -0.20374402 -0.057213496 -0.06723415 -0.23143469 -0.044042908
0.004820208 -0.27139437 -0.37179327 -0.11861989 0.045483064 0.14478736 0.048904557 0.03333445
-0.104537584 -0.038860165 0.12066724 0.057118803 0.048096806 -0.021458453 0.06834387 -0.024678048
-0.03684833 0.025548073 0.023540221 0.052062966 -0.008384529 -0.049852602 -0.015324519 -0.022531284
-0.02857419 -0.018590523 -0.16701174 0.0018351601 0.061598305 0.031737864 -0.10194013 -0.007001083

fc1.bias f4 [10]
00000000: f2d8 4e3d d3a3 e63d 84c7 e5bb dc10 10bd
00000010: be87 86bd 6fff 12bb 888c 8bbc 355a a9bc
00000020: bb59 9f3c 1347 3e3b
0.050499864 0.11261716 -0.0070123095 -0.03517233 -0.065688595 -0.0022430082 -0.017034784 -0.020672897
0.019451967 0.0029034063
