checkpoints/epoch=4.checkpoint.pth.tar (torch, 75230 bytes, 6 tensors)

conv1.weight f4 [8, 1, 3, 3]
0	0x3ea1e735	0.3162171
1	0x3ecfaa12	0.4055944
2	0x3f05411f	0.5205249
3	0x3e0b7c12	0.13621548
4	0x3d6245de	0.05524241
5	0x3e981a00	0.29707336
6	0xbf19ff88	-0.60155535
7	0x3ddc2f3c	0.10751197
8	0xbde4d177	-0.11172765
9	0xbd7f8d68	-0.062390715
10	0x3e95c5a6	0.29252356
11	0x3cdbf77b	0.026851406
12	0xbe312b7b	-0.17301743
13	0x3f09c835	0.53821117
14	0x3d63c5ad	0.05560844
15	0x3ee65e68	0.449939
16	0x3e988e24	0.29795945
17	0x3e0363a6	0.12830982
18	0x3eecb8dc	0.46234787
19	0x3d80dab6	0.06291716
20	0xbeb9e6c6	-0.3630888
21	0x3eafc43c	0.34329402
22	0x3e9ca778	0.3059652
23	0xbe303a1b	-0.17209665
24	0xbdcff05c	-0.10153267
25	0x3ecbca94	0.39802992
26	0x3f00ad06	0.5026401
27	0xbeb0d85d	-0.34540072
28	0xbe628c3a	-0.22123805
29	0x3edb5143	0.42835435
30	0x3e8a3726	0.269952
31	0x3f114c75	0.5675729
32	0x3ed07438	0.40713668
33	0x3d8c1b58	0.06841153
34	0x3e46f1a4	0.19428116
35	0x3e968ba1	0.29403403
36	0x3e32aabb	0.17447941
37	0xbebe9382	-0.37221915
38	0xbf4307a9	-0.76183563
39	0x3f2bd56c	0.6712253
40	0xbca18560	-0.019716918
41	0xbe0346f6	-0.12820038
42	0x3ea79c12	0.3273626
43	0x3f0a5639	0.54037815
44	0x3c6e4d08	0.014544733
45	0xbdd09f39	-0.10186619
46	0xbc048d81	-0.008090378
47	0x3ed6a091	0.41919377
48	0x3f33db4d	0.702565
49	0x3f0842cf	0.5322694
50	0xbdd60f26	-0.10452108
51	0x3e8cdb83	0.27511224
52	0xbec177e5	-0.37786785
53	0xbf104e14	-0.5636914
54	0x3ebc99e4	0.3683616
55	0x3ef645e3	0.48100194
56	0x3ef29a1b	0.47383198
57	0x3ee89193	0.45423564
58	0xbd4e2111	-0.050324503
59	0xbdf72f04	-0.120695144
60	0xbf1d0db5	-0.6134904
61	0xbf36693a	-0.71254313
62	0xbeef81a9	-0.4677861
63	0xbecbecc2	-0.3982907
64	0xbe0e38db	-0.13888876
65	0x3effc2ed	0.49953404
66	0xbee2784d	-0.44232407
67	0xbdf66988	-0.12031847
68	0x3e7ae9e5	0.24503286
69	0xbecf6821	-0.40509132
70	0x3db572e8	0.08859807
71	0x3f157b6f	0.5839147

conv1.bias f4 [8]
0	0xba2d3304	-0.0006607028
1	0xbe2e050a	-0.1699411
2	0xbeab3788	-0.33440804
3	0xbde398ef	-0.11113154
4	0x3d017a82	0.031610973
5	0xbd560dfb	-0.052259427
6	0x3e3cd44f	0.18440364
7	0x3c431a79	0.011908167

conv2.weight f4 [32, 8, 3, 3]
0	0xbea9a046	-0.3313009
1	0xbe8b0c1b	-0.27157673
2	0xbeaf2f87	-0.34215948
3	0xbe7a04a6	-0.24415836
4	0xbc779476	-0.015111079
5	0x3e3abadd	0.18235345
6	0x3cae5f02	0.021285538
7	0x3e64e78a	0.2235395
8	0x3e3e7d12	0.18602398
9	0xbed9e3d4	-0.42556632
10	0xbe7e5d00	-0.24840164
11	0x3c8e0a10	0.017338783
12	0xbd3979f4	-0.04528232
13	0x3e15aa67	0.14615785
14	0x3e6f4617	0.23366581
15	0x3e1d0f28	0.15337813
16	0x3c70e99c	0.014704134
17	0xbe60308d	-0.2189352
18	0xbebe9bda	-0.3722828
19	0xbd12537b	-0.035724144
20	0xbdae9a98	-0.0852558
21	0xbcdb0d9a	-0.026739884
22	0xbd452ee3	-0.048140418
23	0xbe0a3f52	-0.13500717
24	0xbe11556a	-0.14192739
25	0x3adf5c37	0.0017041032
26	0xbd7e7644	-0.062124506
27	0xbe6c0029	-0.23046936
28	0xbe5cb10d	-0.21551915
29	0x3dfea6c1	0.124341495
30	0xbe0a58e3	-0.1351047
31	0x3e1780ef	0.14795278
32	0x3e830eaf	0.2559714
33	0x3e29e61e	0.16591689
34	0x3d3fc39e	0.046817414
35	0xbce8ec15	-0.028432885
36	0xbe0f621c	-0.1400227
37	0xbe2b450e	-0.16725561
38	0xbdafd08f	-0.08584701
39	0xbe9bf309	-0.3045886
40	0xbb885f70	-0.0041617677
41	0xbdc661b4	-0.09686604
42	0x3c1029fd	0.008799073
43	0xbe324b23	-0.17411475
44	0xbe93a661	-0.28837875
45	0xbea13eaa	-0.3149312
46	0xbe980c52	-0.296969
47	0xbe73485a	-0.23758069
48	0xbe5fca0c	-0.21854419
49	0x3e0931dd	0.13397928
50	0x3ea60700	0.32427216
51	0x3ea43008	0.32067895
52	0x3edb224d	0.42799607
53	0x3e1249b3	0.14285927
54	0x3c20da6c	0.009817701
55	0x3c12d5cf	0.008962109
56	0xbebb1ea1	-0.36546806
57	0xbe94cff5	-0.2906491
58	0xbea9a312	-0.33132225
59	0x3e82ae91	0.2552381
60	0x3d521f1d	0.051299203
61	0x3eaf14e4	0.34195626
62	0x3e972c69	0.2952607
63	0xbe8df8fd	-0.27729025
64	0xbe38947f	-0.18025397
65	0xbd7bb17f	-0.06144857
66	0x3ea42e1d	0.32066432
67	0x3e61e19f	0.22058724
68	0xbe80e254	-0.25172675
69	0xbdb97cee	-0.090570316
70	0xbe1477d0	-0.1449883
71	0xbe3e4320	-0.18580294
72	0xbe1ed5d0	-0.1551125
73	0xbe8f24c1	-0.27957729
74	0xbd8c5caf	-0.068536155
75	0x3dd14b40	0.10219431
76	0x3d05a464	0.03262748
77	0xbe631e7d	-0.22179599
78	0x3df8193b	0.12114187
79	0x3e590a4e	0.21195337
80	0x3dc2c535	0.095102705
81	0x3d012b62	0.031535514
82	0xbe6a643f	-0.22889803
83	0xbe900d4b	-0.28135142
84	0xbd98daa4	-0.074635774
85	0x3d542f69	0.051803026
86	0xbe1ea00f	-0.15490745
87	0xbdcaca6d	-0.09901891
88	0x3de828fa	0.11335941
89	0x3d77f16f	0.060532983
90	0xbe0c3d06	-0.13695154
91	0xbe791751	-0.24325301
92	0xbe8f8720	-0.2803278
93	0x3e57e67c	0.21084017
94	0x3e68cb5b	0.22733824
95	0x3d7bed7c	0.06150578
96	0xbe29d0a7	-0.16583501
97	0x3e15c2fd	0.14625163
98	0x3ddc68e2	0.10762192
99	0xbdb00331	-0.08594359
100	0xbe86d152	-0.26331574
101	0xbe9b04d2	-0.30277115
102	0x3df810f0	0.121126056
103	0x3e09cd36	0.13457188
104	0xbd9b21e2	-0.07574822
105	0xbd3537c7	-0.044242647
106	0x3dfae258	0.12250203
107	0xbd473761	-0.048636798
108	0x3ded840e	0.11597453
109	0xbd46f916	-0.04857739
110	0xbdc44d52	-0.0958506
111	0x3ed19066	0.4093048
112	0x3ebb0c47	0.36532804
113	0x3ec0b037	0.3763444
114	0xbe9a8a93	-0.3018385
115	0x3e013e6f	0.12621473
116	0x3eb448e9	0.35211876
117	0xbe7bf300	-0.24604416
118	0xbed12f4c	-0.40856397
119	0xbe2a3416	-0.16621432
120	0x3dca0769	0.098646946
121	0xbd9c4c6d	-0.076317646
122	0xbe566811	-0.20938136
123	0x3e493e4f	0.19652675
124	0x3de9eb56	0.1142184
125	0xbd4ab5f0	-0.049489915
126	0x3de1a4d3	0.11017766
127	0x3db179f8	0.08665842
128	0xbd06f6e9	-0.032950316
129	0xbdfa6409	-0.122261114
130	0xbddd310e	-0.10800372
131	0xbded58c6	-0.11589198
132	0x3eb3130c	0.3497547
133	0x3e6be5dd	0.23036905
134	0xbe17b80a	-0.14816299
135	0xbf044159	-0.5166221
136	0xbe51d875	-0.20492728
137	0xbe9904b5	-0.29886404
138	0xbea48e86	-0.32139987
139	0xbdc33ee2	-0.09533478
140	0xbefab1f1	-0.48963884
141	0xbdd0e2a5	-0.10199479
142	0xbdd21cb3	-0.1025938
143	0xbd36099f	-0.04444277
144	0xbe004f00	-0.12530136
145	0xbd8ed82b	-0.069748245
146	0x3d9b34de	0.07578443
147	0x3db09d93	0.08623805
148	0xbd7f2738	-0.06229326
149	0x3d2f276b	0.0427622
150	0xbdd3fbb3	-0.10350742
151	0x3dbfb045	0.093597926
152	0xbe0db9b1	-0.13840367
153	0x3bdf4bce	0.0068144565
154	0x3de4d580	0.111735344
155	0x3dcae048	0.099060595
156	0xbcd05888	-0.02543284
157	0x3dfb88df	0.122819655
158	0xbc82c5e9	-0.015963512
159	0xbdd657fb	-0.10466
160	0xbd377791	-0.04479176
161	0xbbe67bef	-0.007033817
162	0xbc36017a	-0.0111087505
163	0xbe17d0a0	-0.14825678
164	0xbc95f894	-0.018307008
165	0x3da3c71f	0.07996964
166	0x3d21cfbb	0.039504748
167	0x3bd6aff8	0.006551739
168	0xbe069ce6	-0.1314579
169	0x3decbdd7	0.115596466
170	0x3e3dd6a1	0.18538906
171	0x3d0c0c37	0.034191336
172	0x3c388abb	0.011263545
173	0x3ce7582a	0.028240282
174	0x3cb7091a	0.022343207
175	0x3d65d86e	0.056114607
176	0xbde23a22	-0.11046244
177	0xbd71f33d	-0.05906986
178	0xbe43a38a	-0.19105354
179	0x3de4b5e3	0.11167505
180	0x3e0afcfc	0.13573068
181	0xbe2829af	-0.16422151
182	0xbe6d83d3	-0.23194818
183	0xbd20858b	-0.039189856
184	0x3d27e7d6	0.04099258
185	0x3e2f7898	0.17135847
186	0xbe029921	-0.12753727
187	0x3d89e629	0.06733353
188	0x3e212bf7	0.15739428
189	0x3e2117ca	0.15731731
190	0x3e6c7129	0.23090042
191	0x3eab2b70	0.33431578
192	0x3d2c0099	0.041992757
193	0x3d7db81f	0.06194317
194	0x3c94b70b	0.018153688
195	0x3dc7981f	0.09745812
196	0xbe821b82	-0.25411612
197	0x3dbea6d3	0.09309163
198	0xbc0d3ecc	-0.008620929
199	0xbe6dca60	-0.23221731
200	0x3e543c54	0.20726138
201	0xbe05538d	-0.13020153
202	0x3d8746d1	0.06605304
203	0xbde9abc3	-0.11409714
204	0x3e1357d8	0.14388978
205	0x3d2b58a1	0.04183257
206	0xbe8986d9	-0.26860693
207	0x3dde9ed0	0.10870135
208	0xbc98b19c	-0.018639378
209	0xbeb2c1d4	-0.34913504
210	0xbddb94c3	-0.107217334
211	0xbe494c15	-0.19657929
212	0xbe0a99b2	-0.13535193
213	0xbd38dff6	-0.04513546
214	0x3da25880	0.07927036
215	0xbd6f66e8	-0.05844775
216	0xbda02766	-0.07820015
217	0x3dcd71b2	0.10031451
218	0x3d29bfce	0.041442685
219	0x3e0ed8cc	0.13949889
220	0xbc7f735e	-0.0155914705
221	0xbc10238c	-0.008797538
222	0xbdcb5f64	-0.09930304
223	0xbe6b9092	-0.23004368
224	0x3c8d5096	0.01725034
225	0xbbdd867c	-0.0067604166
226	0x3df276cc	0.11839065
227	0x3dec44a5	0.115365304
228	0xbd9a78de	-0.07542585
229	0xbe626a9b	-0.2211098
230	0x3c0bbde7	0.008529163
231	0xbe0c676c	-0.13711327
232	0xbd03cc30	-0.03217715
233	0xbd8824a8	-0.066476166
234	0x3e2c0a05	0.16800697
235	0x3e1e1c77	0.15440546
236	0x3e87b0d4	0.26502097
237	0xbe0a9502	-0.13533404
238	0xbe058822	-0.13040212
239	0x3e93e32c	0.28884256
240	0x3d29b4d2	0.04143221
241	0x3bba7ce8	0.0056911595
242	0xbe56ee1a	-0.20989266
243	0x3da52db2	0.08065356
244	0x3e0203c4	0.12696749
245	0x3e1e184d	0.15438958
246	0xbd7ffd4b	-0.06249742
247	0xbe571d66	-0.21007308
248	0x3da51f38	0.08062595
249	0xbcd94a74	-0.02652476
250	0xbdfb040a	-0.1225663
251	0xbd37e0e4	-0.044892207
252	0x3e9b5028	0.30334592
253	0x3e55f953	0.20895891
254	0x3eb22dee	0.34800667
255	0xbe4dadd3	-0.2008584

conv2.bias f4 [32]
0	0xbd15a3d9	-0.03653321
1	0xbd861eb3	-0.06548824
2	0xbe7ee9bd	-0.24893852
3	0xbe1ad2c2	-0.1511946
4	0xbc0733df	-0.008252113
5	0xbd59b240	-0.053148508
6	0xbe4919c7	-0.1963874
7	0xbe7cdaad	-0.24692793
8	0x3d4e02f1	0.050295774
9	0xbd93f441	-0.07224322
10	0xbdc6c4a0	-0.09705472
11	0xbe3c682c	-0.18399113
12	0xbddb7622	-0.107158914
13	0xbdc63a8e	-0.09679137
14	0xbda3e9a5	-0.080035485
15	0xbd9ffaf5	-0.07811538
16	0xbdef5c5d	-0.11687539
17	0xbd9f38b2	-0.07774486
18	0xbe645d3d	-0.22301193
19	0xbe3edaac	-0.18638104
20	0xbd199bb8	-0.03750202
21	0xbe565618	-0.2093128
22	0xbe17c5ab	-0.14821498
23	0xbe4d5359	-0.20051326
24	0xbe543ecd	-0.20727082
25	0x3da71c15	0.08159653
26	0xbe15197a	-0.145605
27	0x3d558443	0.052128088
28	0xbe4a65fc	-0.19765466
29	0x3d5550a8	0.052078873
30	0xbdc5592c	-0.09636149
31	0xbd83df74	-0.06439105

fc1.weight f4 [10, 1568]
0	0x3d7a5caa	0.061123528
1	0xbbc180bc	-0.005905239
2	0xbc4d039d	-0.0125130685
3	0xbc7009bd	-0.014650759
4	0xbe017e14	-0.12645751
5	0xbd7708d5	-0.060311157
6	0x39c48965	0.000374864
7	0x3d2c9e4c	0.04214315
8	0xbc1d67e4	-0.009607289
9	0xbd11df5d	-0.035613406
10	0xbd3b4044	-0.045715585
11	0xbd70effb	-0.058822613
12	0x3d15a3d5	0.036533196
13	0x3bcfdc2d	0.0063433857
14	0xbdc59b1c	-0.096487254
15	0x3cd03858	0.025417492
16	0x3db9e2d0	0.09076464
17	0x3d5db2ac	0.054125473
18	0xbdedea92	-0.11617006
19	0xbe72115a	-0.23639432
20	0xbe330d52	-0.1748555
21	0xbd24e327	-0.04025569
22	0x3e0883b2	0.13331488
23	0x3d9e2254	0.07721391
24	0xbe9a91c1	-0.30189326
25	0xbdc3f495	-0.09568135
26	0x3c154426	0.009110486
27	0xbde0b7bd	-0.10972545
28	0x3d835465	0.06412581
29	0xbdc5fd20	-0.096674204
30	0xbc947769	-0.018123345
31	0x3c13321c	0.008984115
32	0x3dbacb31	0.09120787
33	0x3d43ad80	0.047772884
34	0xbe8b3d29	-0.271951
35	0xbc1215df	-0.008916347
36	0xbe4688b4	-0.19388086
37	0xbd46aa6b	-0.048502367
38	0xbd8c5a23	-0.0685313
39	0x3b2b7091	0.0026159624
40	0x3e3a1c9c	0.18174976
41	0x3dad9503	0.08475687
42	0x3d18e2c7	0.037325647
43	0xbea64edb	-0.32482037
44	0xbf0541a9	-0.52053314
45	0xbe51c6dd	-0.20486017
46	0xbd0bbf4d	-0.034117986
47	0x3cc320c0	0.023819327
48	0x3c9dcf04	0.019263752
49	0xbcf86654	-0.030322231
50	0xbdaa650e	-0.08320056
51	0xbccf8894	-0.02533368
52	0xbd674d4f	-0.05647021
53	0x3c5243a2	0.012833508
54	0xbd0a76ad	-0.033804584
55	0xbd93fbf9	-0.07225794
56	0xbd809124	-0.062776834
57	0x3daa8ed0	0.083280206
58	0xbd95118a	-0.07278736
59	0xbad7ac44	-0.0016454537
60	0x3d82eae7	0.0639246
61	0x3d45ef1d	0.04832374
62	0x3da11b4a	0.07866533
63	0x3d244847	0.04010799
64	0xbd28a7a8	-0.041175514
65	0x3c389e73	0.011268246
66	0x3c97ff07	0.018554224
67	0x3daf3682	0.085553184
68	0x3d824a86	0.063618705
69	0x3de2d4eb	0.11075767
70	0xbd3bc966	-0.045846365
71	0xbe89af6b	-0.26891646
72	0xbd61bb8b	-0.055110496
73	0xbe7c3b87	-0.24632083
74	0xbe84c5b2	-0.2593208
75	0xbdd09cdb	-0.10186168
76	0x3d5a1602	0.053243645
77	0xbe5d33ad	-0.21601744
78	0xbe3385ed	-0.17531557
79	0x3afc29e1	0.0019238555
80	0x3d19f0f4	0.037583306
81	0x3d08f2ab	0.03343455
82	0xbe11e302	-0.14246753
83	0xbd9355de	-0.07194112
84	0xbe12ceee	-0.1433675
85	0xbbee3a96	-0.0072701676
86	0x3a7e7f2a	0.000970828
87	0x3c291a47	0.010321206
88	0xbe517512	-0.20454815
89	0xbe2fd711	-0.17171885
90	0xbc136b4c	-0.00899775
91	0x3c997bd1	0.018735798
92	0x3c8f07b7	0.017459733
93	0x3cc71dac	0.02430614
94	0xbe5b4b70	-0.21415496
95	0xbeb2be73	-0.34910926
96	0xbe23bf0a	-0.15990844
97	0x3c683e34	0.014174987
98	0xbd13eb11	-0.03611285
99	0xbd9e21ed	-0.077213146
100	0x3cbd1672	0.023081992
101	0x3d025c51	0.03182632
102	0xbcf6a81b	-0.030109456
103	0xbc0cd0d2	-0.0085947085
104	0x3ad0232c	0.0015879623
105	0xbd4f3650	-0.050588906
106	0xbcf7e86d	-0.030262196
107	0xbd190ccd	-0.037365723
108	0x3d6574d3	0.056019615
109	0x3d9bfa5e	0.07616113
110	0x3db09d31	0.08623732
111	0xbd9a16e5	-0.07523898
112	0x3b98a642	0.0046584914
113	0x3bbc9378	0.0057548843
114	0xbcd5b0cf	-0.026085285
115	0xbd39241f	-0.045200463
116	0x3d03405f	0.03204381
117	0x3da4b0f0	0.08041561
118	0xbcd8a02b	-0.026443562
119	0x3d4c000c	0.049804732
120	0x3e16c51c	0.14723629
121	0xbc282c6e	-0.010264499
122	0x3d2c9b32	0.042140193
123	0xbe762dab	-0.24040858
124	0x3cc3162a	0.02381428
125	0xbda2cd53	-0.07949319
126	0x3d78b30b	0.060717624
127	0x3db3de62	0.087826505
128	0x3c635378	0.013874881
129	0xbe088017	-0.13330112
130	0xbc86c56b	-0.016451558
131	0x3d923813	0.071396016
132	0xbd9c089b	-0.07618829
133	0xbd674922	-0.05646623
134	0xbba54f25	-0.005044835
135	0x3dc9fdba	0.098628476
136	0x3d96e9e4	0.0736883
137	0x3b343aea	0.0027500936
138	0x3d2befd4	0.041976765
139	0xbb65a943	-0.0035043515
140	0x3d783565	0.060597796
141	0x3db1f377	0.08689015
142	0xbdcdf83d	-0.10057113
143	0x3d3498c2	0.044090994
144	0x3d65c900	0.05609989
145	0xbc6bb3d0	-0.014386132
146	0xbd08d000	-0.03340149
147	0xbd6380a2	-0.055542596
148	0xbbcfd865	-0.006342935
149	0x3d307db4	0.04308863
150	0x3cdb73fd	0.026788706
151	0x3dc5ff47	0.09667831
152	0xbc81018e	-0.015747812
153	0x3cf992cf	0.030465512
154	0x3c8dfd1a	0.017332602
155	0xbe158c12	-0.14604214
156	0xbea67d9e	-0.32517713
157	0xbcd40b15	-0.02588419
158	0x3d2e158f	0.04250103
159	0xbbf26c5c	-0.0073981714
160	0xbdd6077c	-0.10450646
161	0x3d7ea347	0.062167432
162	0xbd22ae8e	-0.03971725
163	0xba65ebe7	-0.0008770809
164	0x3da2139e	0.07913898
165	0x3aa88817	0.0012857941
166	0x3c7456d8	0.014913283
167	0xbdc251d5	-0.094882645
168	0x3c2e8b17	0.010653279
169	0xbe050871	-0.12991501
170	0xbe42241d	-0.18959089
171	0xbd7ba19c	-0.06143342
172	0xbd6df05f	-0.058090564
173	0xbd4380f3	-0.047730397
174	0xbe05a6e2	-0.13051942
175	0x3cd0db96	0.025495332
176	0x3cee99e2	0.029126111
177	0x3ce0949f	0.027414618
178	0xbe2cfbed	-0.16892977
179	0x3d6374a7	0.05553117
180	0xbc75f119	-0.015011095
181	0xbc963993	-0.018338
182	0x3d8cabe2	0.068687215
183	0xbbbccb91	-0.0057615717
184	0x3d37f07e	0.044907086
185	0x3b8fbf6c	0.004386833
186	0xbcec8c35	-0.02887545
187	0xbca76d83	-0.020437961
188	0xbd27fd13	-0.041012835
189	0x3d122d27	0.035687592
190	0x3cd69cb3	0.026197767
191	0x3d0aa10f	0.033845004
192	0x3cc32c0c	0.023824714
193	0x3bccb01c	0.00624658
194	0xbdb5f2ff	-0.088842385
195	0xbd92d38f	-0.07169258
196	0x3d0dcd11	0.034619395
197	0x3bb30521	0.005463258
198	0x3d9ed7b0	0.07755983
199	0xbcf19edc	-0.029494695
200	0x3d15e171	0.03659195
201	0x3c4cb3f9	0.012494081
202	0x3ccf2c95	0.025289813
203	0x3cf8173c	0.030284517
204	0x3d7fb365	0.062426943
205	0xba23689b	-0.0006233544
206	0x3e677d25	0.22606333
207	0xbd2398f3	-0.039940786
208	0xbba1002a	-0.0049133496
209	0xbc94d0a7	-0.0181659
210	0x3d24fbfa	0.040279366
211	0xbd3046f8	-0.04303643
212	0x3c879063	0.016548341
213	0xbdbcae66	-0.09212951
214	0xbda26205	-0.07928852
215	0xbe243938	-0.16037452
216	0xbd068150	-0.032838166
217	0xbd25b78c	-0.040458247
218	0xbe663229	-0.22480072
219	0xbe4e44e3	-0.20143466
220	0xbda57863	-0.080796026
221	0xbda0fbaa	-0.07860501
222	0xbe3b3804	-0.18283087
223	0xbd12ca46	-0.035837434
224	0xbaf2bbf1	-0.0018519146
225	0xbe7a961a	-0.24471322
226	0xbeab76a2	-0.33488947
227	0xbe0c36ac	-0.1369273
228	0x3d685773	0.056724023
229	0x3dd396eb	0.1033152
230	0x3cfee8e0	0.031116903
231	0x3ce7664d	0.028247023
232	0xbdb0c0df	-0.08630537
233	0xbcb3f86b	-0.02196904
234	0x3ddf280e	0.10896312
235	0x3d8442b5	0.06458036
236	0x3ced2224	0.028946944
237	0xbd270c09	-0.040782962
238	0x3daecc7d	0.08535097
239	0xbca26c7f	-0.019827126
240	0xbd2bac63	-0.041912448
241	0x3c2ad13f	0.010425865
242	0x3be79f7e	0.0070685735
243	0x3cb7363d	0.02236473
244	0x3c003501	0.007825137
245	0xbd3209e4	-0.043466464
246	0xbd516450	-0.051121056
247	0xbc0e369e	-0.008680014
248	0xbcadfe08	-0.021239296
249	0xbce4ee5a	-0.027945686
250	0xbe1765ec	-0.14784974
251	0xbcbe128d	-0.023202205
252	0x3d37fd9e	0.044919603
253	0x3c75d043	0.015003267
254	0xbdab2af0	-0.08357799
255	0xbbae882e	-0.0053262925

fc1.bias f4 [10]
0	0x3d24c00f	0.040222224
1	0x3dcb7488	0.09934336
2	0xbc5fcc50	-0.013659552
3	0xbd206cf2	-0.0391664
4	0xbd765fe2	-0.060150035
5	0x3bd6e9a7	0.0065586152
6	0xbc85bb4a	-0.016324658
7	0xbc5e9072	-0.013584243
8	0x3ca73856	0.020412605
9	0x3c12ba23	0.008955511
